models/qcnn_lstm_real_c0.5/subcnn_qonnx.onnx (onnx, 31479 bytes, 12 tensors)

Conv_0_param0 f4 [32]
0	0x37857dba	1.5913382e-05
1	0x367498c5	3.6447757e-06
2	0x388c0b67	6.677844e-05
3	0x38034757	3.1299274e-05
4	0x37b984c1	2.2115537e-05
5	0x35e508db	1.7064407e-06
6	0x3783d3cc	1.5715043e-05
7	0x3693bb60	4.4027547e-06
8	0x3547ca4f	7.4427675e-07
9	0xb628b685	-2.5140191e-06
10	0xb55b575b	-8.1710976e-07
11	0x37f04f61	2.8647193e-05
12	0x37870983	1.6097683e-05
13	0x36be6fa6	5.675439e-06
14	0x3704e7ab	7.9217525e-06
15	0xb55661cd	-7.986353e-07
16	0x36dd5cd5	6.5971203e-06
17	0x358d5557	1.0530156e-06
18	0x351586ad	5.5702805e-07
19	0x353e1420	7.08098e-07
20	0xb6425987	-2.8960364e-06
21	0x36cf36ef	6.175476e-06
22	0xb36bf09d	-5.4934038e-08
23	0xb5f7ebda	-1.8471576e-06
24	0x352fed88	6.5538234e-07
25	0x368226b6	3.8788085e-06
26	0xb69845d4	-4.538082e-06
27	0xb4ed3f52	-4.4190762e-07
28	0xb6e5c06f	-6.847134e-06
29	0x36d3e82c	6.3153184e-06
30	0xb6248eae	-2.4520955e-06
31	0xb50add22	-5.1730797e-07

BatchNormalization_0_param0 f4 [32]
0	0x3f45f4e7	0.77326816
1	0x3f6f2df8	0.9342952
2	0x3f7d9ae6	0.9906448
3	0x3f692faf	0.91088384
4	0x3f4a1e65	0.7895263
5	0x3f7c2501	0.98493963
6	0x3f63cab2	0.88981164
7	0x3f5663bc	0.8374593
8	0x3f47686e	0.7789372
9	0x3f5a319d	0.85231954
10	0x3f419dd5	0.7563146
11	0x3f78b66c	0.97153354
12	0x3f2e1af4	0.6800988
13	0x3f46d519	0.7766891
14	0x3f73086c	0.94934726
15	0x3f3fc93a	0.7491642
16	0x3f4c73f8	0.79864454
17	0x3f32d37d	0.69853956
18	0x3f297fa2	0.6621038
19	0x3f253bc1	0.645443
20	0x3f4c152b	0.797198
21	0x3f64dd24	0.89399934
22	0x3f4a0ea5	0.78928596
23	0x3f342a61	0.70377165
24	0x3f46de67	0.7768311
25	0x3f590de0	0.84786797
26	0x3f4f876f	0.8106603
27	0x3f1d30c1	0.6140252
28	0x3f6bfa84	0.9217913
29	0x3f5f0516	0.87117136
30	0x3f4588d1	0.7716189
31	0x3f427d26	0.7597221

BatchNormalization_0_param1 f4 [32]
0	0xbf468684	-0.77549005
1	0xbeeacf2f	-0.45861194
2	0xbf53f531	-0.8279601
3	0xbf3f1643	-0.74643344
4	0xbf395d50	-0.7240801
5	0xbe40441b	-0.1877598
6	0xbf568fd3	-0.8381321
7	0xbeeae01b	-0.45874104
8	0x3d1a3866	0.037651442
9	0xbcf0a820	-0.029377043
10	0xbe6c74c0	-0.23091412
11	0xbf52534a	-0.8215834
12	0xbee30568	-0.44340062
13	0xbe86c876	-0.26324815
14	0xbde1a514	-0.11017814
15	0xbd19fa69	-0.037592325
16	0x3df99e79	0.121884294
17	0xbd1431a6	-0.03618016
18	0xbd0fca88	-0.03510526
19	0xbdf75678	-0.120770395
20	0xbd1df242	-0.038561113
21	0xbde88d17	-0.11355036
22	0x3cd58b40	0.026067376
23	0x3d5932f4	0.05302711
24	0xbec3957d	-0.38199988
25	0xbdf6e354	-0.12055078
26	0xbdebf646	-0.11521582
27	0xbca8c9d8	-0.02060406
28	0xbd505e43	-0.050871145
29	0xbe335f47	-0.17516814
30	0xbe296864	-0.16543728
31	0xbe85cf6d	-0.26134816

BatchNormalization_0_param2 f4 [32]
0	0xb693c804	-4.4042263e-06
1	0x3afd4952	0.0019324219
2	0x39002fdb	0.00012224859
3	0xb846dd2e	-4.741287e-05
4	0x388b54f7	6.6438624e-05
5	0x3b84960f	0.0040462087
6	0x3a8cd109	0.001074345
7	0x3afee2fb	0.0019446308
8	0xbb82a74b	-0.003987228
9	0xbb0527e6	-0.002031797
10	0x3bc0bd21	0.005881921
11	0xb81d408e	-3.7491838e-05
12	0xba3a8ebd	-0.00071166066
13	0xbb3d6d15	-0.002890413
14	0xbb050d69	-0.0020302183
15	0xbbe0dd53	-0.0068623214
16	0xbb049574	-0.0020230683
17	0x3b045581	0.0020192566
18	0x3b75f28b	0.00375286
19	0x3b80e8bf	0.0039339955
20	0x3b03e158	0.002012333
21	0x3b84c4f4	0.004051799
22	0xbb3f1bf9	-0.002916096
23	0x3b40762d	0.0029367313
24	0x3afe653e	0.0019408835
25	0x3ae83e35	0.0017718734
26	0xbaf7a13a	-0.0018892654
27	0x3c00a77b	0.00785243
28	0xbb47e2db	-0.0030500207
29	0xbb436443	-0.00298144
30	0x3b7f6207	0.003896834
31	0xbb3e9b7e	-0.002908438

BatchNormalization_0_param3 f4 [32]
0	0x3a1e04ed	0.00060279557
1	0x3b7518a7	0.0037398727
2	0x3a3ed09d	0.00072790106
3	0x3a68231e	0.00088553305
4	0x39f43e39	0.00046585666
5	0x3c45cbd9	0.012072527
6	0x3acbd37a	0.0015550696
7	0x3b6b54af	0.003590863
8	0x3c32c58b	0.010911356
9	0x3b3aaaff	0.002848327
10	0x3cc7d2b7	0.024392469
11	0x3aa14e9e	0.0012306755
12	0x3a598cbc	0.0008298864
13	0x3bd91f43	0.006626041
14	0x3b7142a5	0.0036813405
15	0x3d04e48b	0.032444518
16	0x3b38a70f	0.0028175747
17	0x3b34ec0b	0.0027606513
18	0x3c284977	0.010271422
19	0x3c30cca1	0.010790975
20	0x3b5a9e84	0.0033358643
21	0x3c3e72be	0.011624036
22	0x3bbe33c3	0.0058045103
23	0x3bc0cf6f	0.005884103
24	0x3b6b54ae	0.0035908627
25	0x3b5b844f	0.003349561
26	0x3b2683e5	0.0025408205
27	0x3d2cf417	0.04222497
28	0x3bd6d073	0.006555611
29	0x3bc86c80	0.00611645
30	0x3c3680d9	0.011139118
31	0x3bda72ba	0.0066665085

Conv_1_param0 f4 [64]
0	0x320aef96	8.087133e-09
1	0xb3b5074f	-8.429799e-08
2	0xb220d2c9	-9.361153e-09
3	0x34bbac86	3.4956992e-07
4	0xb5127fb1	-5.4575054e-07
5	0x3446bb18	1.8508251e-07
6	0xb49d5212	-2.9303243e-07
7	0x339bfc03	7.2635906e-08
8	0xb273ba2b	-1.4186791e-08
9	0x330c57ad	3.267603e-08
10	0xb405064f	-1.2388885e-07
11	0x33f00ac6	1.11778306e-07
12	0xb3d12b95	-9.7402484e-08
13	0x3476e694	2.2994419e-07
14	0x35115cb0	5.415159e-07
15	0x338c307c	6.528077e-08
16	0xb37919b6	-5.7998214e-08
17	0x348eef25	2.6623562e-07
18	0xb48d47a1	-2.6315413e-07
19	0xb496d779	-2.8096454e-07
20	0x341c36dc	1.454859e-07
21	0xb476afbf	-2.2974471e-07
22	0xb39dc367	-7.346426e-08
23	0xb2cd782d	-2.391979e-08
24	0x33b0c6a7	8.231773e-08
25	0xb50a4f6a	-5.152457e-07
26	0x3543108d	7.2667245e-07
27	0x34fd0fa1	4.7136294e-07
28	0x33c61f49	9.225784e-08
29	0xb485fb37	-2.4955963e-07
30	0xb402e05a	-1.2188812e-07
31	0x3216c69b	8.776307e-09
32	0xb48ceb7b	-2.6248367e-07
33	0xb498ee9f	-2.8485826e-07
34	0xb4f5d579	-4.5790128e-07
35	0x34325838	1.6609636e-07
36	0x329fa9a7	1.8587185e-08
37	0x33d42bac	9.879963e-08
38	0x34089c23	1.2722789e-07
39	0x33e88bdb	1.08287814e-07
40	0xb3dc6382	-1.0262649e-07
41	0x34f4393d	4.5490188e-07
42	0x32e1f9bf	2.6307019e-08
43	0x346d4ceb	2.2100328e-07
44	0xb4aaffbc	-3.185104e-07
45	0x34882cdc	2.5364614e-07
46	0xb412908b	-1.3649894e-07
47	0xb3853f22	-6.204779e-08
48	0x352b4d8d	6.3815315e-07
49	0xb43406ad	-1.6766235e-07
50	0x346e453e	2.2190667e-07
51	0x348cfbd4	2.626026e-07
52	0xb4de804e	-4.1444076e-07
53	0x3404b22e	1.235828e-07
54	0x33bf3c8a	8.9051426e-08
55	0xb3fdef82	-1.1824797e-07
56	0xb4aebbb4	-3.2546598e-07
57	0x344f142e	1.9285719e-07
58	0x3409c3b1	1.2830311e-07
59	0x34c0141c	3.5777418e-07
60	0x336cdff8	5.515173e-08
61	0x342512b1	1.5373622e-07
62	0x343d4c6c	1.7629799e-07
63	0x340308ff	1.2203598e-07

BatchNormalization_1_param0 f4 [64]
0	0x3f950283	1.1641392
1	0x3f2dd127	0.67897266
2	0x3f99219b	1.196338
3	0x3f3deb5a	0.74187243
4	0x3f259d3e	0.6469306
5	0x3f592c35	0.8483308
6	0x3f9db8c8	1.2322016
7	0x3f8856cd	1.065149
8	0x3f9337a3	1.1501354
9	0x3f7968ef	0.9742574
10	0x3f78362e	0.9695767
11	0x3f937ffb	1.1523432
12	0x3f892e58	1.0717268
13	0x3f748075	0.9550851
14	0x3f6aeb90	0.9176569
15	0x3f82f2fa	1.02304
16	0x3f894844	1.0725179
17	0x3f8bed0b	1.0931715
18	0x3f74ff23	0.9570181
19	0x3f5e98af	0.86951727
20	0x3f78d98e	0.9720696
21	0x3f6fed52	0.937215
22	0x3f8192da	1.012294
23	0x3f7b28f7	0.9810938
24	0x3f7c887c	0.9864576
25	0x3f70605d	0.9389704
26	0x3f88701e	1.0659215
27	0x3f72adf5	0.9479669
28	0x3f7e8bca	0.9943205
29	0x3f402cb0	0.7506819
30	0x3f6234c3	0.8836176
31	0x3f902070	1.1259899
32	0x3f8375a0	1.0270271
33	0x3f666ab1	0.9000655
34	0x3f8f1b69	1.118024
35	0x3f83fb84	1.0311131
36	0x3f998a8c	1.1995406
37	0x3f966792	1.1750357
38	0x3f4c70b5	0.7985948
39	0x3f8d36c7	1.1032342
40	0x3f8e58ee	1.1120889
41	0x3f708a43	0.9396097
42	0x3f6670d7	0.9001593
43	0x3f708d32	0.93965447
44	0x3f7cfae5	0.98820335
45	0x3f82014b	1.0156645
46	0x3f8bdeb6	1.0927341
47	0x3f75a32d	0.9595211
48	0x3f5ba04d	0.85791475
49	0x3f7b6b15	0.9821027
50	0x3f841ba0	1.032093
51	0x3f4e035b	0.8047387
52	0x3f67ef37	0.9059939
53	0x3f8c3e67	1.0956544
54	0x3f44940c	0.767884
55	0x3f837c21	1.0272256
56	0x3f4bf24e	0.796666
57	0x3f8711b3	1.0552276
58	0x3f3e7d5b	0.7441003
59	0x3f747706	0.95494115
60	0x3f52d4c5	0.8235591
61	0x3f21926e	0.6311406
62	0x3f953452	1.1656592
63	0x3f85a3e4	1.044064

BatchNormalization_1_param1 f4 [64]
0	0x3dcc9091	0.09988511
1	0xbeef433e	-0.4673099
2	0x3dee32c6	0.11630778
3	0xbeaf105f	-0.34192178
4	0xbe9ff0fc	-0.31238544
5	0xbeaaf04c	-0.33386457
6	0x3dad7b38	0.08470768
7	0x3d450f8d	0.048110534
8	0x3bf177f1	0.0073690345
9	0xbdf2c6cc	-0.11854324
10	0xbd1ab4aa	-0.03776995
11	0x3d54cd3f	0.05195355
12	0x3d2abe4f	0.0416854
13	0xbdb8e275	-0.09027568
14	0xbe58da0a	-0.21176925
15	0xbd2ee7e5	-0.04270162
16	0xbcdede58	-0.027205631
17	0x3d6fdf57	0.058562603
18	0xbe2ccd18	-0.16875112
19	0xbd3a0126	-0.04541125
20	0xbdf37870	-0.11888206
21	0xbd5e18e2	-0.05422295
22	0x3df80067	0.12109452
23	0xbe276dd6	-0.16350493
24	0xbda7c1d7	-0.08191269
25	0xbe4f32e7	-0.20234261
26	0xbc358142	-0.011078181
27	0xbe9cf794	-0.30657637
28	0x3d290652	0.041265793
29	0xbee510d1	-0.44739392
30	0xbe68085b	-0.22659437
31	0x3dcef4f9	0.101053186
32	0xbd81bb25	-0.06334523
33	0xbe5c43d2	-0.21510246
34	0xbcfe3af0	-0.031033963
35	0xbe86a092	-0.2629438
36	0xbd481bc7	-0.048854616
37	0x3d946938	0.072466314
38	0xbe61d287	-0.22052966
39	0x3d72b977	0.059258904
40	0x3cc4b4f5	0.024012068
41	0xbde70ad0	-0.11281359
42	0x3c50f99b	0.012754823
43	0xbdecb7b0	-0.11558473
44	0xbdabf6f8	-0.08396715
45	0xbcb84386	-0.022493135
46	0xbd72e608	-0.059301406
47	0xbde56097	-0.11200064
48	0xbe129a4b	-0.1431667
49	0x3d9ae8a5	0.07563905
50	0xbdc74b25	-0.097311296
51	0xbe97dddc	-0.29661453
52	0xbe6196e4	-0.22030216
53	0xbb7cfd36	-0.0038603074
54	0xbe1a3b65	-0.1506172
55	0xbc4d8314	-0.0125434585
56	0xbe9aa43a	-0.3020342
57	0xbcc2b03b	-0.023765674
58	0xbe9ddb25	-0.30831257
59	0xbd5d812b	-0.054078262
60	0xbe2b5020	-0.16729784
61	0xbf0226f2	-0.50840676
62	0x3d9e845d	0.0774009
63	0xbdb5c4b8	-0.08875412

BatchNormalization_1_param2 f4 [64]
0	0x3dac9939	0.084276624
1	0x3eb74e82	0.35802084
2	0x3de88e37	0.1135525
3	0xbe218e8f	-0.15777038
4	0x3ee1c7c7	0.4409773
5	0x3fb41163	1.4067806
6	0x3d446196	0.047944628
7	0x3d048be9	0.03235999
8	0x3dfd2771	0.123610385
9	0x3eb77f29	0.35839203
10	0x3e4526c1	0.19253065
11	0x3cd23e2a	0.025664408
12	0xbf8f34dc	-1.1188006
13	0xbf1176d7	-0.5682196
14	0x3f27e585	0.65584594
15	0xbf58ecd6	-0.8473638
16	0x3f4b2c64	0.7936461
17	0x3eb39f5d	0.35082522
18	0x3f0da96d	0.5533665
19	0x3ee0d1f2	0.43910176
20	0xbf68ff1c	-0.91014266
21	0xbe595fe0	-0.2122798
22	0xbfb7fb85	-1.4373633
23	0x3e30d52e	0.17268822
24	0xbe512c76	-0.20427117
25	0xbe73c313	-0.23804884
26	0x3d002567	0.03128567
27	0xbe7eb8d7	-0.24875198
28	0x3ea42e6b	0.32066664
29	0xbf0fc4f6	-0.56159914
30	0xbdf7e574	-0.121043116
31	0x3e653529	0.2238356
32	0x3dd28070	0.10278404
33	0xbf1d2bfa	-0.6139523
34	0xbee522f5	-0.44753233
35	0xbe377516	-0.17915758
36	0xbe2bf027	-0.1679083
37	0x3e469de1	0.19396164
38	0x3eb41ee6	0.35179824
39	0x3d974829	0.0738681
40	0x3dd18191	0.10229791
41	0x3e1c6aaa	0.15275064
42	0x3d44e424	0.048069134
43	0xbe7cf3a8	-0.24702322
44	0xbf267a7c	-0.65030646
45	0x3e9cc7ea	0.30621272
46	0x3e88fdff	0.26756284
47	0xbeecc1de	-0.4624166
48	0x3e0d6852	0.13809326
49	0xbf05bf07	-0.5224461
50	0x3ea73677	0.3265874
51	0x3f910754	1.1330361
52	0x3ea5be3d	0.32371703
53	0x3eb09504	0.3448869
54	0x3edafdaa	0.42771655
55	0xbbc7f442	-0.006102116
56	0x3f8ca545	1.0987936
57	0x3e892293	0.2678419
58	0xbf22cec0	-0.63596725
59	0x3c81bfdf	0.015838562
60	0x3ee00647	0.4375479
61	0xbde8edef	-0.11373507
62	0x3e0006ea	0.12502638
63	0xbd6619b3	-0.056176852

BatchNormalization_1_param3 f4 [64]
0	0x3fbbf18e	1.4683092
1	0x3d95bfe8	0.07311994
2	0x3fe69597	1.8014401
3	0x3df100e4	0.11767748
4	0x3dd00cf7	0.10158723
5	0x3f4c1b6b	0.79729337
6	0x3ebf9a5f	0.37422463
7	0x3ebbb08a	0.36658126
8	0x3f044067	0.5166077
9	0x3f1c3475	0.61017543
10	0x3ddc6a57	0.1076247
11	0x3fb6989e	1.4265325
12	0x3f150395	0.5820859
13	0x3e914a46	0.2837698
14	0x3ec1ac97	0.37826988
15	0x3f015f72	0.50536263
16	0x3ecc8f5f	0.39953133
17	0x3f7ff124	0.99977326
18	0x3e53b593	0.20674734
19	0x3e3c7d1d	0.18407102
20	0x3ee162b3	0.44020614
21	0x3e47e889	0.19522299
22	0x3f7ce98b	0.9879386
23	0x3da57c7c	0.08080384
24	0x3e28e8ed	0.16495104
25	0x3e545411	0.20735194
26	0x3e806f23	0.2508479
27	0x3e4d18c0	0.20028973
28	0x3f2e078f	0.67980283
29	0x3eb6eb5a	0.35726434
30	0x3e556274	0.20838338
31	0x3fabb297	1.3413876
32	0x3e1f5804	0.15560919
33	0x3e9af160	0.3026228
34	0x3eb90801	0.3613892
35	0x3e46112f	0.19342493
36	0x3e9f30c6	0.310919
37	0x3fc2a5b1	1.5206815
38	0x3db536de	0.08848356
39	0x3f896747	1.0734643
40	0x3e50b0c7	0.20379935
41	0x3e4a45a9	0.19753136
42	0x3e53498d	0.20633526
43	0x3e28e4bf	0.1649351
44	0x3ee14504	0.43997967
45	0x3e6a99aa	0.2291018
46	0x3e9937c9	0.29925373
47	0x3e8284c3	0.25491914
48	0x3d880b71	0.06642807
49	0x3e9d6987	0.30744573
50	0x3ee39415	0.44448915
51	0x3efe7816	0.49700993
52	0x3dfec7df	0.12440466
53	0x3ecc21ca	0.3986953
54	0x3dd6dbe9	0.10491163
55	0x3f1938a3	0.59852046
56	0x3f02daba	0.51115
57	0x3ea4220e	0.32057232
58	0x3e7b49d5	0.24539883
59	0x3d54aae4	0.051920786
60	0x3e603aae	0.21897385
61	0x3db4300c	0.08798227
62	0x3fb16235	1.3858095
63	0x3e818e22	0.2530375

Quant_1_param0 f4 [32, 1, 3]
0	0xbed74de8	-0.42051625
1	0x3e99c9ef	0.30036876
2	0x3df60fe5	0.120147504
3	0xbed74de8	-0.42051625
4	0x3e760fe5	0.24029501
5	0x3e99c9ef	0.30036876
6	0x3e99c9ef	0.30036876
7	0x00000000	0.0
8	0xbe99c9ef	-0.30036876
9	0xbe760fe5	-0.24029501
10	0xbe388bec	-0.18022126
11	0x3ed74de8	0.42051625
12	0x3e760fe5	0.24029501
13	0x00000000	0.0
14	0xbe760fe5	-0.24029501
15	0x3ed74de8	0.42051625
16	0x3e760fe5	0.24029501
17	0xbed74de8	-0.42051625
18	0x3e99c9ef	0.30036876
19	0x3df60fe5	0.120147504
20	0xbeb88bec	-0.36044252
21	0xbed74de8	-0.42051625
22	0x3e99c9ef	0.30036876
23	0x3e760fe5	0.24029501
24	0xbe99c9ef	-0.30036876
25	0xbd760fe5	-0.060073752
26	0x3df60fe5	0.120147504
27	0x80000000	-0.0
28	0xbeb88bec	-0.36044252
29	0x3e760fe5	0.24029501
30	0xbe388bec	-0.18022126
31	0x3e388bec	0.18022126
32	0x3eb88bec	0.36044252
33	0xbed74de8	-0.42051625
34	0x3d760fe5	0.060073752
35	0x3eb88bec	0.36044252
36	0x3d760fe5	0.060073752
37	0x3e99c9ef	0.30036876
38	0xbed74de8	-0.42051625
39	0x3e388bec	0.18022126
40	0x3d760fe5	0.060073752
41	0xbed74de8	-0.42051625
42	0xbed74de8	-0.42051625
43	0x00000000	0.0
44	0x3e99c9ef	0.30036876
45	0xbd760fe5	-0.060073752
46	0x3d760fe5	0.060073752
47	0xbed74de8	-0.42051625
48	0x3d760fe5	0.060073752
49	0xbed74de8	-0.42051625
50	0x3e760fe5	0.24029501
51	0xbd760fe5	-0.060073752
52	0x3eb88bec	0.36044252
53	0xbe388bec	-0.18022126
54	0x3ed74de8	0.42051625
55	0x80000000	-0.0
56	0xbe388bec	-0.18022126
57	0xbdf60fe5	-0.120147504
58	0x3e388bec	0.18022126
59	0x3e388bec	0.18022126
60	0x3ed74de8	0.42051625
61	0xbdf60fe5	-0.120147504
62	0xbe388bec	-0.18022126
63	0x3e760fe5	0.24029501
64	0x3ed74de8	0.42051625
65	0xbed74de8	-0.42051625
66	0xbe99c9ef	-0.30036876
67	0x3ed74de8	0.42051625
68	0xbe99c9ef	-0.30036876
69	0x3eb88bec	0.36044252
70	0xbeb88bec	-0.36044252
71	0x3e388bec	0.18022126
72	0xbed74de8	-0.42051625
73	0x3e99c9ef	0.30036876
74	0x3e760fe5	0.24029501
75	0x3eb88bec	0.36044252
76	0x3df60fe5	0.120147504
77	0xbeb88bec	-0.36044252
78	0xbdf60fe5	-0.120147504
79	0x3ed74de8	0.42051625
80	0xbed74de8	-0.42051625
81	0x3df60fe5	0.120147504
82	0xbd760fe5	-0.060073752
83	0x3ed74de8	0.42051625
84	0xbdf60fe5	-0.120147504
85	0xbed74de8	-0.42051625
86	0x3eb88bec	0.36044252
87	0x3e388bec	0.18022126
88	0xbed74de8	-0.42051625
89	0x3d760fe5	0.060073752
90	0xbe388bec	-0.18022126
91	0x3d760fe5	0.060073752
92	0x3eb88bec	0.36044252
93	0x3e760fe5	0.24029501
94	0xbd760fe5	-0.060073752
95	0xbeb88bec	-0.36044252

Quant_2_param0 f4 [64, 32, 3]
0	0x00000000	0.0
1	0x3d8eb3c1	0.06967879
2	0xbd8eb3c1	-0.06967879
3	0xbd0eb3c1	-0.034839395
4	0xbd0eb3c1	-0.034839395
5	0xbd0eb3c1	-0.034839395
6	0xbd8eb3c1	-0.06967879
7	0xbd8eb3c1	-0.06967879
8	0xbdd60da2	-0.10451819
9	0x3e0eb3c1	0.13935758
10	0xbd0eb3c1	-0.034839395
11	0xbd8eb3c1	-0.06967879
12	0x80000000	-0.0
13	0x3d8eb3c1	0.06967879
14	0x80000000	-0.0
15	0xbd8eb3c1	-0.06967879
16	0x3d0eb3c1	0.034839395
17	0x3e3260b1	0.17419697
18	0xbd8eb3c1	-0.06967879
19	0xbd0eb3c1	-0.034839395
20	0xbd8eb3c1	-0.06967879
21	0x3e0eb3c1	0.13935758
22	0x80000000	-0.0
23	0xbd0eb3c1	-0.034839395
24	0xbd0eb3c1	-0.034839395
25	0xbe0eb3c1	-0.13935758
26	0xbd8eb3c1	-0.06967879
27	0x3d0eb3c1	0.034839395
28	0x3d8eb3c1	0.06967879
29	0xbd8eb3c1	-0.06967879
30	0x3d8eb3c1	0.06967879
31	0xbd0eb3c1	-0.034839395
32	0xbd8eb3c1	-0.06967879
33	0x3d0eb3c1	0.034839395
34	0x80000000	-0.0
35	0xbd8eb3c1	-0.06967879
36	0x3d0eb3c1	0.034839395
37	0xbd8eb3c1	-0.06967879
38	0xbd8eb3c1	-0.06967879
39	0x3d0eb3c1	0.034839395
40	0xbd8eb3c1	-0.06967879
41	0xbe0eb3c1	-0.13935758
42	0xbe0eb3c1	-0.13935758
43	0xbd0eb3c1	-0.034839395
44	0x00000000	0.0
45	0x80000000	-0.0
46	0xbd0eb3c1	-0.034839395
47	0xbdd60da2	-0.10451819
48	0xbdd60da2	-0.10451819
49	0xbe0eb3c1	-0.13935758
50	0xbd8eb3c1	-0.06967879
51	0x3dd60da2	0.10451819
52	0x3e3260b1	0.17419697
53	0xbd0eb3c1	-0.034839395
54	0x3d8eb3c1	0.06967879
55	0x3d8eb3c1	0.06967879
56	0x3e3260b1	0.17419697
57	0x3dd60da2	0.10451819
58	0x3dd60da2	0.10451819
59	0x00000000	0.0
60	0xbd0eb3c1	-0.034839395
61	0x3d8eb3c1	0.06967879
62	0x3e560da2	0.20903638
63	0x00000000	0.0
64	0x3e3260b1	0.17419697
65	0x3e0eb3c1	0.13935758
66	0xbd8eb3c1	-0.06967879
67	0xbd0eb3c1	-0.034839395
68	0xbd8eb3c1	-0.06967879
69	0x3d8eb3c1	0.06967879
70	0x3d0eb3c1	0.034839395
71	0x3d8eb3c1	0.06967879
72	0x00000000	0.0
73	0x00000000	0.0
74	0x00000000	0.0
75	0xbdd60da2	-0.10451819
76	0x3e0eb3c1	0.13935758
77	0x3e3260b1	0.17419697
78	0xbe0eb3c1	-0.13935758
79	0xbe0eb3c1	-0.13935758
80	0x80000000	-0.0
81	0x3e0eb3c1	0.13935758
82	0x3d8eb3c1	0.06967879
83	0x00000000	0.0
84	0xbd0eb3c1	-0.034839395
85	0x3d8eb3c1	0.06967879
86	0x3d0eb3c1	0.034839395
87	0x3dd60da2	0.10451819
88	0x3d0eb3c1	0.034839395
89	0xbdd60da2	-0.10451819
90	0x3d8eb3c1	0.06967879
91	0x80000000	-0.0
92	0xbd8eb3c1	-0.06967879
93	0x3d0eb3c1	0.034839395
94	0x00000000	0.0
95	0xbd0eb3c1	-0.034839395
96	0x80000000	-0.0
97	0xbd0eb3c1	-0.034839395
98	0x3d0eb3c1	0.034839395
99	0x3d0eb3c1	0.034839395
100	0x3e0eb3c1	0.13935758
101	0xbdd60da2	-0.10451819
102	0xbe0eb3c1	-0.13935758
103	0x3dd60da2	0.10451819
104	0x3e0eb3c1	0.13935758
105	0x00000000	0.0
106	0x3e79ba92	0.24387577
107	0xbdd60da2	-0.10451819
108	0xbd8eb3c1	-0.06967879
109	0x3d8eb3c1	0.06967879
110	0x3dd60da2	0.10451819
111	0x00000000	0.0
112	0x00000000	0.0
113	0x80000000	-0.0
114	0x00000000	0.0
115	0x00000000	0.0
116	0x3e560da2	0.20903638
117	0x3d0eb3c1	0.034839395
118	0x3d8eb3c1	0.06967879
119	0xbdd60da2	-0.10451819
120	0x3d0eb3c1	0.034839395
121	0x3d0eb3c1	0.034839395
122	0xbd0eb3c1	-0.034839395
123	0x3d0eb3c1	0.034839395
124	0xbd0eb3c1	-0.034839395
125	0x3d8eb3c1	0.06967879
126	0x00000000	0.0
127	0x3dd60da2	0.10451819
128	0x3d0eb3c1	0.034839395
129	0x80000000	-0.0
130	0xbd8eb3c1	-0.06967879
131	0x3e79ba92	0.24387577
132	0xbd8eb3c1	-0.06967879
133	0x3e3260b1	0.17419697
134	0xbd0eb3c1	-0.034839395
135	0x3e0eb3c1	0.13935758
136	0x3d8eb3c1	0.06967879
137	0xbd0eb3c1	-0.034839395
138	0x3d0eb3c1	0.034839395
139	0x00000000	0.0
140	0xbd0eb3c1	-0.034839395
141	0x3d0eb3c1	0.034839395
142	0x3d0eb3c1	0.034839395
143	0x3d8eb3c1	0.06967879
144	0x3d8eb3c1	0.06967879
145	0x00000000	0.0
146	0x80000000	-0.0
147	0x3d0eb3c1	0.034839395
148	0x00000000	0.0
149	0x80000000	-0.0
150	0xbd8eb3c1	-0.06967879
151	0x3d0eb3c1	0.034839395
152	0x3d0eb3c1	0.034839395
153	0x3d0eb3c1	0.034839395
154	0x80000000	-0.0
155	0x3d0eb3c1	0.034839395
156	0xbd0eb3c1	-0.034839395
157	0xbd0eb3c1	-0.034839395
158	0x3d0eb3c1	0.034839395
159	0x3d8eb3c1	0.06967879
160	0xbd0eb3c1	-0.034839395
161	0x3dd60da2	0.10451819
162	0xbd0eb3c1	-0.034839395
163	0xbd0eb3c1	-0.034839395
164	0xbd0eb3c1	-0.034839395
165	0x00000000	0.0
166	0x00000000	0.0
167	0xbd0eb3c1	-0.034839395
168	0x3d8eb3c1	0.06967879
169	0x3d8eb3c1	0.06967879
170	0xbd8eb3c1	-0.06967879
171	0x80000000	-0.0
172	0xbd8eb3c1	-0.06967879
173	0xbd0eb3c1	-0.034839395
174	0x3d0eb3c1	0.034839395
175	0x3d0eb3c1	0.034839395
176	0xbd0eb3c1	-0.034839395
177	0x3d0eb3c1	0.034839395
178	0x00000000	0.0
179	0x3d0eb3c1	0.034839395
180	0x00000000	0.0
181	0x80000000	-0.0
182	0x3d0eb3c1	0.034839395
183	0xbd0eb3c1	-0.034839395
184	0xbd0eb3c1	-0.034839395
185	0x3d0eb3c1	0.034839395
186	0x3dd60da2	0.10451819
187	0x00000000	0.0
188	0x3d0eb3c1	0.034839395
189	0x3dd60da2	0.10451819
190	0x3d0eb3c1	0.034839395
191	0x3d0eb3c1	0.034839395
192	0x3d8eb3c1	0.06967879
193	0x00000000	0.0
194	0xbdd60da2	-0.10451819
195	0x3d8eb3c1	0.06967879
196	0x3d0eb3c1	0.034839395
197	0x00000000	0.0
198	0xbd0eb3c1	-0.034839395
199	0x3e0eb3c1	0.13935758
200	0x80000000	-0.0
201	0xbd0eb3c1	-0.034839395
202	0xbd0eb3c1	-0.034839395
203	0xbd8eb3c1	-0.06967879
204	0x3d0eb3c1	0.034839395
205	0x3d8eb3c1	0.06967879
206	0xbd0eb3c1	-0.034839395
207	0x3d8eb3c1	0.06967879
208	0x3e79ba92	0.24387577
209	0x3e0eb3c1	0.13935758
210	0xbd8eb3c1	-0.06967879
211	0xbd8eb3c1	-0.06967879
212	0x3d0eb3c1	0.034839395
213	0x3d8eb3c1	0.06967879
214	0x80000000	-0.0
215	0xbd8eb3c1	-0.06967879
216	0xbe3260b1	-0.17419697
217	0xbe3260b1	-0.17419697
218	0xbdd60da2	-0.10451819
219	0xbd0eb3c1	-0.034839395
220	0xbd8eb3c1	-0.06967879
221	0x00000000	0.0
222	0x00000000	0.0
223	0x80000000	-0.0
224	0x00000000	0.0
225	0x80000000	-0.0
226	0x3d0eb3c1	0.034839395
227	0xbd8eb3c1	-0.06967879
228	0x00000000	0.0
229	0x3d0eb3c1	0.034839395
230	0xbd8eb3c1	-0.06967879
231	0xbd8eb3c1	-0.06967879
232	0xbd8eb3c1	-0.06967879
233	0xbdd60da2	-0.10451819
234	0x3d8eb3c1	0.06967879
235	0x80000000	-0.0
236	0xbd0eb3c1	-0.034839395
237	0x80000000	-0.0
238	0xbdd60da2	-0.10451819
239	0x80000000	-0.0
240	0x80000000	-0.0
241	0xbe0eb3c1	-0.13935758
242	0xbd8eb3c1	-0.06967879
243	0x3d8eb3c1	0.06967879
244	0x3d0eb3c1	0.034839395
245	0x3d8eb3c1	0.06967879
246	0x3dd60da2	0.10451819
247	0x3e0eb3c1	0.13935758
248	0x3e0eb3c1	0.13935758
249	0x80000000	-0.0
250	0xbd0eb3c1	-0.034839395
251	0xbd0eb3c1	-0.034839395
252	0x3dd60da2	0.10451819
253	0x3dd60da2	0.10451819
254	0x3e560da2	0.20903638
255	0x00000000	0.0
