models/qcnn_lstm_real_c0.5/sublstm_qonnx.onnx (onnx, 405590 bytes, 12 tensors)

W_f f4 [128, 64]
0	0x3bfa502a	0.007638951
1	0xbb2394bc	-0.0024960479
2	0x3c0c1413	0.008549708
3	0x3bb9c05e	0.005668684
4	0xbbcba76b	-0.006215026
5	0xbbad3e45	-0.005286964
6	0xbc641e97	-0.013923309
7	0xbc56a244	-0.013100211
8	0xbc1b148f	-0.009465351
9	0xbbd30e26	-0.0064408956
10	0xbaff151a	-0.0019461245
11	0x3c12759c	0.008939173
12	0x3ad302e2	0.0016098882
13	0xbb45e370	-0.0030195378
14	0xbaf64d31	-0.0018791315
15	0xbbaab0c0	-0.0052090585
16	0xbc1ab339	-0.009442144
17	0xbb14d7dd	-0.0022711672
18	0x3b5a109a	0.0033274055
19	0xbbf5b6a2	-0.007498578
20	0x3bf057c2	0.0073346803
21	0xbbb617ff	-0.00555706
22	0xbb020e75	-0.0019845043
23	0xbc3160d6	-0.01082631
24	0x3c0a73ee	0.008450491
25	0xbc084aac	-0.008318584
26	0xbb5854f3	-0.0033009618
27	0xbb349170	-0.0027552508
28	0xbbebf99c	-0.0072013866
29	0x3bd6c762	0.00655453
30	0x3ca0c606	0.019625675
31	0xb8dde688	-0.00010581041
32	0x3c6c45bb	0.014420922
33	0x3c4af635	0.012387802
34	0xbb4773d4	-0.003043403
35	0xbb64383b	-0.0034823555
36	0xbc35af1a	-0.011089111
37	0xbc8e97d7	-0.017406387
38	0xbc075925	-0.008261
39	0xbc1be1ed	-0.009514314
40	0xbc772d7c	-0.015086528
41	0xbc2212d7	-0.009892187
42	0xbc60872e	-0.013704104
43	0xbc8f58b7	-0.017498357
44	0xbb8876c3	-0.004164548
45	0x3ab047a7	0.0013449088
46	0x3bf62831	0.0075121154
47	0xbbb5205a	-0.0055275382
48	0xbc282a61	-0.01026401
49	0xbc76f2e0	-0.015072554
50	0xbbed6d60	-0.0072457045
51	0xbc2f2ca6	-0.010691797
52	0xbb93276b	-0.004490783
53	0xbc0fe608	-0.008782871
54	0x3b0e294b	0.0021692093
55	0xbc317857	-0.010831914
56	0xbc37225e	-0.011177627
57	0x3c1ffab4	0.009764362
58	0x3b1eec8d	0.0024249882
59	0x3a9b6c6f	0.0011857877
60	0x3c53794e	0.012907339
61	0x3a1e0d57	0.00060292095
62	0xbc80c711	-0.015719922
63	0xbbf2f9fc	-0.0074150544
64	0x3d2ac6d8	0.04169354
65	0x3ca7ca05	0.020482073
66	0x3d187c41	0.037227873
67	0x3cb4139f	0.021982012
68	0x3d740e68	0.05958405
69	0x3d737303	0.059435856
70	0x3d857fa8	0.06518489
71	0x3daa79ee	0.083240375
72	0x3d1b114a	0.037858285
73	0x3d68a02f	0.056793388
74	0x3d7c9ff8	0.061675996
75	0x3d4c64f2	0.049900956
76	0x3d3e57d3	0.046470474
77	0x3d9b8ced	0.07595239
78	0x3d996ec4	0.0749183
79	0x3ccc766a	0.024958808
80	0x3d581fb8	0.052764624
81	0x3d8eade7	0.06966763
82	0x3d326850	0.04355651
83	0x3d05caed	0.03266423
84	0x3bcce74b	0.006253158
85	0xbbeda086	-0.007251802
86	0x3c6bdd91	0.014396087
87	0x3cc512b3	0.024056768
88	0xbcc67155	-0.024223963
89	0xbd2e1c1b	-0.042507272
90	0x3db2641f	0.08710503
91	0x3d5fa1c6	0.05459764
92	0x3dd1b9bb	0.102405034
93	0xbd8025fd	-0.06257246
94	0x3d76180c	0.060081527
95	0x3d82bf34	0.06384125
96	0x3d4129f7	0.04715916
97	0x3bc43182	0.005987347
98	0x3d625dca	0.055265225
99	0x3cf8919c	0.03034287
100	0x3cd94bcf	0.026525406
101	0x3d69f5a4	0.057119027
102	0x3e01c83c	0.1267404
103	0x3da1deda	0.07903834
104	0x3d7ab10a	0.061203994
105	0x3d0bd000	0.03413391
106	0x3d818866	0.06324844
107	0x3cdd40af	0.027008383
108	0x3c93f8cc	0.018062972
109	0xbc09bbe9	-0.008406618
110	0xbc271cbe	-0.010199724
111	0xbc7743a2	-0.0150918085
112	0x3d873aed	0.06603036
113	0x3d0b6e3b	0.03404067
114	0x3d7e2764	0.062049285
115	0x3d7f40a9	0.062317524
116	0x3db30e50	0.08742964
117	0x3da5d6d0	0.08097613
118	0x3d1da842	0.03849054
119	0x3dd29fcd	0.10284386
120	0x3d8477da	0.06468172
121	0x3a16ea3a	0.00057569484
122	0x3d28dcae	0.04122608
123	0x3b0977ce	0.002097595
124	0x3ce6faf2	0.028195832
125	0xbca2dfeb	-0.019882163
126	0x3d96401c	0.07336447
127	0x3d74b2b1	0.059740726
128	0x3ddc1be1	0.10747505
129	0x3e998231	0.2998214
130	0x3db4c13e	0.088259205
131	0xbd4bdaab	-0.049769085
132	0x3e1336a5	0.14376314
133	0x3e0e88bf	0.13919352
134	0x3dcd2455	0.100166954
135	0x3da39419	0.07987232
136	0xbd12cea1	-0.035841588
137	0xbd87a87f	-0.06623935
138	0x3e24f1fc	0.16107935
139	0x3df068c5	0.11738733
140	0xbe8d9abd	-0.27657118
141	0xbda400c7	-0.08007961
142	0x3dde4f9b	0.10855027
143	0xbdf306e7	-0.11866551
144	0x3e283c49	0.16429247
145	0xbc042f92	-0.008067982
146	0x3e20a275	0.15686972
147	0x3d8bd6f5	0.06828109
148	0xbd23fc0c	-0.040035293
149	0xbe1b11cd	-0.15143509
150	0xbe043e39	-0.12914361
151	0x3dda3309	0.106542654
152	0x3d1a6a46	0.037699006
153	0xbcd6f2ec	-0.026238881
154	0x3e17802a	0.14794984
155	0x3d1d9c9e	0.03847944
156	0x3d50d7b6	0.050986968
157	0xbc088477	-0.008332363
158	0x3ce109e3	0.027470535
159	0x3c8fcd76	0.017554026
160	0x3dabac2e	0.0838245
161	0x3beb97e3	0.007189737
162	0xbcabddf5	-0.02097986
163	0xbdb57bd5	-0.0886151
164	0x3d83c7ff	0.064346306
165	0x3daae8c9	0.083451815
166	0x3e1fba1c	0.15598339
167	0x3c949244	0.018136151
168	0x3d81af97	0.06332319
169	0x3e2fd657	0.17171608
170	0x3d95a175	0.07306186
171	0xbd92a40b	-0.07160195
172	0xbc5a7e8b	-0.013335834
173	0x3e161ba9	0.14658989
174	0x3e14ba4c	0.14524192
175	0xbcb68ee8	-0.02228494
176	0x3dde9ae5	0.108693875
177	0xbd8e969f	-0.069623224
178	0x3db33ec1	0.08752204
179	0x3de43239	0.11142392
180	0x3db9ae7f	0.090664856
181	0x3dfde0f5	0.12396423
182	0x3e408a3a	0.18802729
183	0x3d565035	0.052322585
184	0x3e106b78	0.14103496
185	0x3e1e6d61	0.15471412
186	0xbd0135b2	-0.03154535
187	0x3dc8ba16	0.09801118
188	0x3dce8790	0.1008445
189	0x3d90be9b	0.07067605
190	0x3e14cb06	0.14530572
191	0xbcfae044	-0.030624516
192	0x3dab4f16	0.08364694
193	0x3c93583f	0.017986415
194	0x3d80e9ad	0.0629457
195	0x3d260181	0.040528778
196	0x3c7f78db	0.015592779
197	0x3ce7e134	0.028305627
198	0x3d916362	0.07099034
199	0x3d906495	0.070504345
200	0x3da07e83	0.0783663
201	0x3daac2ed	0.083379604
202	0x3d8d6d6c	0.06905636
203	0x3d97ac52	0.07405914
204	0xbca4c68a	-0.020114202
205	0x3acce184	0.0015631174
206	0x3d876d7a	0.06612678
207	0xbcd06124	-0.025436945
208	0x3d53a751	0.051673237
209	0x3d62b68f	0.055349883
210	0x3d65978b	0.056052726
211	0x3d24be30	0.04022044
212	0xbc8bc187	-0.017060054
213	0x3c9b98ac	0.018993698
214	0x3cfcf7a1	0.030879797
215	0x3d38102a	0.04493729
216	0x3d5045ed	0.050847936
217	0x3ce52a56	0.027974289
218	0x3d84e462	0.06488873
219	0x3c819127	0.015816284
220	0x3d883ca3	0.066521905
221	0x3cb6449b	0.02224951
222	0x3cccc735	0.024997333
223	0x3d6f96c5	0.058493394
224	0x3da220f6	0.07916443
225	0x3c233219	0.009960675
226	0xbcdf0e98	-0.027228639
227	0x3d833cb6	0.06408064
228	0x3c9630e8	0.018333867
229	0x3daa3ecd	0.083127595
230	0x3d106854	0.035255745
231	0x3d8c2151	0.06842292
232	0x3d9dde8b	0.07708462
233	0x3d717fd3	0.058959793
234	0x3ca85805	0.020549783
235	0x3d4854c1	0.048908953
236	0xbc2efc95	-0.010680337
237	0x3d82e5d0	0.063914895
238	0x3d1cba35	0.03826352
239	0x3b43f1ed	0.0029898838
240	0x3d310b14	0.043223456
241	0x3c322a7e	0.010874389
242	0x3dc5c0bd	0.096559025
243	0x3cfea70f	0.03108552
244	0x3db791be	0.08963345
245	0x3db7be10	0.089717984
246	0x3d958832	0.07301368
247	0x3d7a75c9	0.061147485
248	0x3cb84a25	0.022496292
249	0x3d8acd96	0.06777494
250	0xbce497b1	-0.027904363
251	0x3d49e243	0.049288046
252	0x3d5c8f36	0.053847514
253	0x3bb97ff1	0.0056610038
254	0x3da347b8	0.07972664
255	0x3d5421e1	0.051790122

W_i f4 [128, 64]
0	0x3c8d51a5	0.017250845
1	0x3c2eaf88	0.010661967
2	0x3ca32757	0.01991622
3	0x3c9d06c4	0.019168265
4	0x39e687a6	0.00043970085
5	0xbc3028e0	-0.010751933
6	0xbcb89947	-0.022534026
7	0xbcd44167	-0.025910093
8	0xbca71e10	-0.020400077
9	0x39dbc375	0.00041916562
10	0x3b4dc14f	0.0031395738
11	0x3c7dbdce	0.0154871475
12	0x3c59e705	0.013299708
13	0x3c5958a2	0.013265761
14	0x3c030e30	0.007998988
15	0x3b2ea0e5	0.0026646194
16	0xbc6e80ba	-0.014557058
17	0x3b29f2b6	0.002593202
18	0x3b241db3	0.0025042116
19	0x393faf82	0.00018280561
20	0x3c27c20c	0.0102391355
21	0x3c194d68	0.009356834
22	0xbb265891	-0.002538238
23	0xbc25fea3	-0.010131511
24	0x3cac8db3	0.021063661
25	0x3c596aa1	0.013270051
26	0x3cac5fa8	0.021041706
27	0xba462ba5	-0.0007559604
28	0xbca31039	-0.019905197
29	0x3c1c88d3	0.009554106
30	0x3c93279d	0.017963225
31	0x3bd3a4d5	0.0064588585
32	0x3cdb9f7a	0.026809443
33	0x3cbb5f25	0.022872517
34	0xbb4f75d9	-0.0031655936
35	0xbba61bf9	-0.0050692526
36	0xba5efffb	-0.0008506772
37	0xbcd1e72e	-0.02562293
38	0xbc234a9c	-0.009966519
39	0xbc361160	-0.011112541
40	0xbc9f27af	-0.019428102
41	0xbc82abfb	-0.015951147
42	0xbccd2a3b	-0.025044551
43	0x3c2e0f28	0.010623731
44	0x3ba88384	0.005142631
45	0x3c696bc9	0.014246889
46	0x3c814114	0.015778102
47	0x3cb09b80	0.021558523
48	0x3c93b21f	0.01802927
49	0x3c86cd76	0.016455393
50	0xbc83578e	-0.01603296
51	0xbc0336c1	-0.00800866
52	0xbaa6d41d	-0.001272801
53	0xbcb3a71b	-0.021930268
54	0xbc4dd4e5	-0.012562965
55	0x373ea1d2	1.1362559e-05
56	0xbc1f0326	-0.0097053405
57	0x3c53fea6	0.012939131
58	0x3bcf55ac	0.0063273516
59	0x3bfea4aa	0.0077710943
60	0x3c5413ab	0.012944142
61	0x3be4a5c7	0.00697777
62	0xbca39500	-0.01996851
63	0x3ad638d2	0.0016343838
64	0xbcdbd385	-0.026834259
65	0xbc853e16	-0.016264956
66	0xbcd38b28	-0.02582319
67	0x3e4e31cc	0.20136184
68	0x3d00093f	0.031258818
69	0xbd88c8ec	-0.06678948
70	0xbd8d835c	-0.069098204
71	0xbd64ff95	-0.055907805
72	0xbd4aadc3	-0.04948212
73	0xbcdb7497	-0.026788993
74	0xbd04f488	-0.032459766
75	0xbd096020	-0.033538938
76	0x3e1420ae	0.14465591
77	0x3c2cbb39	0.010542684
78	0x3c707dc2	0.0146784205
79	0x3d86b912	0.06578268
80	0xbdabf5d3	-0.083964966
81	0xbd0cc7e3	-0.034370314
82	0x3c8d11b2	0.017220352
83	0xbde38fae	-0.11111389
84	0x3d5e2f5d	0.054244388
85	0x3dfe57bb	0.12419077
86	0x3d8389d2	0.064227715
87	0x3d2a969f	0.04164755
88	0x3e014cec	0.12627
89	0x3ccd981f	0.025096951
90	0xbd14b373	-0.03630395
91	0xbb6b7aad	-0.0035931275
92	0xbd3f6e78	-0.04673621
93	0x3dbc7743	0.09202435
94	0x3e2c7180	0.16840172
95	0xbd24131a	-0.04005728
96	0xbc8fd7f4	-0.01755903
97	0x3dff2dcd	0.12459908
98	0x3de26469	0.11054308
99	0xbd792948	-0.060830384
100	0x3dabd8e8	0.08390981
101	0xbda8eda1	-0.08248449
102	0x3d87f8af	0.066392295
103	0xbd0e3689	-0.034719978
104	0xbd3ea555	-0.04654439
105	0xbd559668	-0.05214539
106	0xbd57007b	-0.052490693
107	0x3dad1435	0.0845112
108	0x3d926558	0.07148236
109	0xbb9f01db	-0.004852516
110	0x3dfb4ffd	0.12271116
111	0x3dd05160	0.10171771
112	0xbdefecef	-0.11715113
113	0x3dbdf682	0.09275533
114	0xbdb259e6	-0.08708553
115	0xbd7cc7b6	-0.061713897
116	0x3c9362dd	0.017991478
117	0xbd8461fe	-0.06464003
118	0x3c97b25a	0.018517662
119	0xbbcba4b5	-0.006214703
120	0xbd9fd2a8	-0.07803851
121	0xbd169a0c	-0.036768004
122	0x3da38ec7	0.07986217
123	0x3db2246c	0.08698353
124	0x3d168f89	0.03675798
125	0x3e1ebf3f	0.15502642
126	0xbd933f6d	-0.07189832
127	0xbd9e3800	-0.07725525
128	0xbd4679c6	-0.048455976
129	0x3dce849b	0.10083886
130	0xbdc34c93	-0.0953609
131	0xbc19d16c	-0.009388309
132	0x3e3d0b1c	0.18461269
133	0x3caa820d	0.020813966
134	0xbd6db0f6	-0.05803009
135	0xbd1a012c	-0.037598774
136	0x3c8cea9e	0.017201718
137	0x3d02a113	0.031891894
138	0xbd94e01a	-0.072693065
139	0xbd9243b3	-0.07141819
140	0x3d2fa24c	0.042879388
141	0xbda20359	-0.07910795
142	0xbd0644ce	-0.03278046
143	0xbcfd5be8	-0.030927613
144	0xbc9a609d	-0.018844897
145	0x3d144932	0.036202617
146	0x3c9a3737	0.018825157
147	0xbd30ad16	-0.043133818
148	0xbdfcabeb	-0.12337478
149	0x3e4e4523	0.20143561
150	0x3b6b7d27	0.003593275
151	0x3dbad076	0.09121792
152	0xbe1a6c06	-0.1508027
153	0x3e3014f6	0.17195496
154	0xbd56dfb1	-0.052459422
155	0xbe2c236a	-0.16810384
156	0x3ce3410b	0.027740976
157	0xbe5847df	-0.21121167
158	0x3c32f89e	0.010923533
159	0xbbba4603	-0.0056846156
160	0xbd987ed5	-0.07446066
161	0xbd1e851e	-0.03870117
162	0xbdc415a5	-0.09574441
163	0xbceaa90a	-0.028645057
164	0x3d2896ba	0.04115937
165	0xbd4d91e8	-0.050187975
166	0x3d565350	0.052325547
167	0x3c66a18c	0.014076602
168	0x3d02bc1f	0.031917688
169	0x3c696a36	0.014246514
170	0xbdb156aa	-0.08659108
171	0x3e20e2a7	0.15711461
172	0x3cc54056	0.02407853
173	0xbe06991b	-0.13144343
174	0xbdd511b4	-0.10403767
175	0x3d6d24cd	0.057896424
176	0xbdeeff15	-0.11669747
177	0x3d60507f	0.054764267
178	0xbe0eb63f	-0.13936709
179	0x3d351dca	0.044217862
180	0x3dcb4313	0.09924903
181	0xbd299aeb	-0.041407507
182	0x3d273a0b	0.04082684
183	0xbc19f7f1	-0.009397493
184	0x3e179492	0.14802769
185	0xba9f7462	-0.0012165422
186	0x3d9da12d	0.076967575
187	0x3d39535d	0.045245517
188	0xbe1c60bb	-0.15271275
189	0x3d203658	0.039114326
190	0xbcda8278	-0.02667354
191	0x3bd22e3f	0.0064142044
192	0x3d1a9072	0.03773541
193	0xbda50ab8	-0.08058685
194	0x3d5b726b	0.053575914
195	0xbd00d287	-0.031450775
196	0xbd9f2900	-0.07771492
197	0xbd293056	-0.041305862
198	0x3b791615	0.0038007547
199	0x3cc96849	0.02458586
200	0xbcddc7bc	-0.02707278
201	0x3d20458a	0.039128818
202	0x3b46e814	0.0030350732
203	0x3cf63073	0.0300524
204	0xbca82dcb	-0.020529648
205	0xbd0b8b9a	-0.03406868
206	0xbcaec709	-0.021335142
207	0xbce97f18	-0.028502986
208	0xbd5d55a7	-0.054036763
209	0x3d26a246	0.0406821
210	0xbd967b3a	-0.07347722
211	0xbcf52ccc	-0.029928587
212	0xbb38f284	-0.0028220722
213	0xbd24209b	-0.040070157
214	0x3ce0b6a5	0.027430842
215	0xbd717fc5	-0.05895974
216	0xbd3489c2	-0.04407669
217	0xbd771628	-0.060323864
218	0x3d188307	0.037234332
219	0xbd18f263	-0.037340533
220	0x3d76f665	0.060293574
221	0xbd3b61ae	-0.04574745
222	0x3c7f2289	0.015572199
223	0x3cab6606	0.020922672
224	0x3b78ddab	0.0037973921
225	0xbca51c2d	-0.020155037
226	0xbcef1883	-0.029186493
227	0xbc388d8a	-0.011264214
228	0xbd4d03d8	-0.050052494
229	0x3cac4634	0.02102957
230	0x3abb6899	0.001429814
231	0x3daabdf4	0.08337012
232	0x3c8175fb	0.015803328
233	0xbcb15331	-0.021646114
234	0xbcfe7be8	-0.031064942
235	0xbcd7344f	-0.02627006
236	0xbd0df839	-0.03466055
237	0xbaaa6ac2	-0.0013001787
238	0xbd46f1e0	-0.048570514
239	0xbd468de2	-0.048475154
240	0x3c689ee2	0.014198037
241	0xbcc946bf	-0.024569867
242	0xbd41019b	-0.04712067
243	0xbd8c4d6b	-0.06850704
244	0xbcc3c679	-0.02389835
245	0x3cdd5054	0.027015842
246	0xbdc5ea41	-0.09663821
247	0x3d01eb2d	0.03171842
248	0xbd94bd8e	-0.07262717
249	0x3c9c514e	0.019081738
250	0xbcfd98b0	-0.030956596
251	0xbc4c69f0	-0.012476429
252	0xbd09fbd4	-0.033687428
253	0xbd6ccf2b	-0.05781476
254	0xbce005d3	-0.027346527
255	0xbc7c1e75	-0.015388121

W_c f4 [128, 64]
0	0xbcd8ca4f	-0.026463656
1	0x3c566088	0.013084538
2	0xbb07f422	-0.002074488
3	0x3d3dd5a3	0.046346318
4	0x3d01d427	0.031696465
5	0xbd01e941	-0.03171659
6	0x3d663197	0.056199636
7	0xbd4c1caf	-0.049832042
8	0xbcb932bf	-0.022607205
9	0x3cac820a	0.021058101
10	0xbd060cd4	-0.032727078
11	0xbd319bc6	-0.043361448
12	0x3d742504	0.059605613
13	0x3c95ab78	0.01827024
14	0xbd68af0f	-0.056807574
15	0x3cf595e6	0.029978704
16	0x3c4e4b83	0.012591246
17	0xbd8f236f	-0.0698918
18	0x3da45d0e	0.08025561
19	0x3d261d24	0.040555134
20	0x3c3444bc	0.011002716
21	0xbc7f9278	-0.015598886
22	0xbcef26d4	-0.02919332
23	0xbd300101	-0.042969707
24	0xba4d4dea	-0.00078317395
25	0xbd90d0eb	-0.07071098
26	0xbbd04ad1	-0.006356575
27	0xba904632	-0.0011007248
28	0xbdabcefd	-0.08389089
29	0x3dc3ccfd	0.09560583
30	0xbd63cc57	-0.055614796
31	0xbdbe1475	-0.092812456
32	0x3ce176f1	0.027522536
33	0x3d2b33cd	0.041797448
34	0x3bb5dea4	0.0055502225
35	0xbceb4a25	-0.028721878
36	0xbcd133d7	-0.025537414
37	0x3bb7920b	0.0056021265
38	0xbdb24cde	-0.087060675
39	0xbd659ffb	-0.056060772
40	0xbdb07ac8	-0.08617169
41	0xbd148ccb	-0.036267083
42	0x3ce92bf2	0.028463338
43	0xbd4b6ef4	-0.04966636
44	0x3cc7dae9	0.024396377
45	0xbd5f7971	-0.054559175
46	0x3d3ae726	0.045630597
47	0x3d5e7730	0.054312885
48	0x3c4bc6e7	0.012437559
49	0x3d4e0fbb	0.05030797
50	0xbd8c9b63	-0.06865575
51	0xbcb60b8b	-0.022222301
52	0xbc7a46cb	-0.015275667
53	0xbd3a0ef2	-0.04542441
54	0x3d10a4f5	0.035313565
55	0xbb878d81	-0.0041367416
56	0xba9362a2	-0.0011244605
57	0x3d747cfc	0.059689507
58	0x3d2dba35	0.04241391
59	0xbbeb6f27	-0.0071848813
60	0x3c97626d	0.01847955
61	0x3d83c857	0.06434696
62	0xbd8f6868	-0.07002336
63	0x3d11c44e	0.0355876
64	0x3c84778a	0.016170282
65	0xbd54cf98	-0.05195579
66	0x3b0207e6	0.0019841134
67	0xbd404a7b	-0.04694603
68	0xbd65ca6a	-0.05610124
69	0x3b7f7c07	0.0038983838
70	0xbcd80363	-0.026368802
71	0x3d0dc828	0.034614712
72	0xbde39c71	-0.11113823
73	0x3cd0b163	0.02547521
74	0xbc90844b	-0.017641207
75	0x3d0eb3ab	0.034839313
76	0xbc8f0bc9	-0.017461674
77	0x3d631346	0.055438302
78	0x3cfed3c1	0.031106832
79	0x3dad7375	0.08469287
80	0xbcfa0067	-0.03051777
81	0x3d5e03dd	0.054202903
82	0x3d17933b	0.037005644
83	0x3db81a14	0.08989349
84	0x3b4d2340	0.0031301528
85	0xbd1d1b52	-0.038356133
86	0x3d251f74	0.0403132
87	0xbdad511a	-0.084627345
88	0x3d8545ba	0.0650744
89	0x3d22ce14	0.039747313
90	0x3dae40fc	0.085084885
91	0x3ca3e64d	0.020007277
92	0x3d6e5ed1	0.058195893
93	0xbc6f5f26	-0.0146100875
94	0x3d009a8b	0.031397384
95	0xbcb44db8	-0.022009715
96	0xbd3b331e	-0.045703046
97	0xbd84f742	-0.06492473
98	0xbbc2dfaf	-0.0059470753
99	0xbdb4e228	-0.088321984
100	0xbd8b7357	-0.06809109
101	0x3c273d15	0.010207434
102	0x3d6ad4c0	0.0573318
103	0x3e0e4f44	0.13897425
104	0xbcec542e	-0.028848734
105	0x3d765c87	0.060146835
106	0xbd89816b	-0.06714138
107	0xbd69ba4d	-0.057062436
108	0x3dafd6d0	0.08585894
109	0xbd85c53a	-0.065317586
110	0xbe11f8a3	-0.14255004
111	0xbdb15198	-0.08658141
112	0x3db9b5f3	0.09067907
113	0x3d57ef5c	0.052718505
114	0x3d32665e	0.043554656
115	0xbcec45ec	-0.028841935
116	0x3ceb5438	0.028726682
117	0x3d687cf2	0.056759782
118	0x3b9d20f5	0.0047951885
119	0x3d163786	0.036674045
120	0xbca59a78	-0.020215258
121	0x3c23f6a7	0.010007537
122	0xbd88e62d	-0.066845275
123	0x3d9406ae	0.072278365
124	0xbd5ad121	-0.053422097
125	0xbd39308c	-0.045212314
126	0x3cf345b9	0.029696332
127	0xbdd7062e	-0.104992256
128	0xbcf4b224	-0.0298701
129	0x3d7fe723	0.06247629
130	0xbcc0a6b8	-0.023516998
131	0x3da88368	0.08228189
132	0x3d7ab84b	0.06121091
133	0x3db4ab78	0.088217676
134	0xbce5a447	-0.028032435
135	0x3cfcff00	0.030883312
136	0xbc0bfc77	-0.008544079
137	0xbdb2007a	-0.08691497
138	0xbc1b8de6	-0.00949428
139	0xbcd34968	-0.025791839
140	0xbcde267c	-0.02711796
141	0xbd2cf570	-0.042226255
142	0xbc5c28d3	-0.013437468
143	0x3c4322ee	0.011910183
144	0x3d710d5a	0.058850624
145	0xbd84b910	-0.0648061
146	0x3dfb44d4	0.12268987
147	0xbd102ba9	-0.035197888
148	0xbc972e8d	-0.018454814
149	0x3caa6e4f	0.020804552
150	0xbd02234c	-0.031771943
151	0x3da6421a	0.081180766
152	0x3e067ab1	0.1313274
153	0xbd7acaa2	-0.061228402
154	0xbd748ae2	-0.05970276
155	0x3cae6206	0.021286976
156	0xbd859751	-0.06523002
157	0x3d23475b	0.03986297
158	0x3e2bf3f7	0.16792284
159	0xbccbc22b	-0.02487286
160	0xbd0d0a87	-0.034433868
161	0x3c5b7ebf	0.013396918
162	0x3cf227b8	0.029559955
163	0x3d877d80	0.06615734
164	0x3d1ff775	0.039054353
165	0xbce69991	-0.028149398
166	0x3d4313b9	0.04762623
167	0xbccf62a6	-0.025315594
168	0x3d5aab34	0.05338593
169	0xbd68e4ad	-0.056858707
170	0x3d7f222e	0.062288456
171	0x3cdd37b9	0.02700411
172	0xbc928c8a	-0.01788928
173	0xbcca9e02	-0.024733547
174	0x3e3a8168	0.18213427
175	0xbd40f78a	-0.04711107
176	0x3d318e98	0.04334888
177	0x3dd64dcc	0.10464057
178	0xbd9b3682	-0.07578756
179	0xbb835449	-0.0040078503
180	0x3df11e3d	0.117733456
181	0xbdb79b1b	-0.08965131
182	0x3db99c67	0.090630345
183	0x3d13fcb9	0.036129687
184	0x3dc1cf1a	0.094633296
185	0x3db37fbd	0.087645985
186	0x3da2b25d	0.07944176
187	0x3dd65563	0.10465505
188	0x3d58a1ff	0.052888867
189	0x3e385914	0.1800273
190	0xbccf74f7	-0.025324328
191	0x3c74b10b	0.014934788
192	0xbc2f4e86	-0.010699874
193	0x3e00eea4	0.12591034
194	0xbcad98a5	-0.02119095
195	0x3d3ecf71	0.04658455
196	0x3de4bc77	0.11168759
197	0x3c1766c1	0.009240807
198	0xbdb5a01c	-0.08868429
199	0xbd2bfef6	-0.041991197
200	0xbdd73357	-0.10507839
201	0x3d3818ec	0.044945642
202	0xb97faeb1	-0.00024383773
203	0x3ccb296a	0.024800021
204	0x3bcb6691	0.006207295
205	0x3d3a713e	0.045518152
206	0xbc39c672	-0.011338817
207	0x3d120604	0.03565027
208	0x3d7f8d93	0.062390875
209	0xbdca9463	-0.09891584
210	0x3d9e56cc	0.07731399
211	0x3cb52b52	0.022115383
212	0x3c9ef828	0.01940544
213	0x3dfbfe9a	0.12304421
214	0xbc89cf62	-0.01682252
215	0x3d9ee12c	0.07757792
216	0x3d51f0da	0.051255085
217	0x3e1bd676	0.15218529
218	0xbd6d24bb	-0.057896357
219	0x3d018c2d	0.031627823
220	0xba2ff9e5	-0.00067129574
221	0x3da9a547	0.08283477
222	0x3dfb7c6a	0.122795895
223	0x3c5bd940	0.013418496
224	0xbd914619	-0.07093448
225	0x3d94229f	0.07233166
226	0x3cff89fd	0.031193728
227	0xbc1b397a	-0.009474153
228	0x3d4108d3	0.047127556
229	0x3d1e3c62	0.038631804
230	0x3dc195ba	0.09452386
231	0x3cdd6069	0.027023511
232	0x3d27101d	0.04078685
233	0x3d1d010b	0.038331073
234	0xbc812d8a	-0.015768785
235	0x3e2ca79b	0.16860811
236	0x3e1aee34	0.1512993
237	0xbdb178ea	-0.08665641
238	0xbd55119d	-0.05201875
239	0x3cfd9d8b	0.030958911
240	0xbd95dcd9	-0.07317514
241	0x3db8544a	0.09000452
242	0xbdb6d5d9	-0.08927507
243	0x3df04a3f	0.11732911
244	0x3cd64277	0.02615474
245	0xbc1ba87f	-0.009500622
246	0xba36bda6	-0.0006971009
247	0xbd922632	-0.071361914
248	0x3d98a6d0	0.07453692
249	0xbd6b8f14	-0.057509497
250	0x3dd74019	0.105102725
251	0x3da038f9	0.07823367
252	0xbd805771	-0.06266678
253	0x3cecacae	0.028890934
254	0xbc9a4a7a	-0.018834341
255	0xbbdecfbc	-0.006799666

W_o f4 [128, 64]
0	0x3b7e8703	0.0038837797
1	0xbc13feff	-0.009032964
2	0x3c136b2d	0.008997721
3	0x3cdf1234	0.02723036
4	0xbc4b0dff	-0.012393474
5	0xbcabdbb1	-0.02097878
6	0xbcd26788	-0.025684133
7	0xbcfeab9c	-0.03108769
8	0xbcf2c6fb	-0.029635897
9	0xbc0b484d	-0.008501125
10	0xbc82f91f	-0.01598793
11	0x3c3c9f18	0.01151254
12	0x3c224a85	0.009905462
13	0x3b44c9aa	0.0030027428
14	0xbc0b9f91	-0.00852193
15	0x3c14ef6c	0.009090286
16	0xbc8e2900	-0.017353535
17	0xbc667ab2	-0.014067339
18	0x3a97b15f	0.0011573246
19	0xbc6765d6	-0.014123401
20	0x3c9cac9f	0.01912528
21	0xbac8c565	-0.0015317617
22	0x39b09bd5	0.0003368544
23	0xbcc8da4a	-0.02451815
24	0x3cd7bc9e	0.026335057
25	0x3914fcd6	0.00014208569
26	0xbba4394e	-0.005011714
27	0xbbd3a45d	-0.0064588026
28	0xbd07beb5	-0.033140857
29	0x3cbde803	0.02318192
30	0x3cf0e1e5	0.02940459
31	0xbc1fcca0	-0.009753376
32	0x3cc07621	0.023493828
33	0x3cb428db	0.021992138
34	0xbbb9907c	-0.005662976
35	0xbc5c4989	-0.0134452665
36	0xbc197633	-0.00936656
37	0xbd070abc	-0.03296922
38	0xbcc2cb15	-0.023778478
39	0xbcc18e78	-0.023627505
40	0xbd0af9ba	-0.033929564
41	0xbcfca6f1	-0.030841323
42	0xbcd76b8a	-0.026296396
43	0xbc0e3b99	-0.008681201
44	0x3b6dd3e1	0.003628962
45	0x3bd1cc92	0.0064025605
46	0x3c8be8b6	0.017078739
47	0x3c1a987a	0.009435767
48	0xbb563b2f	-0.0032689085
49	0x3ac72252	0.0015192723
50	0xbcbf8a7e	-0.023381468
51	0xbcddc058	-0.027069256
52	0xbc38b6a6	-0.0112740155
53	0xbcfe8be8	-0.031072572
54	0xbc9f0eca	-0.019416232
55	0xbcb2c452	-0.021822128
56	0xbcc4961d	-0.02399736
57	0x3b86fc32	0.0041194195
58	0x3c0d3640	0.008618891
59	0x3c11eea0	0.00890699
60	0x3bb5527c	0.0055335145
61	0x3b9d1dba	0.0047948034
62	0xbce8ae71	-0.028403493
63	0xbc57ad2e	-0.013163848
64	0xbd18b8e0	-0.037285686
65	0x3b8f7bd7	0.0043787765
66	0xbbc2473a	-0.005928901
67	0x3dd7bd0e	0.10534106
68	0x3cb4b183	0.0220573
69	0x3cd1d2f0	0.025613278
70	0x3d9e03c3	0.07715561
71	0x3dac3ece	0.084104165
72	0x3d400331	0.046878044
73	0xbd413665	-0.047171015
74	0x3bae5230	0.005319856
75	0xbbcc09dd	-0.0062267617
76	0x3d952516	0.07282464
77	0x3d22f327	0.03978267
78	0x3cbebb6a	0.023282725
79	0x3d7acb9b	0.06122933
80	0xbad06002	-0.0015897753
81	0xbc3b9c7d	-0.011450884
82	0x3d76aa5d	0.060221065
83	0x3d118bc3	0.035533678
84	0x3d55492f	0.052071746
85	0x3d38832b	0.045046967
86	0x3d4c9a26	0.049951695
87	0xbb20449d	-0.002445496
88	0x3d9c3f98	0.07629317
89	0xbd620437	-0.0551798
90	0xbd19226e	-0.03738635
91	0x3d55d46c	0.052204534
92	0x3d4a60de	0.049408786
93	0x3daa799f	0.08323979
94	0x3deebf79	0.11657614
95	0xbd597068	-0.053085715
96	0x3d5777e5	0.052604575
97	0x3ddec534	0.10877457
98	0x3deec63f	0.11658906
99	0x3d45e41d	0.04831325
100	0x3d55958a	0.052144565
101	0x3d73333f	0.059375044
102	0x3cf6990f	0.03010228
103	0x3d0dd002	0.0346222
104	0x3d7ce528	0.061741978
105	0x3d21c5ba	0.039495207
106	0x3d5b9225	0.05360617
107	0x3d0d6e00	0.034528732
108	0x3d8674ea	0.06565268
109	0xbc15f1a8	-0.009151854
110	0x3cfbe463	0.030748552
111	0x3cd99f7b	0.026565304
112	0x3d1f17ab	0.03884093
113	0x3d9b826f	0.075932376
114	0x3d8c6445	0.068550624
115	0x3cb8caf1	0.022557708
116	0x3d8dde4b	0.06927165
117	0x3d7dc70a	0.061957397
118	0x3d3327a4	0.043738976
119	0x3aa44d1c	0.0012535187
120	0x3c206195	0.00978889
121	0xbcb5f09d	-0.02220946
122	0x3dc34d54	0.095362335
123	0x3d576e36	0.05259534
124	0x3ca342c1	0.019929292
125	0x3d053989	0.032525573
126	0x3da68d6f	0.08132445
127	0xbcccb102	-0.024986748
128	0x3d7efa28	0.062250286
129	0x3e1ea10c	0.15491122
130	0x3d5dbdaf	0.054135974
131	0xbd09d452	-0.03364975
132	0x3e1af00a	0.1513063
133	0x3ddc3de7	0.107539944
134	0xbc9599ad	-0.018261755
135	0x3c12ae7d	0.008952734
136	0x3d1fe70f	0.039038714
137	0x3b7060cb	0.0036678787
138	0x3de00aeb	0.109395824
139	0x3cb3a3c4	0.021928675
140	0xbe1863b6	-0.14881787
141	0xbe0af4e9	-0.13569988
142	0x3da0352b	0.07822641
143	0xbdc322b1	-0.09528101
144	0x3e17de17	0.14830814
145	0x3d288c44	0.041149393
146	0x3dfc8456	0.123299286
147	0x3dd7f5a0	0.10544896
148	0xbd8e74d2	-0.069558755
149	0xbd8b9912	-0.06816305
150	0xbde28f37	-0.11062472
151	0x3e10e3fa	0.14149466
152	0xbd1c6a5f	-0.03818738
153	0xbcdc03f6	-0.026857357
154	0x3d82d77f	0.06388759
155	0xbd3e541f	-0.046466943
156	0x3c821752	0.01588026
157	0xbd901552	-0.070353165
158	0x3d9a1fd8	0.07525605
159	0x3cf18e42	0.02948678
160	0x3d22b5e8	0.03972426
161	0xbd237b49	-0.039912496
162	0x3c00adff	0.007853984
163	0xbda5918c	-0.080844015
164	0x3d560694	0.052252367
165	0x3db1b46a	0.086769894
166	0x3e05492d	0.13016196
167	0x3ccda8de	0.025104936
168	0x3ca232db	0.01979964
169	0x3d62aa82	0.05533839
170	0x3d261051	0.040542904
171	0xbc8674bc	-0.016413085
172	0xbd8dc410	-0.069221616
173	0x3dc20903	0.09474375
174	0x3dee7376	0.11643116
175	0xbd687f7f	-0.056762215
176	0x3d9b944f	0.07596647
177	0x3c4bcbfd	0.012438771
178	0xbcacef47	-0.02111019
179	0x3dea9055	0.114533104
180	0x3daba96c	0.08381924
181	0x3d2dc55e	0.042424552
182	0x3da77d40	0.081781864
183	0x3d846069	0.06463701
184	0x3df211fb	0.11819836
185	0x3d4e8e10	0.05042845
186	0xbd077369	-0.033069048
187	0x3c97b24f	0.018517641
188	0x3ddb2cc2	0.10701896
189	0x3ae4e438	0.0017463034
190	0xbc11661f	-0.008874445
191	0xbd88bce8	-0.06676656
192	0x3d143333	0.03618164
193	0xbd4bc9c7	-0.049752977
194	0x3cab5842	0.020916108
195	0xbb421a9b	-0.002961791
196	0xbd2991d3	-0.041398834
197	0xbcd0698e	-0.025440957
198	0x3d9d2b7e	0.07674311
199	0x3cafa8fe	0.021442886
200	0x3b5d6b8c	0.0033786027
201	0x3c70c97a	0.014696473
202	0x3c2df653	0.01061781
203	0x3d1fb80f	0.03899389
204	0xbdee416d	-0.11633573
205	0xbd922295	-0.07135502
206	0xbcaeeffd	-0.02135467
207	0xbd513a36	-0.051080905
208	0x3c96f89d	0.018429095
209	0x3c1b3423	0.00947288
210	0x3c37a633	0.011209059
211	0x3d120deb	0.035657804
212	0xbd37a810	-0.04483801
213	0xbdf5df5a	-0.120054916
214	0xbc0d0bac	-0.00860874
215	0x3c6087a2	0.013704212
216	0xbd6e9966	-0.05825176
217	0xbd83ce56	-0.0643584
218	0x3ca67329	0.020318585
219	0xbcb7b7dc	-0.022426538
220	0x3d50334d	0.050830174
221	0x3b34d948	0.002759533
222	0x3ce22ba1	0.027608695
223	0xbcd0bc8b	-0.02548053
224	0xbbd9044d	-0.006622827
225	0xbc40f098	-0.011776112
226	0xbd12b311	-0.035815302
227	0x3c816a6d	0.015797818
228	0xbd7c71d4	-0.061631992
229	0x3d93fab5	0.07225553
230	0x3bd08a4f	0.006364144
231	0x3dc38686	0.09547143
232	0x3d72380a	0.059135474
233	0x3d191924	0.03737749
234	0x3d550177	0.05200335
235	0xbd4fcc87	-0.05073216
236	0xbd11dae1	-0.03560913
237	0x3c87d0c6	0.016579043
238	0x3c499bf0	0.012305245
239	0xbdd88020	-0.10571313
240	0x3c46acc4	0.0121261515
241	0xbd9b8217	-0.07593172
242	0x3d290b71	0.041270677
243	0xbbe003a2	-0.0068363706
244	0x3a467a51	0.0007571327
245	0x3d832645	0.06403784
246	0x3c51727d	0.012783644
247	0x3d053f59	0.032531116
248	0xbc3c288a	-0.011484275
249	0x3d4e621c	0.050386533
250	0xbd82ed7a	-0.06392951
251	0xbd3aed0f	-0.045636233
252	0x3d34143d	0.043964613
253	0xbd1e0299	-0.038576696
254	0x3d1d4736	0.03839799
255	0xbd4c3988	-0.049859554

U_f f4 [128, 128]
0	0x3a9671ea	0.0011478041
1	0xbbcef2b3	-0.006315553
2	0xba761eba	-0.0009388734
3	0xbbc308d4	-0.00595198
4	0x3b36a80f	0.0027871167
5	0x3bcb23f7	0.0061993557
6	0x3bf22e45	0.0073907697
7	0xbc24c86b	-0.010057549
8	0xba7926f7	-0.00095044024
9	0x3a95f436	0.0011440578
10	0x39eb1d60	0.0004484458
11	0x3bdea47b	0.00679451
12	0x3c3b386d	0.011427027
13	0x3b78d74f	0.003797013
14	0x3c186f2e	0.009303851
15	0x3ab6f07f	0.0013957171
16	0xbb0a336e	-0.0021087783
17	0x3c26a978	0.01017224
18	0xbc40bf4e	-0.011764361
19	0x3b553d3c	0.003253772
20	0x3be872b4	0.007093752
21	0xbb8b3f40	-0.0042494833
22	0x3abdc551	0.001447836
23	0x3bfa9bc8	0.007647965
24	0x38cd4559	9.788079e-05
25	0xbb7fb599	-0.0039018153
26	0x3b02759f	0.0019906533
27	0xbaf1f11c	-0.0018458697
28	0x3c07a3f7	0.008278838
29	0xba1530fd	-0.0005691199
30	0xbbf85f31	-0.007579707
31	0x3bfc0177	0.0076906043
32	0x3c64d9c1	0.013967932
33	0xba7a41a9	-0.0009546527
34	0xbbbc02c6	-0.0057376353
35	0x3b4ab56b	0.0030930887
36	0xba875667	-0.0010325433
37	0x3a896968	0.0010483684
38	0x3be9876b	0.007126739
39	0x3bb47915	0.005507598
40	0x3b362126	0.0027790754
41	0xbb836d6c	-0.004010847
42	0x3999317b	0.000292193
43	0xb9a24b90	-0.00030955346
44	0x3b45fdeb	0.0030211161
45	0xbb136ae2	-0.0022494127
46	0xbacb8686	-0.0015527762
47	0xba15ff8c	-0.00057219784
48	0x3a02cbb6	0.0004989462
49	0x3a79b923	0.0009526184
50	0x3a4f77e5	0.0007914289
51	0xbbba3a04	-0.0056831855
52	0xbc788023	-0.015167269
53	0x3b869c19	0.0041079638
54	0x39f356c7	0.00046413226
55	0x3b0e956a	0.0021756538
56	0xbacff584	-0.0015866016
57	0x3aba076e	0.0014192888
58	0x3a9e45b8	0.0012075221
59	0x3c1acffd	0.009449002
60	0x3b9dfaaa	0.0048211413
61	0xbb9acbb0	-0.0047239885
62	0x3bc8f6a4	0.0061329175
63	0x3a67b6c5	0.00088391855
64	0x3a7aa680	0.00095615536
65	0x3b29aa9f	0.0025889052
66	0x3a9b16dd	0.0011832375
67	0x3b62ca9d	0.003460563
68	0xb94587db	-0.00018837994
69	0x38a1af15	7.70969e-05
70	0xbc1f39c7	-0.009718365
71	0x3a9194b0	0.0011106934
72	0x3c006fc2	0.007839145
73	0x3b5e0a1b	0.0033880535
74	0xbb6fd233	-0.0036593794
75	0xbb96e7d5	-0.0046052733
76	0xb9a26cf7	-0.00030980233
77	0x3b8ed33a	0.0043586763
78	0xba9f4e2e	-0.0012154037
79	0xbc15ebce	-0.0091504585
80	0xbc692241	-0.014229358
81	0x3b004558	0.0019572582
82	0x3aa81a3e	0.0012825204
83	0xbba0fa44	-0.0049126465
84	0xbbad3e88	-0.0052869953
85	0xbc2b4489	-0.010453352
86	0xbc1496e3	-0.009069177
87	0x3b5a5492	0.0033314568
88	0x3ab6677b	0.0013916338
89	0xbb15294e	-0.0022760215
90	0xbaf2f5af	-0.0018536354
91	0x3bec42ed	0.0072101266
92	0xbb48b0ef	-0.0030623039
93	0xbbe7008b	-0.0070496253
94	0xbb95b4c7	-0.0045686695
95	0x3c08e431	0.008355186
96	0xbb536df8	-0.0032261591
97	0x3b576851	0.0032868574
98	0x3be05db8	0.0068471096
99	0x3bb4cecd	0.0055178166
100	0xbb500591	-0.00317416
101	0xb8fcabf4	-0.00012048325
102	0xbaf0a587	-0.0018359878
103	0x39dc34bc	0.0004200096
104	0x3b6880f4	0.0035477253
105	0xbade81b9	-0.0016975916
106	0x3b8ddb5e	0.004329129
107	0xbb421ee6	-0.0029620468
108	0xbc160ce4	-0.009158347
109	0x3b6d4daf	0.0036209633
110	0x38fc1fdf	0.00012022233
111	0xbb6f0e19	-0.0036476909
112	0x3b2282cd	0.0024797202
113	0x3c162b81	0.009165646
114	0x3962ff91	0.00021648245
115	0x39aec9c8	0.00033338205
116	0xbaf2085d	-0.0018465627
117	0x38d2140b	0.000100173136
118	0x3c06e967	0.008234358
119	0x3c104aa0	0.0088068545
120	0xba8f7c2e	-0.0010947043
121	0xb9d4028a	-0.00040437683
122	0xbad1550a	-0.0015970778
123	0x3b870875	0.004120881
124	0xbb266a02	-0.0025392775
125	0xbbe76a50	-0.007062234
126	0xbc52c932	-0.0128653515
127	0xbc1447a0	-0.00905028
128	0x39c3b42d	0.0003732754
129	0xbdea4962	-0.11439778
130	0x3cc0a4b2	0.023516033
131	0x3d45f574	0.048329785
132	0xbb158fe1	-0.0022821354
133	0x3c90ad87	0.01766087
134	0x3ba17002	0.0049266824
135	0xbcad4eba	-0.021155704
136	0xbc4c89e5	-0.0124840485
137	0xbbd390cb	-0.0064564697
138	0xbd09f587	-0.03368142
139	0x3d4b785e	0.049675338
140	0x3db5942d	0.08866153
141	0x3d25f6ec	0.040518686
142	0x3cd2d3d6	0.025735777
143	0xbc3184a0	-0.010834843
144	0xbd2dfa2f	-0.04247492
145	0xbce09b74	-0.027417876
146	0x3c9f0e4e	0.019416
147	0xba9bc2a3	-0.0011883568
148	0x3d2f044e	0.042728715
149	0x3d0116da	0.031515934
150	0x3889b7a0	6.566872e-05
151	0xbd011358	-0.03151259
152	0xbcc3d955	-0.023907343
153	0x3c14f14d	0.009090734
154	0x3d1058fc	0.035241112
155	0x3c64159c	0.013921168
156	0x3df88fba	0.12136789
157	0xbc9e6d89	-0.01933934
158	0xbbc5b6fc	-0.0060337763
159	0x3db847fb	0.08998104
160	0x3d4f1ace	0.050562672
161	0xbc225210	-0.009907261
162	0x3b46535b	0.0030262086
163	0xbad5628a	-0.0016279977
164	0x3c00f51e	0.0078709405
165	0xbd4d95b2	-0.05019159
166	0xbcb88c25	-0.022527764
167	0x3e2f3187	0.17108737
168	0xbd2d5ba2	-0.042323716
169	0x3daa6d1e	0.08321594
170	0x3bf0b9e8	0.0073463805
171	0x3b1fcda8	0.0024384055
172	0xbcccad99	-0.024985122
173	0xbd12f6c1	-0.035879854
174	0xbb52fb3f	-0.0032193211
175	0xbbaa2246	-0.005192074
176	0x3b89b884	0.004202904
177	0x3cb88b3e	0.022527333
178	0xbcac2604	-0.021014221
179	0x3c6f389a	0.014600897
180	0x3c0564d8	0.008141719
181	0x3c40d0b4	0.011768509
182	0x3dcc6496	0.09980123
183	0xbdbc98eb	-0.09208854
184	0x3d0ef6e0	0.034903407
185	0xbda6ab3d	-0.0813813
186	0x3d0a96e7	0.033835318
187	0x3cb81997	0.02247314
188	0x3c1cee59	0.009578311
189	0x3ae6ab19	0.0017598598
190	0x3d5cc999	0.053903196
191	0x3c13f16c	0.009029727
192	0x3dbbb6a0	0.09165692
193	0xbcc19279	-0.023629414
194	0xbbf40218	-0.0074465387
195	0xba65c110	-0.00087644253
196	0xbb903476	-0.004400785
197	0x3c82286d	0.015888417
198	0xbc81bb5a	-0.015836406
199	0xbd007019	-0.031356905
200	0x3d16d3bd	0.036823023
201	0xbcf7e983	-0.030262714
202	0x3c6c0123	0.014404568
203	0xbce15ba0	-0.02750951
204	0x3c0f74fe	0.00875592
205	0xbc0f1b92	-0.008734601
206	0x3c4a56ad	0.012349767
207	0xbda10b43	-0.07863476
208	0xbd3f883a	-0.046760775
209	0xbd18b982	-0.03728629
210	0xbc9fdfea	-0.01951595
211	0xbc39491d	-0.0113089355
212	0x3da885fc	0.082286805
213	0x3d69351e	0.056935422
214	0x3c943ac0	0.01809442
215	0xbbb92256	-0.005649845
216	0x3bff8d6c	0.007798841
217	0x3d043186	0.03227379
218	0x3cae0dbf	0.021246789
219	0xbd688995	-0.056771833
220	0xbc859455	-0.016306082
221	0xbcdeb82f	-0.027187435
222	0xbde1c048	-0.11023003
223	0xbd74611a	-0.059662916
224	0x3d0a1774	0.033713773
225	0xbc7a40d9	-0.01527425
226	0xbdbf04bf	-0.09327077
227	0x3cc08369	0.023500161
228	0x3c804407	0.015657438
229	0x3a1b9314	0.0005934697
230	0xbca83b9c	-0.020536236
231	0xba8e0ae6	-0.0010836988
232	0xbcbdb06c	-0.023155414
233	0xba84ac7b	-0.0010122204
234	0x3d592845	0.05301692
235	0xbc219ca2	-0.009864004
236	0x3d9e7429	0.077369995
237	0x3d05d266	0.032671355
238	0xbc9e9cfd	-0.019361967
239	0xbc9c65f7	-0.01909159
240	0x3c602361	0.01368031
241	0xbc7b683a	-0.015344674
242	0x3b27c8d7	0.0025601888
243	0x3c2f3c12	0.010695474
244	0x3a9d0a9e	0.0011981314
245	0xbd0b0dae	-0.033948593
246	0xbca97e71	-0.020690175
247	0xbda5117c	-0.080599755
248	0xbc0ca407	-0.008584029
249	0xbd7c8ea3	-0.061659466
250	0x3cb5ae82	0.022177938
251	0xbc96637a	-0.018357981
252	0xbb3677f9	-0.0027842505
253	0xba6aacdd	-0.000895215
254	0xbcce96bf	-0.025218366
255	0x3c93ea70	0.018056124

U_i f4 [128, 128]
0	0x3b07bd04	0.0020712027
1	0xbcb239a8	-0.021756008
2	0x3c49846d	0.012299639
3	0xbc523404	-0.012829784
4	0xba4eb265	-0.0007884859
5	0xb8fd081e	-0.00012065492
6	0x3b7ed7b8	0.0038885903
7	0xbc71061c	-0.014710929
8	0xbaf813ba	-0.0018926777
9	0x3b0fea3d	0.0021959685
10	0xb927be5f	-0.0001599728
11	0x3c51510a	0.012775669
12	0x3beed4de	0.0072885593
13	0x3c355b1a	0.011069084
14	0x3c9b99a0	0.018994153
15	0xba1aded8	-0.000590784
16	0xbc4cf2d0	-0.012509063
17	0x3c2575f5	0.010098924
18	0xbcb617b9	-0.022228109
19	0x3b618072	0.0034408835
20	0x3c96d2b8	0.018411025
21	0x3b633373	0.0034668117
22	0x3bd977fb	0.0066366172
23	0xb9dcb422	-0.0004209588
24	0x3b7b5104	0.003834785
25	0xb9bc4b75	-0.00035914374
26	0x3be101d0	0.006866671
27	0xbb31c0fd	-0.0027123087
28	0x3b8cccc6	0.004296872
29	0x3b1c6b75	0.002386776
30	0xbc809330	-0.015695184
31	0x3b629a23	0.0034576736
32	0x3cac10cc	0.021004103
33	0xbb21617a	-0.002462475
34	0xbbca7d87	-0.006179515
35	0xbb30f3c0	-0.0027000755
36	0xba2c4288	-0.0006571193
37	0x3a3aef34	0.0007130981
38	0x3c626a62	0.013819309
39	0x3b01b432	0.0019791243
40	0xbb41a1ac	-0.0029545827
41	0xbbe4a664	-0.006977843
42	0x3b1d13b7	0.002396805
43	0x3b9edc25	0.0048480206
44	0x3b56019f	0.0032654775
45	0xbc09e521	-0.008416445
46	0xbb65ca2b	-0.0035063128
47	0xb9ff1e69	-0.00048660047
48	0x3a08ed07	0.0005223308
49	0x3b39948e	0.0028317305
50	0xb7f5329a	-2.922984e-05
51	0xbbc6609c	-0.006053997
52	0xbc804d68	-0.01566191
53	0x3bb5e98c	0.0055515226
54	0x3b834fb9	0.0040073064
55	0x3b800c8c	0.0039077457
56	0xb93063cd	-0.00016821847
57	0x3adb14ef	0.0016714613
58	0xbba94c12	-0.005166539
59	0x3c6bfa0c	0.014402878
60	0xbb36a648	-0.0027870107
61	0xbb4004d0	-0.0029299743
62	0x3aeb8758	0.0017969413
63	0xba84bae6	-0.0010126501
64	0xbb08ef88	-0.0020894725
65	0xbbe5ff37	-0.0070189494
66	0x3b1d9653	0.00240459
67	0x3b188bba	0.0023276643
68	0x3a35143c	0.0006907617
69	0xbb9a6636	-0.0047118915
70	0xbc77360d	-0.01508857
71	0x39cf90f5	0.00039590118
72	0x3c656418	0.014000915
73	0x3bcb8951	0.0062114378
74	0xba5367a3	-0.00080644543
75	0xba73a0c2	-0.0009293669
76	0x3a928e8a	0.0011181396
77	0x3c192fdd	0.00934979
78	0xbb30df7f	-0.0026988683
79	0xbc156a30	-0.009119555
80	0xbccba4ac	-0.024858795
81	0x3ba5dea2	0.0050619403
82	0xbba64e98	-0.005075287
83	0xbbdb41a8	-0.0066911764
84	0xbc122359	-0.00891956
85	0xbc6e9f9d	-0.014564422
86	0x3bfdf86c	0.0077505615
87	0x3bc99673	0.006151968
88	0x3b4eec14	0.003157382
89	0xbb9772bc	-0.0046218317
90	0xbb80c779	-0.003930029
91	0x3bea2cdb	0.0071464605
92	0xbbf0475b	-0.007332725
93	0x3afd1e2e	0.0019311362
94	0xbb4d77a9	-0.003135184
95	0xbbb3d8b2	-0.0054884786
96	0xbab3d032	-0.0013718663
97	0xbb36e596	-0.002790784
98	0x3bdbaf9b	0.0067042834
99	0x3c241d85	0.010016804
100	0xbb856d54	-0.004071871
101	0xbb918702	-0.004441143
102	0xbaedc0e6	-0.0018139153
103	0x3a0e2ddc	0.00054237037
104	0x3bd0b420	0.006369129
105	0xbbd12f25	-0.006383794
106	0x3c1e6b43	0.009669128
107	0xbba4e126	-0.0050317226
108	0x3ba4d5a6	0.0050303517
109	0x3a2d6399	0.00066142675
110	0xbb914a3c	-0.0044338983
111	0xbba2a0df	-0.004963025
112	0x3b9df2c4	0.0048201997
113	0x3c6358c3	0.013876143
114	0xba397ccb	-0.00070757855
115	0xbafc4b3a	-0.0019248493
116	0xbb52678c	-0.0032105176
117	0xbb86d089	-0.004114215
118	0x3c361c35	0.0111151235
119	0xbc0fc382	-0.00877464
120	0xbb0345a0	-0.0020030513
121	0xbb732ec4	-0.0037106732
122	0xbb310182	-0.0027008955
123	0xba69987c	-0.00089109666
124	0xbad58e47	-0.0016293012
125	0xbc307ab8	-0.010771446
126	0xbc842c07	-0.016134275
127	0xbc382867	-0.011240101
128	0x3cb26184	0.021775015
129	0xbda44d48	-0.08022553
130	0x3d2ea2fc	0.042635903
131	0x3d45b08a	0.048264064
132	0xbd82262b	-0.06354936
133	0xbbd7f9b7	-0.0065910476
134	0x3bcfdc4d	0.0063434006
135	0x3cfd602d	0.03092965
136	0xbb324462	-0.0027201404
137	0xb99bea3b	-0.0002973842
138	0xbce5cee8	-0.028052762
139	0x3ccad0e8	0.024757817
140	0xbd4d673a	-0.050147273
141	0x3c8d361e	0.01723772
142	0xbca900c4	-0.020630248
143	0xbd67952e	-0.056538753
144	0x3aa07586	0.0012242056
145	0x3d7f737d	0.062365998
146	0x3d799362	0.06093157
147	0x3c096e92	0.008388178
148	0x3ba7ff77	0.0051268893
149	0x3c548fe8	0.012973763
150	0x3d0c9dd5	0.034330208
151	0xbdbbd5fe	-0.09171675
152	0xbac26568	-0.0014831247
153	0xbabdff61	-0.0014495665
154	0x3c0eff83	0.008727911
155	0x3c98abf7	0.018636687
156	0xbc60066c	-0.013673406
157	0x3d204a0e	0.039133124
158	0xbd12f588	-0.035878688
159	0xbbf3f455	-0.007444898
160	0x3d0b6b75	0.034038026
161	0x3c6e2122	0.014534267
162	0xbc7fc0ff	-0.015609979
163	0xbd9730a7	-0.073823266
164	0x3b23aac5	0.0024973613
165	0x3ba7f542	0.0051256726
166	0x3aa91c87	0.0012902179
167	0x3c314975	0.010820736
168	0x3cbf03d8	0.023317263
169	0x3c151eaa	0.009101549
170	0xbcc1b239	-0.023644553
171	0x3cde2cbb	0.027120939
172	0xbd43349b	-0.04765759
173	0xbb6a0aeb	-0.0035712074
174	0x3c02022c	0.007935088
175	0xbab0a33f	-0.0013476386
176	0xbba69aef	-0.0050843875
177	0x3d098aab	0.03357951
178	0xbc7af2df	-0.015316694
179	0xbc14a28b	-0.009071956
180	0x3c3f570d	0.011678469
181	0x3c2e3e1e	0.010634927
182	0x3b919f10	0.0044440106
183	0x3d16599f	0.036706563
184	0x3d371f23	0.04470743
185	0x3cf75d19	0.03019576
186	0xbcd5059a	-0.026003648
187	0x3d284395	0.041080076
188	0xbba2fcb7	-0.0049739736
189	0xbbb03a63	-0.005378054
190	0xbd683bef	-0.056697782
191	0xbcd13765	-0.02553911
192	0x3d04744b	0.032337468
193	0xbd4a4923	-0.049386155
194	0xbac3cfd3	-0.0014939256
195	0x3c815425	0.015787194
196	0x3c9be53f	0.019030211
197	0xbc942edb	-0.018088749
198	0xbb81e3e1	-0.003963933
199	0x3dbf6ed4	0.09347311
200	0x3c97db3a	0.018537153
201	0x3c23d8f8	0.01000046
202	0x3c8935fc	0.016749375
203	0x3c30eef1	0.010799156
204	0xbc9abd8b	-0.01888921
205	0x3d0bffc6	0.03417947
206	0x3bde4afe	0.006783842
207	0xbc12e28d	-0.008965147
208	0x3a711014	0.0009195816
209	0xbc563b09	-0.0130755985
210	0x3d9f9934	0.07792893
211	0x3cc192a8	0.023629501
212	0x3de5ea86	0.112263724
213	0xbb8ceab8	-0.0043004416
214	0xbce52b98	-0.027974889
215	0x3c6df47b	0.014523621
216	0x3c3b9f6e	0.011451585
217	0xbc94d22c	-0.018166624
218	0x3d0b1f75	0.033965547
219	0xbd349197	-0.044084158
220	0xbc6d8625	-0.014497315
221	0x3c828871	0.015934201
222	0x3ba31e6c	0.004977992
223	0xbe03fd4a	-0.12889591
224	0x3d536004	0.05160524
225	0xbcb37a4d	-0.021908903
226	0xbd97f8e4	-0.07420519
227	0xbb9cb98c	-0.004782861
228	0x3cce9723	0.025218552
229	0xbd2be8c5	-0.041970033
230	0xbceab602	-0.028651241
231	0xbafef174	-0.0019450621
232	0xbbfd1889	-0.007723872
233	0x3a4d8e0f	0.0007841298
234	0x3c9aa6df	0.018878398
235	0x3b897515	0.0041948655
236	0x3c3ef92b	0.011656086
237	0xbbfacc50	-0.0076537505
238	0x3cb3489f	0.021885214
239	0xbd1c8951	-0.038216893
240	0x3cbd8d50	0.023138672
241	0xbd46f173	-0.048570108
242	0xbbc98402	-0.0061497698
243	0xba13d741	-0.00056396803
244	0xbc9495f4	-0.01813791
245	0xbd1e49bc	-0.038644537
246	0x3c78e725	0.015191828
247	0xbda5ad6d	-0.08089719
248	0xbbd380f4	-0.0064545814
249	0xbaf3f016	-0.001861098
250	0x3cbdd90a	0.023174781
251	0xbbedddfb	-0.007259128
252	0xbc408e12	-0.011752622
253	0x3cbdd7cf	0.023174195
254	0x3d0f7d46	0.03503158
255	0x3d97d91b	0.074144565

U_c f4 [128, 128]
0	0x3c2de721	0.010614187
1	0x3d3c604f	0.045990285
2	0x3d96c93f	0.073626034
3	0xbd2c2a1d	-0.04203235
4	0xbd1077d2	-0.03527052
5	0x3d8c1a36	0.06840937
6	0xbcab5158	-0.020912811
7	0xbda4b00c	-0.08041391
8	0x3c11ddcc	0.008902978
9	0xbafc6fcf	-0.0019259396
10	0x3d103b9c	0.035213098
11	0xbbefa5a0	-0.007313445
12	0xbab65ec6	-0.0013913743
13	0x3d174419	0.036930177
14	0xbd1159da	-0.03548608
15	0x3d34b6f2	0.044119783
16	0x3b8fc86a	0.004387905
17	0xbcc256b4	-0.023722984
18	0xbd7c8b54	-0.06165631
19	0xbd4fb74c	-0.050711915
20	0xbd2531dd	-0.040330756
21	0xbd0d9af1	-0.03457159
22	0x3b61ddb2	0.0034464416
23	0x3b41b0f1	0.0029554928
24	0x3d6e132a	0.058123745
25	0xbb4d455e	-0.0031321864
26	0xbc2ad257	-0.0104261255
27	0xbc82df99	-0.01597576
28	0xbc6365df	-0.013879268
29	0x3ccea489	0.02522494
30	0x3c33ffec	0.0109863095
31	0x3cda92dc	0.026681356
32	0xbc0a32f7	-0.0084350025
33	0xbd477152	-0.048692055
34	0x3c65973e	0.01401311
35	0xbcf48d8a	-0.029852647
36	0xbbb71dca	-0.005588268
37	0x3ce7ddbd	0.028303975
38	0x3d8a4a12	0.06752409
39	0x3c8a2850	0.016864926
40	0xbc8a26e1	-0.016864242
41	0xbca6c4cc	-0.020357512
42	0xbb65a438	-0.003504051
43	0xbd1dcf35	-0.038527686
44	0xbcd74d0c	-0.026281856
45	0x3d74d2c7	0.059771325
46	0xbb5fd8aa	-0.0034156241
47	0xba029b5c	-0.0004982257
48	0x3aacdd2e	0.0013188475
49	0xbcc0b630	-0.023524374
50	0x3c86a342	0.01643527
51	0xbd3c9f0f	-0.046050128
52	0xbcfb8d42	-0.030707005
53	0x3cf46dd8	0.029837534
54	0xbbc92a46	-0.0061390726
55	0xbd2f9d1e	-0.042874448
56	0xbc559435	-0.013035824
57	0x3cfa4e40	0.03055489
58	0x3c350984	0.011049632
59	0xbb9ef881	-0.0048514013
60	0xbbcf96e1	-0.006335125
61	0xbb65f660	-0.0035089478
62	0x3bd29c08	0.006427292
63	0xbb89f750	-0.00421039
64	0xbcdccec1	-0.026954057
65	0xbd192fdd	-0.03739916
66	0xbb08578e	-0.002080414
67	0xbd9730cb	-0.073823534
68	0xbb80f279	-0.003935155
69	0xbbc63b41	-0.006049544
70	0xbd8ef10d	-0.069795705
71	0x3d12d3ac	0.035846397
72	0x3d96c62e	0.073620185
73	0x3b25ae7f	0.002528101
74	0xbd79e070	-0.061005056
75	0xbc9fa091	-0.019485744
76	0xb9bd91ed	-0.00036157612
77	0xbc8714ab	-0.016489347
78	0xbc1d3b3b	-0.009596641
79	0xbc5c0b7b	-0.0134304715
80	0xbd29d483	-0.041462433
81	0x3d168669	0.036749277
82	0xbc826252	-0.015916023
83	0xbc81d856	-0.015850227
84	0xbd842f72	-0.06454362
85	0xbd2a978f	-0.041648444
86	0x3dbeec5e	0.09322427
87	0xbb962f3b	-0.004583267
88	0xbc45c959	-0.012071931
89	0x3d8bccf9	0.06826205
90	0x3cf18e4b	0.029486796
91	0x3ccc9b17	0.024976296
92	0xbd3a99c3	-0.045556795
93	0xbb781ad7	-0.0037857795
94	0xbc0f3aa5	-0.008742009
95	0xbd9d7a97	-0.07689398
96	0xbc8f6f19	-0.01750903
97	0x3c993a5b	0.018704584
98	0xbc5c68b3	-0.013452697
99	0xbbbf4ab4	-0.0058377627
100	0xbb9528f3	-0.0045520007
101	0x3d2f667c	0.042822346
102	0xbc69ccf4	-0.014270056
103	0xbb706a55	-0.0036684473
104	0x3b9bb2a2	0.0047515193
105	0x3c7f8716	0.015596172
106	0xbd2cdc04	-0.04220201
107	0xbd4d8065	-0.050171275
108	0x3d48ed64	0.04905452
109	0xbc8c5512	-0.017130408
110	0x3cbcefec	0.023063622
111	0x3baaa04e	0.005207098
112	0xba062c7f	-0.0005118325
113	0x3d2fba60	0.04290235
114	0x3c37a4b1	0.011208699
115	0x3a08583c	0.0005201136
116	0x3c50d15e	0.0127452295
117	0xbd3ac88d	-0.045601416
118	0x3b87db6e	0.004146031
119	0xbcec127b	-0.028817406
120	0x3c69832e	0.014252467
121	0xbc745df5	-0.014914979
122	0xbcf97e3f	-0.030455707
123	0xbd78d928	-0.06075397
124	0x3b1973a8	0.0023414884
125	0xbd200391	-0.0390659
126	0xbd92049c	-0.071297854
127	0xbd3d4933	-0.046212386
128	0x3cfa9018	0.030586287
129	0x3e0ff33a	0.14057627
130	0xbe6686f5	-0.2251242
131	0xbd2af713	-0.041739535
132	0x3da53860	0.08067393
133	0xbdd9d199	-0.10635681
134	0x3d74fc37	0.059810843
135	0x3dde889a	0.108658984
136	0xbae83368	-0.0017715516
137	0x3d77b006	0.060470603
138	0x3c39b1c9	0.011333891
139	0xbd513531	-0.051076118
140	0x3c4fae66	0.012675857
141	0xbd31886f	-0.043343004
142	0x3e19f1ee	0.15033695
143	0x3ddef1b0	0.10885942
144	0xbd467212	-0.04844863
145	0x3d2a75e5	0.04161634
146	0xbdff593f	-0.12468194
147	0x3daed352	0.085364
148	0x3d82387f	0.06358432
149	0xbe0b72b5	-0.13617976
150	0xbc5cc4fc	-0.013474699
151	0x3e6a9e28	0.22911894
152	0x3da7c4f7	0.08191865
153	0xbd0aa2d9	-0.03384671
154	0xbd12031f	-0.035647508
155	0xbbccbfc5	-0.0062484466
156	0xbe10fffc	-0.1416015
157	0xbd96f530	-0.073709846
158	0x3c6ee7a3	0.014581594
159	0xbd9b4117	-0.07580774
160	0xbd0aa60c	-0.03384976
161	0x3e49e5d3	0.19716577
162	0x3c85bddf	0.01632589
163	0x3df88ec1	0.12136603
164	0x39c6c79a	0.00037914218
165	0x3c667576	0.014066091
166	0xbccd2dcf	-0.025046257
167	0xbe1c781b	-0.15280192
168	0x3c8e60ab	0.01738008
169	0xbe4b824b	-0.19873922
170	0x3cb498f3	0.022045588
171	0xbdadaf30	-0.0848068
172	0x3c6fe37d	0.01464164
173	0x3d4af09d	0.049545873
174	0x3df2f4d7	0.11863106
175	0xbb2ee22b	-0.00266851
176	0xbce0c125	-0.027435848
177	0xbd39bbea	-0.045345224
178	0x3d5db768	0.054129988
179	0x3cf0af93	0.029380595
180	0x3d1c6bb4	0.03818865
181	0xbb0e4178	-0.0021706503
182	0xbdfcb355	-0.12338892
183	0x3dfe3d1a	0.12413998
184	0xbdac1a6b	-0.08403476
185	0xbe2ae4bf	-0.16688822
186	0xbdfd7264	-0.12375334
187	0xbca5062d	-0.020144546
188	0x3d953986	0.07286362
189	0x3c14b5a8	0.009076513
190	0x3dcb1b14	0.09917274
191	0x3c1e1d62	0.00965056
192	0x3e053c3d	0.1301126
193	0x3da4430a	0.08020599
194	0x3d5b9ad5	0.053614456
195	0xbdfe15e1	-0.12406517
196	0xbcb4e9af	-0.022084085
197	0x3aaaa3ab	0.0013018748
198	0xbce2ecf6	-0.027700882
199	0x3e330e0f	0.17485832
200	0xbdec7b1f	-0.11546921
201	0x3e186a64	0.14884335
202	0xbb7c1c94	-0.0038469182
203	0xbda7cd89	-0.081934996
204	0x3bea48b0	0.0071497783
205	0x3d5b2df3	0.053510617
206	0x3e0172fd	0.12641521
207	0xbdbc04be	-0.09180592
208	0x3e3d7ff2	0.18505839
209	0x3e044126	0.12915477
210	0xbdec8407	-0.1154862
211	0x3d9055ff	0.070476525
212	0x3debd96e	0.11516081
213	0xbdebd302	-0.11514856
214	0xbe25d6bd	-0.16195197
215	0x3d3d53cf	0.046222504
216	0xbcbbedd3	-0.022940552
217	0xbc8b5fa9	-0.017013388
218	0xbd224e95	-0.039625723
219	0x3e081db1	0.13292576
220	0x3cafcd85	0.021460304
221	0x3d5b4137	0.05352899
222	0x3e4726aa	0.19448343
223	0x3e0c1b52	0.13682297
224	0x3da69656	0.08134143
225	0x3c8afd9d	0.016966635
226	0x3e76b13d	0.24091049
227	0xbe347c0e	-0.17625448
228	0xbd5e8ea7	-0.054335263
229	0xbd341be8	-0.043971926
230	0x3d335f47	0.043792035
231	0x3c2a7701	0.010404349
232	0xbd35b326	-0.044360302
233	0xbd97bf3c	-0.07409522
234	0xbdb22316	-0.08698098
235	0x3dea0c7b	0.11428162
236	0x3d5269a4	0.051370278
237	0x3de4e9a0	0.11177373
238	0xbe0dbbaa	-0.1384112
239	0x3d6e3da1	0.058164243
240	0xbdc514ea	-0.0962313
241	0xbe034ecd	-0.12823029
242	0x3df8dd48	0.12151581
243	0xbb20b3cc	-0.002452123
244	0xbcbc6e11	-0.023001703
245	0xbd26457b	-0.040593605
246	0x3d591d71	0.053006593
247	0x3c35c2bf	0.011093794
248	0x3d1cc6b9	0.038275454
249	0x3e1e82cf	0.15479587
250	0x3e0a33d5	0.13496335
251	0x3d1e548c	0.03865485
252	0xbd2b5bad	-0.041835476
253	0x3d8b12e5	0.06790713
254	0x3d9cbb70	0.07652938
255	0x3a4b32d7	0.0007751411
