models/qcnn_lstm_real_c0.5/sublstm_qonnx.onnx (onnx, 405590 bytes, 12 tensors)

W_f f4 [64, 128]
0.007638951 0.04169354 0.10747505 0.08364694 0.07039005 0.032962814 0.02570753 0.043130845
-0.008900929 0.0285582 -0.024664965 0.1060032 -0.05906886 0.047871873 -0.09661444 -0.019490635
0.10276722 0.079747014 0.0772987 -0.0124310525 0.05801855 -0.06048346 0.049305413 -0.101863846
-0.022791957 0.018335802 0.022948794 0.02887114 -0.13987702 0.046563018 0.19632219 -0.07199288
0.13789421 0.006926299 -0.029288756 -0.06463823 0.004708118 -0.02542006 -0.051175453 -0.115340404
-0.014493648 0.11437722 0.00736901 -0.0049636685 0.014698776 -0.021148697 0.014371019 0.006410807
0.0023121908 0.011025627 0.07900561 0.009930423 0.0736789 0.016878527 0.01590156 -0.04296037
0.027437838 -0.054161936 -0.002268494 -0.027904144 0.09671976 0.02618972 -0.0650357 -0.01579241
-0.08482054 0.008532222 0.0017595284 -0.009236526 -0.0013352109 -0.012817415 0.106970005 -0.09286195
0.08547553 -0.07606883 -0.00083951757 0.027664656 -0.009482501 0.03958727 0.058305934 0.100832954
0.10212338 -0.042791434 -0.0055123726 0.07423987 0.059210762 0.109171115 0.022121914 -0.040940396
-0.009073294 0.07050889 -0.0052085295 0.08603414 0.03789746 -0.029230181 -0.080260456 -0.07131848
-0.00052928453 0.00648435 -0.032788217 -0.00021471642 0.027037583 -0.016797505 0.0057607996 0.008606413
0.042324234 0.016182657 0.04183415 -0.01071626 -0.002047507 0.003559852 -0.028530635 0.0014874531
0.075414434 0.038924042 -0.002147143 0.0015543384 -0.0018443795 -0.0033054436 -0.017221993 -0.056048654
-0.008662709 0.06348774 0.0060916822 -0.041662652 0.004936696 0.073868304 0.11425144 0.05463128
-0.0024960479 0.020482073 0.2998214 0.017986415 0.1301521 0.02572411 0.012328698 0.062418513
0.002760968 0.016096195 -0.019281354 0.021964852 -0.04386895 0.06476467 0.01322957 0.056098796
0.13158353 0.011859511 0.08862908 0.02747729 0.041494403 -0.002054887 0.009926722 0.07796262
0.110436775 0.0030099659 -0.005381366 -0.008969973 -0.19125746 0.009093955 0.16984195 0.029912053
0.14762582 0.015228599 -0.017816406 -0.0019486963 -0.006028664 -0.01738276 0.065161854 -0.1163268
-0.07486387 0.08578764 0.023845145 0.03171345 0.048597347 -0.006453259 -0.014884589 0.0013428947
0.0006216916 0.026784964 0.0010869644 0.15036203 0.07315514 0.07964248 0.022948842 -0.06758911
0.061647847 0.0064569092 0.008633239 -0.008915685 0.06557705 0.020777281 -0.027407646 -0.0120610325
-0.033141173 -0.012245083 0.0057028104 -0.011863792 -0.0006142363 -0.018438874 0.062950216 -0.034975596
0.06459491 0.018591417 0.1162464 0.029667078 -0.008403208 0.012597121 -0.03514642 0.019268246
0.0047979336 0.0141961025 -0.1138595 0.027193425 0.07976868 0.081874624 -0.18852869 -0.0131914625
0.004963219 -0.0012833333 0.009769444 0.061703302 0.020593697 -0.05873961 -0.08134915 -0.0075601973
0.0014391873 0.002991882 -0.036646497 0.13331537 -0.0012075361 0.042211212 -0.017749503 0.0023696201
0.023990575 0.03385666 0.012020869 0.0055108625 -0.21596041 -0.025687577 0.05913024 -0.0334874
-0.005091764 0.033574153 -0.020069048 -0.0073225494 0.0043533253 0.061174136 -0.023654014 -0.10405753
-0.002135262 0.016907854 0.009529481 0.012682242 0.0054045077 0.018664217 -0.050848607 -0.09511148
00000000: 2a50 fa3b d8c6 2a3d e11b dc3d 164f ab3d
00000010: a928 903d 0404 073d 9998 d23c f8a9 303d
00000020: 34d5 11bc e3f2 e93c 2e0e cabc 3518 d93d
00000030: 30f2 71bd 4c15 443d cbdd c5bd d3aa 9fbc
00000040: 9f77 d23d 6752 a33d c84e 9e3d 9dab 4bbc
00000050: dca4 6d3d 81bd 77bd 79f4 493d fe9d d0bd
00000060: 33b6 babc f734 963c 1cff bb3c 2b83 ec3c
00000070: ec3b 0fbe ddb8 3e3d af08 493e 0171 93bd
00000080: 2434 0d3e 02f6 e23b f9ee efbc 0c61 84bd
00000090: 8e46 9a3b bb3d d0bc 5a9d 51bd 9737 ecbd
000000a0: c476 6dbc 9b3e ea3d bc77 f13b 45a6 a2bb
000000b0: 23d3 703c 0840 adbc 6c74 6b3c bf11 d23b
000000c0: 2088 173b d5a4 343c b1cd a13d 37b3 223c
000000d0: f7e4 963d d644 8a3c fd43 823c 37f7 2fbd
000000e0: 51c5 e03c e8d8 5dbd 04ab 14bb 3b97 e4bc
000000f0: 0215 c63d d38b d63c 7031 85bd 165f 81bc
00000100: 64b6 adbd bcca 0b3c fa9f e63a cc54 17bc
00000110: 3e02 afba 2300 52bc 1713 db3d 682e bebd
00000120: cb0d af3d fac9 9bbd 1213 5cba fda0 e23c
00000130: 7e5c 1bbc 4326 223d 34d2 6e3d 8281 ce3d
00000140: 1026 d13d 1246 2fbd 22a1 b4bb 130b 983d
00000150: fc86 723d 1b95 df3d 0439 b53c 1eb1 27bd
00000160: 27a8 14bc f766 903d 50ac aabb ab32 b03d
00000170: 5e3a 1b3d 2274 efbc 985f a4bd 6c0f 92bd
00000180: afbf 0aba ac7a d43b f04c 06bd 8025 61b9
00000190: ec7d dd3c ec9a 89bc 17c5 bc3b ea01 0d3c
000001a0: 2d5c 2d3d 7e91 843c 495a 2b3d 4193 2fbc
000001b0: 782f 06bb 684c 693b 14b9 e9bc a5f6 c23a
000001c0: e272 9a3d d16e 1f3d 15b7 0cbb f1ba cb3a
000001d0: 1bbf f1ba 24a0 58bb 2315 8dbc 4693 65bd
000001e0: 09ee 0dbc dc05 823d bc9c c73b 75a6 2abd
000001f0: 02c4 a13b 4448 973d a9fc e93d 0dc5 5f3d
00000200: bc94 23bb 05ca a73c 3182 993e 3f58 933c
00000210: 9846 053e 5ebb d23c 4ffe 493c 8eaa 7f3d
00000220: 5bf1 343b 2bdc 833c eef3 9dbc a2ef b33c
00000230: eeaf 33bd 57a3 843d d7c0 583c dac7 653d
00000240: d5bd 063e 654e 423c 2a83 b53d 0e18 e13c
00000250: 09f6 293d 48ab 06bb b1a3 223c deaa 9f3d
00000260: ad2c e23d d942 453b 2b56 b0bb cbf6 12bc
00000270: ffd8 43be d0fe 143c 0ceb 2d3e 1f0a f53c
00000280: 392b 173e 6081 793c b6f3 91bc 666b ffba
00000290: 198c c5bb 4a66 8ebc 9473 853d bf3c eebd
000002a0: 3b52 99bd 6eb1 af3d e556 c33c f6e5 013d
000002b0: 030e 473d dc75 d3bb 7ede 73bc 1204 b03a
000002c0: 04f9 223a 246c db3c 7978 8e3a 81f8 193e
000002d0: 5dd2 953d 991b a33d 36ff bb3c 296c 8abd
000002e0: 7482 7c3d 7b94 d33b 6e72 0d3c 1813 12bc
000002f0: 434d 863d 1e35 aa3c 0086 e0bc a39b 45bc
00000300: 0abf 07bd 9a9f 48bc a4de ba3b 5a60 42bc
00000310: b304 21ba 1f0d 97bc 0bec 803d 9242 0fbd
00000320: 564a 843d 074d 983c 9812 ee3d 5f08 f33c
00000330: 9cad 09bc 2864 4e3c b1f5 0fbd 71d8 9d3c
00000340: fc37 9d3b c596 683c 2b2f e9bd bfc4 de3c
00000350: c35d a33d e2ad a73d aa0d 41be 0121 58bc
00000360: 80a2 a23b 8535 a8ba 0510 203c 9abc 7c3d
00000370: 1db4 a83c f298 70bd 629a a6bd 88bb f7bb
00000380: 1da3 bc3a 7313 443b a31a 16bd d383 083e
00000390: 3046 9eba aae5 2c3d 6867 91bc a14b 1b3b
000003a0: e287 c43c 48ad 0a3d 2ef3 443c 7794 b43b
000003b0: ba24 5dbe c16e d2bc 8d32 723d 152a 09bd
000003c0: d0d8 a6bb 0d85 093d d867 a4bc fff1 efbb
000003d0: 57a6 8e3b bb91 7a3d 10c6 c1bc 1d1c d5bd
000003e0: c0ef 0bbb 5782 8a3c 8a21 1c3c 2ec9 4f3c
000003f0: 4c18 b13b b3e5 983c a146 50bd cfc9 c2bd

W_i f4 [64, 128]
0.017250845 -0.026834259 -0.048455976 0.03773541 -0.048224363 0.014579859 0.005284244 0.011772898
-0.0030745077 0.014957256 0.08316738 0.0025362025 0.00020274216 0.00866206 0.029082809 -0.18185563
-0.11584312 -0.04103317 -0.07206694 0.056430414 0.020237248 0.0024596138 0.025818897 -0.020407721
0.0125602735 0.027875964 0.03551486 0.016942382 -0.07455456 0.026561841 -0.13458072 -0.004649171
-0.13360094 0.031902913 -0.039009105 0.031485807 -0.02572478 -0.029700445 -0.039643988 -0.13829935
0.07786628 -0.13340871 0.01894185 -0.026101997 0.011394561 -0.03601954 -0.016938504 0.0079231
0.0023405864 -0.013993841 0.05443895 -0.024824558 0.010972106 -0.03916817 -0.06515611 -0.07041275
-0.07843107 -0.020297613 0.082840495 -0.027605353 0.03116634 0.024888769 0.013643763 -0.032898538
-0.04036229 0.009782591 0.0097160535 -0.063113235 -0.007403761 2.978261e-05 -0.0015962807 0.12194491
0.02072992 -0.05098542 -0.0061590644 0.0026280365 0.0144134415 0.038487926 -0.040371317 -0.0224486
-0.004019658 0.0449745 0.085405625 -0.0056559895 0.07810457 -0.09355328 0.037207272 -0.02199667
-0.015999125 0.02575873 0.030108253 -0.0938339 -0.023302404 0.040039465 -0.038696453 0.098409675
-0.02777734 0.014221741 -0.06459071 -0.16489045 -0.0012357903 -0.074556485 0.055374768 0.004614389
-0.06447025 0.028980361 -0.021509062 -0.048270345 0.014128467 0.019536093 -0.03759273 -0.0007347379
-0.0023787532 0.006442495 -0.0020068553 0.0005092771 -0.0015360147 -0.053199902 -0.013116375 0.020991364
-0.01220211 -0.022544919 -0.002391232 -0.022125237 0.016771765 0.028287414 -0.10896578 -0.03576144
0.010661967 -0.016264956 0.10083886 -0.08058685 -0.121339835 0.038464338 0.050456244 0.026512668
0.011762087 0.0027331703 -0.0012908529 0.05541611 -0.026445085 0.13045466 -0.10511692 -0.053725507
-0.03016095 0.14800836 0.070612505 -0.013639985 -0.001062942 0.00025124376 -0.025165662 0.032696206
-0.15041539 0.019170538 0.016044369 -0.0029560574 -0.060424473 0.0026199804 0.023735143 -0.026248775
-0.05747917 -0.010080032 -0.0665269 0.0402802 -0.021767696 -0.033253837 0.14209892 -0.10326372
-0.052733965 0.095561326 0.04616662 0.047208056 -0.017967831 -0.05236251 -0.013121655 0.0025812634
0.002409657 -0.016993888 0.015185511 -0.007839784 0.061570242 0.03892648 -0.047977157 -0.06816087
-0.014632452 -0.034700822 0.03397943 0.016310103 -0.04807914 0.032431204 -0.023711555 -0.018998114
-0.013348134 0.10898727 0.009557547 -0.044366457 0.00055534416 -0.008508438 0.1495866 -0.077350006
0.063879006 0.01863106 -0.024005467 0.0031283193 -0.024752839 0.015455692 -0.19017188 0.07947916
0.070742495 0.018520014 -0.20931254 0.049999762 -0.09459514 -0.15279388 -0.07010147 0.0011566513
-0.0016911555 -0.014734696 0.014490582 -0.04441281 0.016784247 -0.04355462 0.002314285 0.11650532
-0.03623694 0.021418765 -0.03294414 -0.11145971 -0.012887197 -0.046491258 0.010797464 0.00267748
0.10285152 0.015516989 -0.05294286 0.03355564 0.14623956 -0.023367556 -0.0055657728 -0.061012052
-0.013872932 -0.03131873 -0.03751959 -0.0077682096 -0.00564829 -0.11277923 -0.003709676 0.0023788498
-0.011124774 0.079721235 -0.02142993 -0.0014986477 0.017654475 -0.038900305 0.103049204 0.016523425
00000000: a551 8d3c 85d3 dbbc c679 46bd 7290 1a3d
00000010: e986 45bd 5ce0 6e3c 7427 ad3b 1de3 403c
00000020: ae7d 49bb 470f 753c a953 aa3d 6b36 263b
00000030: 2f97 5439 50eb 0d3c 123f ee3c 5d38 3abe
00000040: 283f edbd 6612 28bd d597 93bd 9423 673d
00000050: 96c8 a53c 7931 213b 2782 d33c 182e a7bc
00000060: 9bc9 4d3c 225c e43c 0878 113d c0ca 8a3c
00000070: 10b0 98bd 3898 d93c 87cf 09be 1358 98bb
00000080: afce 08be a1ac 023d 03c8 1fbd 43f7 003d
00000090: c6bc d2bc 594e f3bc bc61 22bd 589e 0dbe
000000a0: 5b78 9f3d 4b9c 08be f02b 9b3c dbd3 d5bc
000000b0: 41b0 3a3c 3a89 13bd 9ec2 8abc e4cf 013c
000000c0: 8664 193b 6c46 65bc 60fb 5e3d df5c cbbc
000000d0: 59c4 333c ce6e 20bd 9170 85bd 8f34 90bd
000000e0: 78a0 a0bd 2e47 a6bc 47a8 a93d 9f24 e2bc
000000f0: 8d50 ff3c 88e3 cb3c 178a 5f3c 9ec0 06bd
00000100: ee52 25bd 2947 203c 1530 1f3c 8341 81bd
00000110: 409b f2bb abd5 f937 4b3a d1ba 41be f93d
00000120: cbd1 a93c 16d6 50bd fad1 c9bb 233b 2c3b
00000130: 5b26 6c3c 84a5 1d3d 655c 25bd 20e6 b7bc
00000140: 56b7 83bb 2e37 383d 25e9 ae3d e155 b9bb
00000150: 4af5 9f3d dd98 bfbd a766 183d 5c32 b4bc
00000160: 9910 83bc f903 d33c 95a5 f63c fd2b c0bd
00000170: afe4 bebc 6c00 243d 2c80 1ebd 038b c93d
00000180: 4e8d e3bc 4e02 693c 2248 84bd 0bd9 28be
00000190: 3efa a1ba 12b1 98bd a7d0 623d 4d34 973b
000001a0: fa08 84bd 3968 ed3c c633 b0bc 20b7 45bd
000001b0: 167b 673c 280a a03c d6fa 19bd 6d9b 40ba
000001c0: dbe4 1bbb 911b d33b 7285 03bb 0281 053a
000001d0: 1a54 c9ba 24e8 59bd 10e6 56bc 15f6 ab3c
000001e0: 5ceb 47bc 1fb0 b8bc 37b6 1cbb fc3f b5bc
000001f0: f164 893c 02bb e73c 7329 dfbd 967a 12bd
00000200: 88af 2e3c 163e 85bc 9b84 ce3d b80a a5bd
00000210: 0581 f8bd c88c 1d3d 35ab 4e3d 1831 d93c
00000220: c5b5 403c fd1e 333b d631 a9ba 01fc 623d
00000230: 5da3 d8bc e895 053e 8a47 d7bd 470f 5cbd
00000240: 1914 f7bc 818f 173e 4a9d 903d 3e7a 5fbc
00000250: 6a52 8bba 5eb9 8339 3828 cebc 75ec 053d
00000260: 7e06 1abe 880b 9d3c 7b6f 833c 6aba 41bb
00000270: a77f 77bd fab3 2b3b 3470 c23c ac07 d7bc
00000280: 476f 6bbd b826 25bc 413f 88bd dafc 243d
00000290: 2b52 b2bc 2d35 08bd 6182 113e ee7b d3bd
000002a0: 92ff 57bd a8b5 c33d 3619 3d3d 3c5d 413d
000002b0: 4631 93bc 127a 56bd 36fc 56bc 6a2a 293b
000002c0: 56eb 1d3b c436 8bbc a6cc 783c 7072 00bc
000002d0: 1431 7c3d 5f71 1f3d b283 44bd ed97 8bbd
000002e0: f4bc 6fbc 7322 0ebd 042e 0b3d c49c 853c
000002f0: a2ee 44bd 95d6 043d bc3e c2bc efa1 9bbc
00000300: 22b2 5abc b834 df3d 4297 1c3c 9ab9 35bd
00000310: 8494 113a fa66 0bbc 3b2d 193e ae69 9ebd
00000320: ffd2 823d 2aa0 983c 1da7 c4bc 7d04 4d3b
00000330: 77c6 cabc df39 7d3c 6bbc 42be f8c5 a23d
00000340: 71e1 903d 49b7 973c 0756 56be 8dcc 4c3d
00000350: 19bb c1bd 0076 1cbe 5c91 8fbd c79a 973a
00000360: c3a9 ddba cb69 71bc e869 6d3c 35ea 35bd
00000370: 1e7f 893c 5466 32bd 42ab 173b 579a ee3d
00000380: 306d 14bd 6876 af3c 6ff0 06bd fd44 e4bd
00000390: d224 53bc 9e6d 3ebd d9e7 303c a978 2f3b
000003a0: d1a3 d23d f83a 7e3c 9dda 58bd a471 093d
000003b0: d3bf 153e 516d bfbc 1661 b6bb c6e7 79bd
000003c0: 4b4b 63bc 1248 00bd 24ae 19bd 778c febb
000003d0: 4a15 b9bb ccf8 e6bd 091e 73bb 7ae6 1b3b
000003e0: af44 36bc e344 a33d d28d afbc 466e c4ba
000003f0: 1ea0 903c ed55 1fbd 760b d33d 225c 873c

W_c f4 [64, 128]
-0.026463656 0.016170282 -0.0298701 -0.010699874 -0.015114775 0.027281351 -0.027901368 -0.020032061
-0.040829916 -0.051197838 -0.0037485957 0.015246002 0.07079598 0.020662252 -0.036638245 -0.117538825
0.13239123 0.09516642 0.08871809 -0.07634322 0.044219453 0.13822994 -0.08336694 -0.035111334
0.07606992 0.057966944 0.0671218 -0.00406105 0.09058486 -0.003019326 0.045113098 -0.030501816
-0.08690137 -0.053906925 0.067845374 0.056081038 0.06732784 -0.05632489 -0.09970912 0.11766518
0.00017186604 0.30910257 0.08054319 -0.025578028 -0.11637344 -0.11910248 0.0129408585 0.044934854
-0.022048919 -0.07611767 0.031632297 0.06960652 -0.07018848 0.0020321445 -0.102754325 0.001119612
0.15577953 0.045151565 0.08506761 0.028252251 -0.005474568 0.03309553 0.048802573 0.09977506
-0.060126867 0.00240652 -0.016924337 0.008237753 -0.011466723 -0.0047348854 0.0034647223 -0.1416365
-0.09112711 0.017186852 0.001465257 0.03645501 0.03912918 0.0017695001 -0.08394074 -0.035771225
-0.008977568 0.14378926 -0.019779496 -0.03180264 0.026044933 0.052561827 -0.016450875 -0.1194316
0.04815885 -0.027250066 -0.0686257 -0.13968956 -0.007426112 0.04334437 0.04598648 -0.017548548
-0.02530291 -0.010435004 -0.16449465 0.044412255 0.038769294 -0.027086027 -0.015875813 -0.020535441
-0.12708439 -0.039231986 -0.07241574 -0.11613681 0.056900967 -0.012819225 0.10193512 -0.0693391
0.02378569 0.015933307 -0.05208955 -0.005702219 0.04312715 -0.042228606 -0.11351297 0.05549709
-0.005251177 -0.09118251 0.058029678 0.044288628 0.012027823 -0.026822507 0.055948313 0.07889896
0.013084538 -0.05195579 0.06247629 0.12591034 -0.12300817 0.033346366 0.0153736845 -0.072804965
0.025121367 -0.044261973 -0.01440496 0.00805074 0.27943382 0.0265665 0.29316258 -0.17455947
0.031019691 -0.0043274905 0.023914326 0.07171058 0.028381681 -0.15959714 0.07625886 0.19277443
-0.11250128 -0.08481101 -0.04869258 -0.0075896904 0.32011038 0.0054894374 -0.05638336 0.19435048
0.115860514 0.020723308 -0.15654665 -0.019383147 0.023189718 -0.017083742 0.104720026 0.14983565
0.064824566 -0.1279945 -0.096828625 -0.0109773325 0.16576785 0.006851156 -0.048487317 0.010399648
0.015646026 0.038564924 -0.06429129 0.031831168 0.08043244 -0.008845387 0.043327563 -0.15042183
0.045430966 -0.10006431 0.043656673 0.18903713 0.015726052 -0.01244764 0.16983686 0.026464218
0.19160919 0.052670978 -0.027612584 0.012019743 -0.00044106587 -0.065352686 -0.012634131 -0.09090418
0.073176116 -0.03832561 0.041917056 -0.023845453 -0.0990262 -0.028426921 0.10307128 0.07176934
-0.10042504 -0.0048567033 -0.15381168 -0.06245675 0.01952435 0.04450861 -0.14323796 0.17252386
0.01268732 0.06949062 -0.10071615 0.06736429 0.044103578 -0.10779528 -0.21341547 0.08413556
0.03747508 0.02791602 0.27000383 0.0032830643 0.0021231845 0.008983673 -0.11072697 0.017612154
0.063359 -0.0057354993 0.021095153 0.033736594 -0.04377785 -0.03630379 -0.00474039 -0.09415978
0.072752185 0.13673382 -0.04577703 0.004675802 -0.04759014 0.09326994 0.054892458 -0.076069094
-0.022659589 -0.11065615 -0.037362188 -0.009548849 0.0026308093 0.11842789 -0.13319306 -0.08621664
00000000: 4fca d8bc 8a77 843c 24b2 f4bc 864e 2fbc
00000010: f6a3 77bc 247d df3c 6991 e4bc 471a a4bc
00000020: 453d 27bd d3b4 51bd 00ab 75bb 5eca 793c
00000030: 7cfd 903d e243 a93c fc11 16bd 32b8 f0bd
00000040: 9191 073e 9de6 c23d d4b1 b53d d659 9cbd
00000050: 751f 353d 268c 0d3e 49bc aabd e7d0 0fbd
00000060: 8cca 9b3d bf6e 6d3d 2777 893d 8e12 85bb
00000070: 8e84 b93d e2df 45bb 83c8 383d f2de f9bc
00000080: 58f9 b1bd 82cd 5cbd 84f2 8a3d 3bb5 653d
00000090: 2ee3 893d eeb4 66bd 4c34 ccbd 71fa f03d
000000a0: f036 3439 b142 9e3e d4f3 a43d 0389 d1bc
000000b0: 3355 eebd 00ec f3bd e505 543c 9c0d 383d
000000c0: ef9f b4bc 95e3 9bbd de90 013d dd8d 8e3d
000000d0: fabe 8fbd ba2d 053b dc70 d2bd f2bf 923a
000000e0: ab84 1f3e d9f0 383d ed37 ae3d 4471 e73c
000000f0: 0164 b3bb 2e8f 073d 35e5 473d de56 cc3d
00000100: 9747 76bd b5b6 1d3b e8a4 8abc a4f7 063c
00000110: ecde 3bbc 1927 9bbb 6510 633b 2909 11be
00000120: daa0 babd 71cb 8c3c de0d c03a d951 153d
00000130: eb45 203d 92ee e73a 1fe9 abbd d984 12bd
00000140: a616 13bc 7e3d 133e 9c08 a2bc 7c43 02bd
00000150: 2f5c d53c 124b 573d fcc3 86bc 8e98 f4bd
00000160: 3742 453d 883b dfbc a28b 8cbd c80a 0fbe
00000170: be56 f3bb de89 313d 525c 3c3d f9c1 8fbc
00000180: 0c48 cfbc 94f7 2abc 4971 28be a0e9 353d
00000190: 8dcc 1e3d 84e3 ddbc fe0d 82bc f139 a8bc
000001a0: 6922 02be b8b1 20bd b44e 94bd 23d9 edbd
000001b0: fd10 693d ba07 52bc 5cc3 d03d a801 8ebd
000001c0: 35da c23c 9186 823c da5b 55bd aed9 babb
000001d0: 18a6 303d e7f7 2cbd 7d79 e8bd eb50 633d
000001e0: 1112 acbb e5bd babd 87b0 6d3d fe67 353d
000001f0: 5910 453c e0ba dbbc 0f2a 653d c795 a13d
00000200: 8860 563c 98cf 54bd 23e7 7f3d a4ee 003e
00000210: b5eb fbbd 3396 083d e8e1 7b3c c51a 95bd
00000220: 53cb cd3c 0b4c 35bd c802 6cbc 40e7 033c
00000230: f311 8f3e fda1 d93c 6819 963e b8bf 32be
00000240: 021d fe3c 9fcd 8dbb fae7 c33c ffdc 923d
00000250: b380 e83c 6f6d 23be 9b2d 9c3d a966 453e
00000260: 1267 e6bd 65b1 adbd df71 47bd f0b2 f8bb
00000270: 82e5 a33e bde0 b33b 3df2 66bd d003 473e
00000280: 4748 ed3d edc3 a93c c44d 20be 68c9 9ebc
00000290: 5df8 bd3c 34f3 8bbc 7477 d63d 846e 193e
000002a0: bec2 843d fd10 03be 164e c6bd 45da 33bc
000002b0: 0cbf 293e a97f e03b a39a 46bd 4963 2a3c
000002c0: 182c 803c 41f6 1d3d 27ab 83bd 6661 023d
000002d0: c3b9 a43d 3eec 10bc 3e78 313d 2e08 1abe
000002e0: d215 3a3d 84ee ccbd 57d1 323d f392 413e
000002f0: ecd3 803c 30f1 4bbc b7e9 2d3e 7dcb d83c
00000300: 3335 443e 86bd 573d c933 e2bc 75ee 443c
00000310: dc3e e7b9 a1d7 85bd 63ff 4ebc f92b babd
00000320: 5cdd 953d 51fb 1cbd 38b1 2b3d 8a57 c3bc
00000330: 40ce cabd 93df e8bc 0917 d33d cefb 923d
00000340: a5ab cdbd fb24 9fbb cf80 1dbe a6d2 7fbd
00000350: 88f1 9f3c a94e 363d f9ac 12be 18aa 303e
00000360: 7ade 4f3c 1951 8e3d 4544 cebd 4af6 893d
00000370: f4a5 343d c6c3 dcbd 9689 5abe 444f ac3d
00000380: 787f 193d 23b0 e43c f13d 8a3e ae28 573b
00000390: 2025 0b3b 4130 133c d2c4 e2bd 5d47 903c
000003a0: 5dc2 813d dbf0 bbbb becf ac3c 622f 0a3d
000003b0: 6750 33bd 48b3 14bd 4655 9bbb d8d6 c0bd
000003c0: 19ff 943d f303 0c3e b280 3bbd 7837 993b
000003d0: e1ed 42bd 4f04 bf3d ead6 603d 1dca 9bbd
000003e0: 9aa0 b9bc b19f e2bd 1809 19bd c772 1cbc
000003f0: a869 2c3b 528a f23d c363 08be 5a92 b0bd

W_o f4 [64, 128]
0.0038837797 -0.037285686 0.062250286 0.03618164 0.046293277 -0.006376214 0.010107708 0.053090468
-0.004974105 0.024110693 0.063740864 0.04664563 -0.018992964 -0.040662657 0.025336364 -0.06479953
-0.008986857 0.041635115 0.10418452 -0.0013025535 -0.006946248 -0.01791979 0.025389496 -0.1437471
0.007908478 0.025647596 0.039632704 0.036326326 -0.07041588 0.07393557 -0.06327938 0.023034394
0.00925637 0.06814139 -0.054374706 0.016864834 -0.042837933 -0.0062412214 -0.024927009 -0.09988581
0.08784191 -0.016178627 0.016337203 -0.017480284 0.0030813077 -0.010392909 -0.031427722 0.007538145
0.0021928747 -0.020580044 -0.001450437 0.061083842 0.10990804 -0.034327302 -0.040042855 -0.030536396
-0.09312103 -0.0074251737 0.077298045 -0.0288222 0.011958937 0.026598752 0.0061638695 -0.046378244
-0.012188799 0.0894599 0.008079326 0.023437498 -0.004333607 -0.007581967 0.04676736 0.12801623
0.051044118 -0.070641406 0.053127754 0.013415607 0.012787379 0.048844535 0.012779625 0.09325833
0.014476227 -0.0520417 0.086909264 0.050014317 0.014818667 -0.01895776 0.0817506 -0.034314297
-0.019736374 0.07636308 -0.05699631 0.03576457 0.006723965 -0.017753938 -0.048386786 0.009094101
-0.03365677 0.008336039 -0.09306467 -0.06826364 0.007961817 -0.04111558 0.055137362 0.0028379222
0.0009416451 -0.06281047 0.0079699755 -0.093448095 0.025108276 0.0121634 -0.04519941 0.014565252
0.04531206 0.03837213 0.0053246995 -0.0030676054 -0.00093485427 0.005869864 -0.012388761 0.018262303
-0.026371242 0.039090715 0.0031403955 -0.047617458 0.012379319 0.050042633 0.016375497 0.11122431
-0.009032964 0.0043787765 0.15491122 -0.049752977 0.015051816 0.014437439 0.03489416 0.089475304
0.0050429422 0.014680905 -0.0062217037 0.057172813 -0.048956577 0.08052854 -0.056674886 0.02165545
0.03706753 0.033268787 0.03587931 -0.06105311 0.0046754503 -0.011072538 -0.027823573 0.058607377
0.023268119 0.019043453 0.006152442 -0.007851984 -0.018555203 -0.10365621 0.17117311 0.021954896
0.05292884 0.020256149 -0.054951478 0.044330012 -0.039476182 -0.033404652 0.045856703 -0.028411858
-0.067006685 0.10949179 0.043261398 0.036254756 -0.018065743 -0.017187843 -0.044768482 0.0017328874
0.002310613 0.008100653 -0.008517291 0.065399125 0.020922026 0.052978776 -0.04828368 -0.037198868
0.046211712 0.01218455 0.028825507 0.017246032 0.055510115 0.024328241 -0.025823828 -0.026395936
-0.09212953 -0.013022672 0.00960676 0.071232 -0.0048766094 -0.021036683 0.12297014 -0.14576301
0.15663834 -0.004213581 0.060895298 0.016116362 -0.023044495 0.016017074 -0.08578354 -0.03786201
-0.027848992 -0.07260704 -0.15839222 0.018680673 0.052648764 0.026842197 -0.11320756 0.00015826654
-0.009624111 -0.057487745 -0.012495525 -0.016100343 0.01466354 -0.08359459 -0.029301004 0.06945222
-0.00092132966 0.007436137 -0.07579706 0.14109115 -0.009022374 0.022173684 -0.0053430786 -0.00076797226
0.062495463 -0.0007251291 -0.03728041 0.034953725 0.02150642 -0.043229368 -0.03978518 -0.05566309
-0.037915308 -0.069726855 -0.04942685 -0.015872795 -0.0069975653 0.021815239 -0.010303687 -0.024755133
-0.014654585 0.04723871 -5.8715894e-05 -0.007068124 0.011900695 0.0094374865 0.027110605 -0.048107587
00000000: 0387 7e3b e0b8 18bd 28fa 7e3d 3333 143d
00000010: 059e 3d3d 8fef d0bb cd9a 253c 6475 593d
00000020: d1fd a2bb ca83 c53c 928a 823d 7d0f 3f3d
00000030: 2297 9bbc e38d 26bd 358e cf3c 9eb5 84bd
00000040: 9c3d 13bc 9589 2a3d b25e d53d 71ba aaba
00000050: 5a9d e3bb 86cc 92bc a2fd cf3c 7132 13be
00000060: 9092 013c e81a d23c e755 223d eaca 143d
00000070: 3336 90bd 886b 973d 9f98 81bd a0b2 bc3c
00000080: 08a8 173c b78d 8b3d 03b8 5ebd 1f28 8a3c
00000090: d476 2fbd 2983 ccbb ba33 ccbc ee90 ccbd
000000a0: 76e6 b33d 0a89 84bc 99d5 853c d032 8fbc
000000b0: c4ef 493b 0547 2abc 5bba 00bd 8b02 f73b
000000c0: 55b6 0f3b 7b97 a8bc 971c beba 0d33 7a3d
000000d0: 7717 e13d c99a 0cbd fa03 24bd 7727 fabc
000000e0: 3db6 bebd df4e f3bb 704e 9e3d 891c ecbc
000000f0: 6bef 433c a0e5 d93c 49fa c93b 1df7 3dbd
00000100: 87b3 47bc c136 b73d 265f 043c ffff bf3c
00000110: ee00 8ebb 2672 f8bb 228f 3f3d b016 033e
00000120: a313 513d 71ac 90bd 7d9c 593d 22cd 5b3c
00000130: 2882 513c 3511 483d a261 513c 39fe be3d
00000140: b22d 6d3c ad29 55bd 7cfd b13d d0db 4c3d
00000150: ffc9 723c 4e4d 9bbc dc6c a73d 268d 0cbd
00000160: 2dae a1bc 3f64 9c3d f674 69bd df7d 123d
00000170: b554 dc3b b570 91bc 3931 46bd 6dff 143c
00000180: aedb 09bd e293 083c b198 bebd cfcd 8bbd
00000190: 4872 023c cf68 28bd b7d7 613d 6ffc 393b
000001a0: bcd8 763a c7a2 80bd 8094 023c b761 bfbd
000001b0: dfaf cd3c ff48 473c 0423 39bd 18a3 6e3c
000001c0: 2399 393d 182c 1d3d d17a ae3b e109 49bb
000001d0: 0211 75ba fd57 c03b 3bfa 4abc d39a 953c
000001e0: 8108 d8bc 961d 203d 18cf 4d3b 860a 43bd
000001f0: a1d2 4a3c 81f9 4c3d e825 863c 92c9 e33d
00000200: fffe 13bc d77b 8f3b 0ca1 1e3e c7c9 4bbd
00000210: e49b 763c 028b 6c3c 2eed 0e3d d43e b73d
00000220: 443f a53b 2e88 703c 6fdf cbbb 0a2e 6a3d
00000230: b186 48bd 26ec a43d ed23 68bd c566 b13c
00000240: 1fd4 173d da44 083d 2ff6 123d d312 7abd
00000250: 8534 993b 9769 35bc 43ee e3bc 4a0e 703d
00000260: c89c be3c 0401 9c3c 6d9a c93b 9ca5 00bc
00000270: 1501 98bc b549 d4bd 0148 2f3e c1da b33c
00000280: e9cb 583d 39f0 a53c cd14 61bd 6393 353d
00000290: c7b1 21bd 51d3 08bd 3dd4 3b3d fcbf e8bc
000002a0: cd3a 89bd 3b3d e03d dd32 313d de7f 143d
000002b0: 9cfe 93bc 85cd 8cbc 285f 37bd 0d22 e33a
000002c0: a76d 173b 9ab8 043c 1c8c 0bbc faef 853d
000002d0: ab64 ab3c 4600 593d 1cc5 45bd d75d 18bd
000002e0: 7e48 3d3d b5a1 473c 7823 ec3c 8d47 8d3c
000002f0: 935e 633d 054c c73c 7e8c d3bc 4a3c d8bc
00000300: 68ae bcbd 0c5d 55bc ac65 1d3c 15e2 913d
00000310: f7cb 9fbb 1f55 acbc c5d7 fb3d e642 15be
00000320: cd65 203e 1412 8abb 596d 793d 7606 843c
00000330: cfc7 bcbc 3d36 833c 48af afbd 3215 1bbd
00000340: 9223 e4bc 00b3 94bd 9231 22be 3608 993c
00000350: 3ba6 573d 2be4 db3c 5dd9 e7bd 5af4 2539
00000360: 72ae 1dbc 4578 6bbd 08ba 4cbc dee4 83bc
00000370: 583f 703c a433 abbd a908 f0bc f73c 8e3d
00000380: 6385 71ba d7aa f33b 7d3b 9bbd 337a 103e
00000390: 94d2 13bc 96a5 b53c fe14 afbb bf51 49ba
000003a0: 3efb 7f3d 9716 3eba 58b3 18bd a32b 0f3d
000003b0: 3b2e b03c 4711 31bd c9f5 22bd fbfe 63bd
000003c0: 154d 1bbd f4cc 8ebd cf73 4abd aa07 82bc
000003d0: d54b e5bb dfb5 b23c ccd0 28bc 47cb cabc
000003e0: c919 70bc 617d 413d b645 76b8 b99b e7bb
000003f0: 22fb 423c b09f 1a3c 0f17 de3c 760c 45bd

U_f f4 [128, 128]
0.0011478041 0.0003732754 -0.006537418 -0.008265131 -0.011358937 0.007869063 -0.006641563 -0.0035846238
-0.00075637555 -0.0066921473 0.0005291921 -0.016317094 -0.0011729033 0.017050589 -0.024509253 0.010038437
0.018351005 -0.0069249365 0.010734441 -0.0014961534 -0.0050026486 0.011365358 -0.0030291835 -0.02246827
-0.0111341365 -0.008370571 -0.00981412 -0.00028156224 0.008680752 -0.0058170427 -0.0045575146 0.009734666
0.0018583237 0.006894949 0.0019137771 0.007751858 -0.001859019 0.0015865867 0.0021239514 0.027859006
-0.007475129 -0.032483075 -0.01013998 -0.005311359 0.0030544708 0.010985985 -0.009672974 -0.0016551893
-0.0007546844 0.0033318894 -0.0099399695 -0.0410453 -1.2792222e-05 0.013441418 0.031072386 0.005942013
0.014018043 0.0073803635 -0.004139537 0.0024102405 -0.0005695748 -0.0072780102 -0.0027703277 -0.005125868
-0.0063404837 0.008112344 -0.0012141869 -0.013334695 -0.002473567 0.00028767626 -0.007924272 0.0031628653
0.0053237695 0.010339592 -0.036782853 -0.019567449 -0.0010257119 -0.008307618 0.00015130878 -0.025498016
-0.014710449 -0.00311855 0.0018534767 0.0037858076 -0.0017369105 0.008646905 -0.015422051 -0.0014512915
0.0008562889 -0.003528084 -0.0043975413 0.011131636 0.0022509645 -0.026619608 0.0065629156 0.0018299071
-0.004820824 -0.006928269 0.010891919 0.0034502437 -0.009042321 -0.010390272 -0.012603032 -0.0018167844
0.0010106777 -0.010527623 0.0016375916 0.009418145 -0.008517925 0.0051790345 0.003380233 -0.005026344
-0.012992833 -0.0032646414 0.0012078058 -0.0015799335 0.0011627813 0.013604276 -0.0018317791 -0.013727093
0.00026267345 -0.0068598613 0.0014785685 -0.0023787974 -0.004715957 -0.029053356 0.021429816 0.012252505
-0.006315553 -0.11439778 -0.01899748 0.01752434 -0.016063562 0.019992711 0.029445421 -0.056849927
0.0021281997 0.0046045627 -0.018017871 0.05025289 -0.0062217987 -0.02571887 0.05926478 0.08034557
0.052021317 -0.036219984 0.00013770579 0.0053329687 0.05581583 0.016805736 0.01005144 0.069875084
0.034590762 0.013578087 0.017447792 0.011676796 0.014099227 0.026672427 -0.03891907 0.005565535
0.014266129 0.03083143 0.030809607 0.006345022 0.014551701 0.00017381596 -0.045145497 0.022535503
0.0070146606 0.059721865 0.014813778 0.048509397 -0.044425335 -0.058714427 0.006805167 0.0040736124
0.0012158589 0.057803627 0.022947017 -0.0016674026 -0.015580675 0.023815809 -0.078693375 0.03150208
0.09934512 -0.016966335 0.002771865 -0.0044236113 -0.020923527 0.013104381 -0.00438835 0.009990001
0.056607045 -0.010905497 0.00089293503 -0.026049608 0.0036521924 -0.0093399165 0.055548593 -0.021007208
-0.0039914562 0.04637492 -0.08394538 0.03992262 0.0052996194 0.023201684 0.045986686 0.019360825
0.0005709475 -0.06687797 0.057919145 0.0036601522 0.023893083 0.061124202 0.017945103 -0.0001572318
-0.0033994573 0.058172554 0.05172204 0.048192665 0.016487638 0.08731906 -0.023524266 0.0449772
0.03579615 -0.0078521855 -0.06612977 -0.029345358 0.043335643 0.051581774 0.015672171 0.0027858117
0.032098897 -0.003195886 0.007060308 -0.016942227 0.046685893 0.0126161175 0.028551241 0.017665468
0.06585203 0.036451474 0.004307163 0.0076311543 0.0014717935 0.0043069143 0.0135654975 0.09282319
-0.0052883476 0.014009475 0.023468025 -0.009760594 0.013683062 0.071872704 0.043978356 -0.04724503
00000000: ea71 963a 2db4 c339 d637 d6bb 796a 07bc
00000010: d61a 3abc 3eed 003c 78a1 d9bb 02ec 6abb
00000020: 8147 46ba cd49 dbbb 7bb9 0a3a 6dab 85bc
00000030: 1bbc 99ba adad 8b3c a1c7 c8bc 4278 243c
00000040: d954 963c 94ea e2bb 82df 2f3c 941a c4ba
00000050: 42ed a3bb c435 3a3c 4485 46bb 610f b8bc
00000060: f46b 36bc b824 09bc 67cb 20bc a59e 93b9
00000070: b639 0e3c e49c bebb 3457 95bb 267e 1f3c
00000080: ff92 f33a 06ef e13b b4d7 fa3a 4c03 fe3b
00000090: 54aa f3ba 04f5 cf3a fe31 0b3b 9238 e43c
000000a0: edf1 f4bb f90c 05bd 2922 26bc e90a aebb
000000b0: 842d 483b 90fe 333c 657b 1ebc f0f2 d8ba
000000c0: 03d6 45ba d45b 5a3b 41db 22bc 1e1f 28bd
000000d0: 2d9e 56b7 6539 5c3c 848b fe3c 38b5 c23b
000000e0: efab 653c fad6 f13b f4a4 87bb 20f5 1d3b
000000f0: 854f 15ba 607c eebb 638e 35bb e6f6 a7bb
00000100: d5c3 cfbb a3e9 043c 5a25 9fba c479 5abc
00000110: 911b 22bb 41d3 9639 ced4 01bc 1348 4f3b
00000120: 0473 ae3b 6467 293c 9ea9 16bd ea4b a0bc
00000130: 2e71 86ba ad1c 08bc a4a8 1e39 37e1 d0bc
00000140: 1804 71bc 9660 4cbb 5cf0 f23a 501b 783b
00000150: 0ca9 e3ba c0ab 0d3c c5ac 7cbc 4339 beba
00000160: 9378 603a 6d37 67bb 4019 90bb 7761 363c
00000170: eb84 133b 5d11 dabc ba0d d73b 7ed9 ef3a
00000180: 01f8 9dbb 8806 e3bb 0574 323c 7c1d 623b
00000190: 3e26 14bc f63b 2abc f37c 4ebc 2b21 eeba
000001a0: b778 843a 0d7c 2cbc 75a4 d63a 904e 1a3c
000001b0: c48e 0bbc e4b4 a93b e686 5d3b 08b4 a4bb
000001c0: e4df 54bc 98f3 55bb 3d4f 9e3a c515 cfba
000001d0: 7768 983a 78e4 5e3c 4f18 f0ba 9ae7 60bc
000001e0: 6fb7 8939 b0c8 e0bb 87cc c13a 99e5 1bbb
000001f0: 5188 9abb 4e01 eebc 958d af3c bbbe 483c
00000200: b3f2 cebb 6249 eabd 9aa0 9bbc 348f 8f3c
00000210: bb97 83bc c1c7 a33c 8637 f13c 78db 68bd
00000220: 4479 0b3b dfe1 963b 379a 93bc f9d5 4d3d
00000230: 3be0 cbbb 61b0 d2bc a0bf 723d 388c a43d
00000240: 4e14 553d 685b 14bd 1e65 1039 2fc0 ae3b
00000250: 249f 643d 2fac 893c ccae 243c ab1a 8f3d
00000260: 0baf 0d3d a076 5e3c acee 8e3c 0850 3f3c
00000270: 7200 673c 2280 da3c 9a69 1fbd 175f b63b
00000280: 7bbc 693c 3292 fc3c 6e64 fc3c e7e9 cf3b
00000290: 426a 6e3c 5e42 3639 7cea 38bd 609c b83c
000002a0: 3ddb e53b ea9e 743d 7db5 723c cab1 463d
000002b0: 57f7 35bd 8a7e 70bd e1fd de3b f07b 853b
000002c0: 745d 9f3a 7fc3 6c3d 62fb bb3c bf8c daba
000002d0: 1646 7fbc 5f19 c33c fe29 a1bd 5308 013d
000002e0: 7475 cb3d fcfc 8abc 2ea8 353b f1f3 90bb
000002f0: d167 abbc c2b3 563c 26cc 8fbb 1aad 233c
00000300: cadc 673d f8ac 32bc db13 6a3a fd65 d5bc
00000310: 9f59 6f3b 7306 19bc ec86 633d 4f17 acbc
00000320: c3ca 82bb a1f3 3d3d 8eeb abbd e785 233d
00000330: 6ea8 ad3b 7511 be3c 895c 3c3d 989a 9e3c
00000340: a3ab 153a 51f7 88bd a03c 6d3d 2adf 6f3b
00000350: 6dbb c33c 5f5d 7a3d 9c01 933c 97de 24b9
00000360: 6ec9 5ebb 5846 6e3d 7dda 533d ac65 453d
00000370: 1511 873c 56d4 b23d f6b5 c0bc 033a 383d
00000380: fc9e 123d 74a6 00bc 0b6f 87bd ad65 f0bc
00000390: b780 313d 6947 533d ed62 803c 2a92 363b
000003a0: 227a 033d 1272 51bb 285a e73b 6dca 8abc
000003b0: b539 3f3d d5b3 4e3c 4be4 e93c 2cb7 903c
000003c0: 6edd 863d 244e 153d 1a23 8d3b c30e fa3b
000003d0: 32e9 c03a 0421 8d3b d241 5e3c 161a be3d
000003e0: e049 adbb ff87 653c 0440 c03c e6ea 1fbc
000003f0: ec2e 603c ff31 933d a622 343d 0184 41bd

U_i f4 [128, 128]
0.0020712027 0.021775015 0.03955807 -0.013039708 0.027715754 0.00027042118 -0.007204489 0.0011310297
-0.0019356145 -0.0032497118 -0.0027949272 0.023800848 0.0103493035 -0.0058549233 -0.011608265 -0.01956011
0.022941494 0.0023640085 -0.053962823 0.00038355737 0.0025637099 0.0053636753 -0.0022050305 0.008201188
-0.019566828 -0.006106453 -0.0056984667 -0.00111987 0.03202662 -0.0044928277 0.036223445 0.0053306054
0.05360217 -0.0011665467 -0.005449417 -0.009003767 0.00053123647 0.011182695 0.03410339 0.017400801
-0.00356094 -0.0051124375 -0.0024755003 0.0038571951 -0.0063599083 0.00793497 0.0005672143 -0.0021700663
-0.0014033935 0.0053813243 -0.011375113 0.0014114073 -0.00922436 0.0060200384 0.020747708 0.00045266756
0.010857679 -0.01054332 -0.013773309 0.004137622 -0.0023011807 -0.006089366 0.0037198858 -0.007887461
-0.022458095 0.008772622 -0.0021582781 -0.0031430738 -0.0028838026 -0.0015710733 -0.0054803477 0.005630117
0.026397033 0.0027101117 0.020461304 -0.005402254 0.0013585591 -0.00752945 3.9736613e-05 -0.0033034373
0.022837276 0.0012029075 -0.025888028 0.0032791323 -0.012210482 0.005139769 -0.0035452342 -0.002508819
0.0023066108 -0.006046334 -0.003622001 0.01480241 0.0064369366 -0.013240905 0.0038844934 -0.013470619
-0.00071224483 -0.008068921 0.004598622 -0.0056146844 -0.0021577252 -0.006897649 -0.015107876 -0.0016156936
-0.0015751593 0.008290499 -0.011346081 -0.008072158 0.011090497 0.000267076 0.005095383 0.005184782
0.006795679 0.017350264 -0.0011929115 -0.0007558445 0.00089956674 0.013820772 -0.0009280513 -0.010394769
0.0011926404 -0.0018839942 -0.011664284 0.004689822 -0.004752088 -0.01031296 -0.008743423 0.017032947
-0.021756008 -0.08022553 -0.07460357 0.049266964 -0.1996043 0.012379835 0.04329457 -0.08395176
0.00092943886 -0.0041284864 0.014226626 0.09939635 -0.032024816 -0.0027345372 -0.059107706 -0.0065293238
0.04488902 -0.13849445 0.08921057 0.01755558 0.011776616 -0.002988335 0.007568088 -0.08598885
-0.0027200542 0.012635978 0.015087222 0.022043912 -0.13162945 0.034047015 0.02445143 -0.012007285
0.02095236 0.03263527 0.008945027 -0.008793076 -0.004239717 -0.07154555 -0.08443732 0.053412486
-0.009302134 0.040635016 0.014858231 0.041971106 -0.0010337887 -0.06435851 -0.0040517915 0.0052594263
0.0025777407 0.020856196 0.045890164 -0.01264485 0.019816374 0.0045580165 0.038998395 -0.032993883
0.108799726 -0.03822281 0.015765022 -0.016208306 0.006264845 0.01429312 -0.019639086 0.014290589
-0.048682787 -0.06496888 0.0058917697 0.01557437 0.0037817569 -0.019683693 0.08955183 -0.020387217
-0.07863381 0.05228176 0.00091277953 0.024310138 0.004220124 0.013480854 0.09314526 0.040682986
0.0077445614 0.002343538 -0.06024532 -0.013028075 0.030873524 0.042100877 -0.05647834 -0.010606491
-0.0072685424 0.05844507 -0.004705492 0.11490528 0.013932581 -0.050653644 -0.061003808 -0.05186492
0.011455983 0.009196846 -0.021176085 0.05638095 0.02640454 -0.006588353 0.017643332 0.0030772958
0.09879279 -0.00429172 0.09649032 0.012624029 -0.11286212 0.021433117 0.009047901 -0.005523368
0.11885113 -0.017863119 -0.0104588885 0.0015749914 0.0013684265 -0.0008906708 0.017512998 -0.022944698
-0.014906092 -0.0061340467 0.07577514 -0.004134365 0.01835509 0.026106983 0.11662455 -0.04026524
00000000: 04bd 073b 8461 b23c a507 223d 80a4 55bc
00000010: 260c e33c 51c7 8d39 a213 ecbb 0f3f 943a
00000020: 72b4 fdba 1ef9 54bb 192b 37bb fff9 c23c
00000030: 2090 293c a8da bfbb 9830 3ebc 863c a0bc
00000040: cdef bb3c 7bed 1a3b 1f08 5dbd 3318 c939
00000050: ea03 283b c5c1 af3b 4682 10bb 475e 063c
00000060: 9d4a a0bc a418 c8bb 34ba babb 9ac8 92ba
00000070: 582e 033d 9238 93bb 095f 143d 5cac ae3b
00000080: f38d 5b3d d0e6 98ba 0691 b2bb 8984 13bc
00000090: ad42 0b3a 9f37 373c ffaf 0b3d 208c 8e3c
000000a0: a95e 69bb 3c86 a7bb 013c 22bb ffc8 7c3b
000000b0: c766 d0bb ad01 023c 1bb1 143a ac37 0ebb
000000c0: 12f2 b7ba d255 b03b af5e 3abc f8fe b83a
000000d0: c521 17bc be43 c53b 19f7 a93c 0354 ed39
000000e0: 68e4 313c e4bd 2cbc 72a9 61bc e494 873b
000000f0: 68cf 16bb 4e89 c7bb 54c9 733b 693a 01bc
00000100: 0afa b7bc 0bbb 0f3c e671 0dbb 07fc 4dbb
00000110: 2efe 3cbb 79ec cdba 7d94 b3bb d87c b83b
00000120: 973e d83c 219c 313b 779e a73c 6405 b1bb
00000130: ae11 b23a 9bb9 f6bb ddaa 2638 7b7e 58bb
00000140: 3d15 bb3c e1aa 9d3a 2113 d4bc b6e6 563b
00000150: 790e 48bc 826b a83b 2957 68bb 006b 24bb
00000160: 822a 173b 5320 c6bb 185f 6dbb cf85 723c
00000170: f0ec d23b 61f0 58bc fc92 7e3b dfb3 5cbc
00000180: f1b5 3aba 8233 04bc 0ab0 963b 63fb b7bb
00000190: 9f68 0dbb ac05 e2bb 0687 77bc aec5 d3ba
000001a0: 9375 ceba e0d4 073c eae4 39bc 1641 04bc
000001b0: eab4 353c 5506 8c39 2cf7 a63b 1be5 a93b
000001c0: 4aae de3b 2422 8e3c 785b 9cba de23 46ba
000001d0: e7d0 6b3a 8570 623c 7848 73ba d24e 2abc
000001e0: 5f52 9c3a 5bf0 f6ba 8e1b 3fbc 14ad 993b
000001f0: 67b7 9bbb b0f7 28bc 9340 0fbc ae88 8b3c
00000200: a839 b2bc 484d a4bd c2c9 98bd 28cc 493d
00000210: 1265 4cbe cbd4 4a3c a655 313d e6ee abbd
00000220: 96a5 733a 4148 87bb cb16 693c 5090 cb3d
00000230: 742c 03bd ec35 33bb ec1a 72bd f0f3 d5bb
00000240: 8ddd 373d 7dd1 0dbe 08b4 b63d b8d0 8f3c
00000250: b5f2 403c f1d7 43bb b9fd f73b ec1a b0bd
00000260: f042 32bb 2207 4f3c 6530 773c 6f95 b43c
00000270: dfc9 06be e274 0b3d 5e4e c83c 34ba 44bc
00000280: 49a4 ab3c 90ac 053d 2a8e 123c d510 10bc
00000290: 53ed 8abb 7986 92bd 79ed acbd 0dc7 5a3d
000002a0: fa67 18bc e770 263d f06f 733c e5e9 2b3d
000002b0: 3180 87ba 65ce 83bd e4c4 84bb 4457 ac3b
000002c0: 50ef 283b 9dda aa3c 53f7 3b3d 582c 4fbc
000002d0: f355 a23c 6a5b 953b c8bc 1f3d 9824 07bd
000002e0: 64d2 de3d 858f 1cbd a625 813c 48c7 84bc
000002f0: 5449 cd3b b12d 6a3c 26e2 a0bc 1323 6a3c
00000300: 9a67 47bd 670e 85bd bf0f c13b a42b 7f3c
00000310: 5ad7 773b b23f a1bc f366 b73d 1803 a7bc
00000320: c30a a1bd 6625 563d 9947 6f3a 0e26 c73c
00000330: f748 8a3b cdde 5c3c f1c2 be3d 34a3 263d
00000340: 17c6 fd3b 0b96 193b ccc3 76bd b573 55bc
00000350: 79ea fc3c f871 2c3d d555 67bd d9c6 2dbc
00000360: f42c eebb 1964 6f3d 8730 9abb 7653 eb3d
00000370: 7b45 643c 327a 4fbd 21df 79bd 4f70 54bd
00000380: e0b1 3b3c 5eae 163c 7879 adbc b6ef 663d
00000390: 554e d83c 1ce3 d7bb c088 903c 75ac 493b
000003a0: e053 ca3d 8fa1 8cbb b89c c53d 04d5 4e3c
000003b0: 4124 e7bd 8194 af3c a63d 143c 5efd b4bb
000003c0: 3968 f33d ad55 92bc c25b 2bbc f16f ce3a
000003d0: c65c b33a e87b 69ba 6b77 8f3c 85f6 bbbc
000003e0: ae38 74bc 1d00 c9bb ff2f 9b3d 9179 87bb
000003f0: 6a5d 963c 50de d53c dad8 ee3d 2aed 24bd

U_c f4 [128, 128]
0.010614187 0.030586287 0.01165823 -0.009760684 -0.036476403 0.017284373 -0.015431584 -0.03875525
-0.011727744 0.0022139864 -0.055801716 0.035077024 -0.027178261 -0.030538853 0.0287102 0.02755106
-0.05566374 0.010093094 -0.024223337 -0.00564809 0.003064261 -0.018944688 0.019055117 -0.12030629
-0.09351465 -0.0045290757 -0.0015680899 -0.0048718737 0.040063538 0.03027982 -0.057956956 -0.05263283
-0.060332954 0.048981145 0.010759963 0.0470081 -0.003508412 -0.023262959 0.09130822 0.060339414
-0.002625941 -0.016530754 0.030832805 3.720607e-05 -0.019085826 0.019995201 0.008253113 -0.00026035527
0.0020269367 0.0041406094 -0.013380574 0.04724424 -0.04977968 0.058259297 0.0063294335 -0.052487094
-0.028382948 -0.03831507 -0.009048124 -0.009758391 0.025791252 -0.012398273 -0.004224083 -0.0017540326
0.010283681 0.05354151 0.0018074736 0.05283992 -0.001190499 0.008700812 0.023108892 0.0025358251
0.0361238 0.01870148 0.04291765 -0.0016102034 0.017190766 0.0052762213 0.016794836 0.022269849
0.026384465 0.01677929 -0.02035951 -0.013259333 -0.010695501 -0.0946496 0.015446986 -0.013108062
-0.0020235903 -0.027420597 0.05834985 0.06627681 -0.033489678 0.050658528 -0.02707348 0.02174431
-0.019276569 0.019448245 -0.020052908 0.08365265 0.0059861485 -0.036614772 0.00817008 0.00893827
0.019196324 0.011096839 -0.0056755687 -0.06511256 0.01892734 0.037709672 -0.009578289 -0.000978893
-0.0058443868 -0.058947258 0.0012159288 -0.01976145 -0.01627189 0.045562405 -0.012834195 0.0025826965
0.0032947003 0.02062441 0.0061801807 0.014020478 -0.029293088 -0.023040645 0.03698145 -0.025541354
0.045990285 0.14057627 0.090717725 0.0024898872 0.07353681 -0.036401995 0.012117821 0.088747
0.00024640933 0.008812301 0.05838268 -0.033149477 -0.12797783 -0.008793273 -0.043576285 -0.046580136
-0.070821896 0.0744181 -0.07190724 0.10125616 0.13873042 0.040126193 -0.020097114 -0.067501925
-0.06544264 -0.0083101755 -0.021020718 -0.017994497 -0.008359392 -0.002194928 -0.034722906 -0.017303962
0.026723478 0.03882293 0.08001895 -0.10369897 0.07694264 -0.0720115 0.035317402 -0.045659564
0.06306341 0.114611216 0.014913618 -0.02124031 0.092081614 -0.09468914 0.08405682 -0.001963707
-0.026336174 -0.024758335 0.06149054 -0.0197624 -0.0807225 -0.064728655 0.09189613 0.05359941
-0.10635964 0.08805409 -0.09751208 -0.0651322 0.05273394 -0.0027229826 -0.14119397 0.0013309392
-0.060427595 -0.080219425 0.005266441 -0.05521667 -0.0052901907 -0.040674582 0.006259547 -0.10533359
-0.1290244 -0.13873106 -0.0999409 0.010874275 -0.05921953 0.019057984 -0.11206315 -0.005747035
0.0015901452 0.10892689 0.10182931 -0.0074946024 -0.047018003 0.035015922 -0.06440081 -0.019572258
0.0077077765 -0.0021078398 -0.00091298565 0.09730692 -0.012181028 -0.042796288 -0.015247988 -0.08928015
-0.06717984 0.07729377 0.025986878 0.018125389 -0.049073365 0.051644534 -0.017633088 -0.011967323
-0.03629183 -0.032739602 0.09596298 0.00026069907 0.024364343 -0.07749604 -0.08241407 0.0167864
0.051278185 -0.0033262062 0.09428518 -0.01516299 0.015340872 0.1505227 -0.03751575 -0.03552891
0.029308619 0.05370737 -0.017247036 0.11865474 -0.040527698 0.08604819 -0.057450384 -0.040537592
00000000: 21e7 2d3c 1890 fa3c 2902 3f3c 47eb 1fbc
00000010: 4868 15bd f597 8d3c c1d4 7cbc d3bd 1ebd
00000020: b925 40bc 8718 113b 5790 64bd edac 0f3d
00000030: f2a4 debc 9e2c fabc a731 eb3c c3b2 e13c
00000040: a9ff 63bd 815d 253c 0570 c6bc 9d13 b9bb
00000050: c5d1 483b e431 9bbc 7a19 9c3c 2563 f6bd
00000060: 9c84 bfbd a468 94bb 5e88 cdba 3da4 9fbb
00000070: aa19 243d 630d f83c 4664 6dbd 8695 57bd
00000080: b01f 77bd 74a0 483d 8e4a 303c 918b 403d
00000090: 63ed 65bb f691 bebc ceff ba3d 7626 773d
000000a0: fb17 2cbb 816b 87bc 1495 fc3c b70d 1c38
000000b0: e159 9cbc facc a33c 1138 073c 4b80 88b9
000000c0: 5bd6 043b f3ad 873b 323a 5bbc 2d83 413d
000000d0: c7e5 4bbd 4da1 6e3d 2367 cf3b b5fc 56bd
000000e0: 5b83 e8bc 43f0 1cbd 953e 14bc a9e1 1fbc
000000f0: 2d48 d33c 2022 4bbc 2d6a 8abb 91e7 e5ba
00000100: e27c 283c 584e 5b3d c0e8 ec3a ac6e 583d
00000110: 850a 9cba da8d 0e3c dc4e bd3c 1630 263b
00000120: 8df6 133d d933 993c 6bca 2f3d 760d d3ba
00000130: a6d3 8c3c 27e4 ac3b 5395 893c 426f b63c
00000140: 3c24 d83c b974 893c fdc8 a6bc ac3d 59bc
00000150: 2f3c 2fbc a6d7 c1bd 5b15 7d3c 32c3 56bc
00000160: 369e 04bb 29a1 e0bc 4100 6f3d 23bc 873d
00000170: 792c 09bd 517f 4f3d 34c9 ddbc 2021 b23c
00000180: e5e9 9dbc ed51 9f3c ff45 a4bc 1552 ab3d
00000190: 7427 c43b 5ff9 15bd cddb 053c d271 123c
000001a0: 9c41 9d3c 84cf 353c 1ffa b9bb bc59 85bd
000001b0: 820d 9b3c 7575 1a3d 42ee 1cbc 334e 80ba
000001c0: 4582 bfbb ae72 71bd cd5f 9f3a c4e2 a1bc
000001d0: a04c 85bc a59f 3a3d 8446 52bc 7542 293b
000001e0: e6eb 573b 86f4 a83c 1d83 ca3b 26b6 653c
000001f0: 0ff8 efbc bcbf bcbc dc79 173d 1a3c d1bc
00000200: 4f60 3c3d 3af3 0f3e 37ca b93d 602d 233b
00000210: 789a 963d 421a 15bd d389 463c fdc0 b53d
00000220: 8030 8139 7861 103c ad22 6f3d bfc7 07bd
00000230: 9f0c 03be a911 10bc 0c7d 32bd d0ca 3ebd
00000240: 120b 91bd 8468 983d 1a44 93bd 645f cf3d
00000250: 590f 0e3e 5d5b 243d b4a2 a4bc 733e 8abd
00000260: ca06 86bd 6727 08bc a433 acbc 3269 93bc
00000270: d5f5 08bc c8d8 0fbb 9b39 0ebd 0ac1 8dbc
00000280: 32eb da3c cb04 1f3d fae0 a33d 2060 d4bd
00000290: 1a94 9d3d c47a 93bd fba8 103d 8605 3bbd
000002a0: 6427 813d 49b9 ea3d 3f58 743c 2900 aebc
000002b0: 4995 bc3d 61ec c1bd fb25 ac3d 89b1 00bb
000002c0: f6be d7bc fed1 cabc 81dd 7b3d c2e4 a1bc
000002d0: d751 a5bd 7590 84bd 0a34 bc3d 0e8b 5b3d
000002e0: 15d3 d9bd b455 b43d 6ab4 c7bd 0864 85bd
000002f0: 8bff 573d 1174 32bb 2795 10be e972 ae3a
00000300: ed82 77bd 154a a4bd 1c92 ac3b e02a 62bd
00000310: 5659 adbb 649a 26bd e31c cd3b 23b9 d7bd
00000320: f91e 04be 840f 0ebe d1ad ccbd 042a 323c
00000330: 2e90 72bd 7d1f 9c3c 5d81 e5bd a051 bcbb
00000340: 6b6c d03a 1015 df3d e38b d03d 4895 f5bb
00000350: f395 40bd db6c 0f3d 92e4 83bd 0056 a0bc
00000360: 8491 fc3b af23 0abb 6e55 6fba da48 c73d
00000370: ef92 47bc 294b 2fbd b2d2 79bc 83d8 b6bd
00000380: 9595 89bd 324c 9e3d 6fe2 d43c b27b 943c
00000390: 2701 49bd 3889 533d 4473 90bc 9712 44bc
000003a0: bea6 14bd f619 06bd 3d88 c43d 70ae 8839
000003b0: bb97 c73c 3eb6 9ebd b5c8 a8bd a283 893c
000003c0: 1309 523d 7bfc 59bb 9718 c13d 316e 78bc
000003d0: 4858 7b3c 9f22 1a3e 1daa 19bd c386 11bd
000003e0: a118 f03c 42fc 5b3d a849 8dbc 4201 f33d
000003f0: 5f00 26bd 093a b03d 1851 6bbd bf0a 26bd
