checkpoints/ids_qlstm/model.onnx (onnx, 569238 bytes, 25 tensors)

original_model.qlstm.layers.0.0.input_gate_params.bias f4 [20]
0	0xbdb07797	-0.0861656
1	0x3e348956	0.17630515
2	0xbe49dee8	-0.19713938
3	0xbde57c33	-0.1120533
4	0x3d343145	0.0439923
5	0xba913d56	-0.0011080902
6	0xbdb9d9e5	-0.09074763
7	0x3de761e7	0.1129797
8	0x3e2e4da7	0.1702181
9	0xbe401310	-0.18757272
10	0x3d9a96be	0.07548283
11	0x3d8ba9f9	0.06819529
12	0xbdd30579	-0.10303778
13	0xbd115897	-0.035484876
14	0xbdb5ea27	-0.08882552
15	0xbe3f6e58	-0.18694437
16	0x3e223881	0.15841867
17	0xbd13a4ca	-0.036045827
18	0x3d7abd2e	0.061215572
19	0xbe359c94	-0.17735511

original_model.qlstm.layers.0.0.input_gate_params.input_weight.weight f4 [20, 10]
0	0x3e099db4	0.13439065
1	0x3c044539	0.008073145
2	0xbda90041	-0.082520016
3	0x3e5f1c92	0.21788242
4	0x3e5be3a1	0.21473552
5	0xbe1ab703	-0.15108876
6	0xbd5c76b1	-0.05382413
7	0xbd45e608	-0.048315078
8	0x3e5c8db3	0.21538429
9	0xbb18ae78	-0.002329735
10	0x3c44729f	0.011990218
11	0xbe2de523	-0.1698194
12	0x3ddecf05	0.108793296
13	0xbb5af22c	-0.0033408506
14	0x3d0e54ec	0.034748957
15	0xbe3e6c5a	-0.1859602
16	0x3e25b638	0.16182792
17	0x3e55ecd3	0.20891123
18	0xbd06d30d	-0.032916117
19	0x3c4dcf04	0.012561563
20	0x3cbbcba1	0.022924246
21	0x3d3c15de	0.04591929
22	0xbde46a53	-0.11153092
23	0x3c964acb	0.018346211
24	0x3d627320	0.055285573
25	0x3e645ac6	0.22300252
26	0x3e2dd333	0.16975097
27	0xbe413fbd	-0.1887197
28	0x3e3dbd88	0.18529332
29	0x3e28d66b	0.16488044
30	0xbe228bcd	-0.15873642
31	0xbc80bea3	-0.015715903
32	0xbe22430b	-0.15845887
33	0xbe5c0bc6	-0.21488866
34	0xbbba1c59	-0.005679649
35	0xbe5dd605	-0.21663673
36	0xbd2392f5	-0.03993507
37	0xbe442468	-0.19154513
38	0x3da5ab03	0.080892585
39	0x3d3418ad	0.043968845
40	0xbcef55b7	-0.029215677
41	0x3da1838d	0.078864194
42	0xbe121d24	-0.14268929
43	0x3e4270e4	0.18988377
44	0xbe06715d	-0.13129182
45	0x3bf53ef9	0.0074843136
46	0x3dcfb7eb	0.101425014
47	0xbdb86947	-0.09004455
48	0xbe4904a5	-0.19630678
49	0x3e354ce5	0.17705114
50	0x3de3fb18	0.11131877
51	0x3e5a3d87	0.21312533
52	0x3dace9c6	0.08443026
53	0xbe561bc1	-0.20909025
54	0x3da4c198	0.080447376
55	0xbc8056c5	-0.015666375
56	0xbde63b82	-0.11241819
57	0x3e638529	0.22218765
58	0xbd95b04f	-0.07309019
59	0xbd53e852	-0.05173523
60	0xbd6ab5a2	-0.057302125
61	0x3daae30c	0.08344087
62	0x3e374601	0.17897798
63	0x3e339a5c	0.17539352
64	0x3c8ebb32	0.017423246
65	0x3dd0b071	0.101899035
66	0x3e2aaf6b	0.16668479
67	0x3e02c975	0.12772162
68	0x3e1bc5f9	0.1521224
69	0xbe1cc9a6	-0.15311298
70	0x3bf04ae6	0.0073331473
71	0xbe1cc645	-0.15310009
72	0xbe3b90c9	-0.1831695
73	0xbe3da32b	-0.18519275
74	0x3e5c2209	0.21497358
75	0x3db4a658	0.0882079
76	0x3e2815fa	0.16414633
77	0xbe5a73f8	-0.21333301
78	0x3d8156f8	0.06315416
79	0x3e2353f6	0.15949997
80	0xbdc255f1	-0.09489048
81	0xbe52168b	-0.20516412
82	0x3db0897e	0.086199746
83	0xbdadf64c	-0.08494243
84	0x3e11e819	0.14248694
85	0xbdc20a4e	-0.09474622
86	0x3e18d794	0.14925987
87	0xbd0aa6e5	-0.03385057
88	0xbd511c0e	-0.051052146
89	0x3e5b0e84	0.21392256
90	0x3d452557	0.048131313
91	0xbe13d318	-0.14435995
92	0x3e497d1d	0.19676633
93	0x3e183391	0.14863421
94	0xbd839049	-0.064240046
95	0xbe4bd9bf	-0.19907282
96	0xbd0bc429	-0.03412262
97	0xbdfba8dd	-0.122880675
98	0x3e504495	0.20338662
99	0xbe357748	-0.17721283
100	0xbde87c67	-0.11351853
101	0x3d035a0c	0.032068297
102	0x3df88f36	0.1213669
103	0xbe06a53b	-0.13148968
104	0x3e203a7b	0.15647309
105	0xbd6a5d7a	-0.057218052
106	0x3e0c1d87	0.13683139
107	0x3e2f392e	0.17111656
108	0x3d4749e7	0.048654463
109	0x3e5a8054	0.21338016
110	0x3e483313	0.19550733
111	0xbe05f9ba	-0.13083544
112	0x3e162155	0.14661153
113	0xbe5456f5	-0.20736296
114	0xbe171b3c	-0.14756483
115	0xbcc33389	-0.023828285
116	0xbda58ecc	-0.08083877
117	0x3e0d5f4c	0.13805884
118	0xbd51e04c	-0.051239297
119	0xbd668a22	-0.056284077
120	0xbd7442e3	-0.0596341
121	0xbe319186	-0.17340669
122	0x3da69900	0.08134651
123	0x3d7a5a2e	0.06112116
124	0x3d58768b	0.052847426
125	0x3cb9e362	0.022691432
126	0x3e10c5ae	0.14137909
127	0xbdf56b0a	-0.11983307
128	0x3df7976e	0.1208943
129	0x3e5da913	0.21646528
130	0xbe401ff3	-0.18762188
131	0xbca145dd	-0.019686634
132	0xbd3d9279	-0.046282265
133	0xbe5ed7c6	-0.21761999
134	0x3d624823	0.055244576
135	0x3d974be6	0.07387523
136	0xbddb48ab	-0.1070722
137	0x3dc49e00	0.096004486
138	0x3dce6b5c	0.10079071
139	0xbe5f5175	-0.21808417
140	0xbe221c02	-0.15830997
141	0xbe182a56	-0.148599
142	0xbe36deda	-0.17858449
143	0xbc4eb8af	-0.012617274
144	0xbda26f06	-0.07931332
145	0x3e1aaa32	0.15103987
146	0x3d7a19c1	0.061059717
147	0xbda72508	-0.0816136
148	0x3e1e720b	0.15473191
149	0x3d895d70	0.06707275
150	0x3bf0deee	0.007350794
151	0x3b8bbd10	0.0042644814
152	0xbd57674f	-0.052588757
153	0xbe2d175b	-0.1690344
154	0xbe041c99	-0.12901534
155	0x3d94b50f	0.07261097
156	0x3dd47f5b	0.10375854
157	0x3d791202	0.06080819
158	0xbd1ccd4e	-0.03828173
159	0xbd0f2eb7	-0.03495666
160	0x3d8a00a8	0.067384064
161	0xbe539c18	-0.20665014
162	0x3e6226ee	0.22085163
163	0xbe042a26	-0.12906703
164	0xbd9d74f8	-0.07688326
165	0x3e4f3864	0.20236355
166	0x3e2f2371	0.17103364
167	0xbd9d017a	-0.07666297
168	0xbe12c2d9	-0.14332141
169	0xbd1b5c53	-0.037929844
170	0xbdebd52a	-0.11515267
171	0x3dfa6a04	0.12227252
172	0x3ddadbac	0.1068643
173	0x3e42f9f3	0.1904066
174	0xbe031f07	-0.12804805
175	0xbd919eaa	-0.07110341
176	0x3dadd7ea	0.08488448
177	0x3df2e408	0.118599
178	0x3d686789	0.056739364
179	0xbe433f46	-0.19067106
180	0x3e4a9dd8	0.19786775
181	0x3e39dfa0	0.18151712
182	0x3e5e684b	0.21719472
183	0x3d8cfda5	0.06884316
184	0xbe4e55d8	-0.20149934
185	0xbdcf55d7	-0.101237945
186	0xbe2cec9b	-0.16887133
187	0xbe17bfe5	-0.14819296
188	0xbe4696f3	-0.1939352
189	0xba939add	-0.0011261363
190	0xbdc6e182	-0.09710981
191	0xbdde09a5	-0.10841683
192	0xbd7d9d61	-0.061917666
193	0x3e61f7b0	0.22067142
194	0x3e1caa70	0.15299392
195	0x3e5fad6c	0.21843499
196	0x3deba236	0.11505549
197	0x3e3cf4ec	0.18452805
198	0xbe39b04a	-0.18133655
199	0x3d8514a6	0.06498079

original_model.qlstm.layers.0.0.input_gate_params.hidden_weight.weight f4 [20, 20]
0	0x3d1931a4	0.037400857
1	0xbdb97ea6	-0.090573594
2	0x3e1ce884	0.15323073
3	0x3d86127f	0.065464966
4	0xbbddf52b	-0.006773611
5	0x3df23198	0.118258655
6	0x3e0c87d3	0.13723688
7	0x3dfb3008	0.122650206
8	0x3e04c69a	0.12966385
9	0x3e2c6fba	0.16839495
10	0xbe29f14a	-0.1659595
11	0xbddc4749	-0.10755784
12	0x3e5626bc	0.20913213
13	0xbda2265a	-0.07917471
14	0xbcb720f4	-0.02235458
15	0xbdb059ae	-0.08610855
16	0xbe25acb9	-0.1617917
17	0xbe1e6f26	-0.15472087
18	0xbd990907	-0.07472425
19	0xbd005815	-0.031334
20	0x3e29a700	0.16567612
21	0xbdf6026f	-0.12012183
22	0x3e559098	0.2085594
23	0xbcf61155	-0.030037561
24	0x3e16b9e2	0.14719346
25	0xbe0e6e3b	-0.13909237
26	0xbbd71e8d	-0.0065649212
27	0xbc432235	-0.011910011
28	0x3cc72236	0.024308305
29	0xbd28064a	-0.041021623
30	0xbe5c389d	-0.21505971
31	0x3e365e4c	0.17809409
32	0xbd84ca74	-0.06483927
33	0xbe47023d	-0.19434448
34	0xbd2ca8b8	-0.04215309
35	0x3e58cc1c	0.21171612
36	0x3dfc2598	0.12311858
37	0xbe4ca62f	-0.19985269
38	0x3e24d579	0.16097058
39	0xbd766def	-0.060163435
40	0xbc565b58	-0.0130833015
41	0xbd4e6319	-0.050387476
42	0xbdb6c90c	-0.089250654
43	0x3e5eb7a7	0.21749745
44	0xbe599de1	-0.21251632
45	0x3c55a95a	0.013040865
46	0x3e11f846	0.14254865
47	0xbd970a41	-0.07375003
48	0xbd5e7695	-0.054312307
49	0x3d6f1f85	0.05837967
50	0x3e0bdf18	0.13659322
51	0x3d557bcb	0.05212001
52	0xbdeeac5c	-0.11653969
53	0x3d35f64c	0.04442434
54	0xbe51cf1d	-0.20489164
55	0xbe2679a0	-0.16257334
56	0x3dde91e0	0.10867667
57	0xbca99ca3	-0.020704573
58	0x3e1a7ecf	0.15087436
59	0x3d0b8969	0.03406659
60	0xbccf3dbb	-0.02529799
61	0x3e523a52	0.2053006
62	0xbe638729	-0.22219528
63	0xbe5eb5f2	-0.21749094
64	0xbe15f239	-0.14643182
65	0x3de9b390	0.11411202
66	0x3dc5aa5c	0.09651634
67	0xbd139b49	-0.036036763
68	0xbd3753cc	-0.04475765
69	0xbd831b36	-0.064016744
70	0xbe49d04b	-0.19708364
71	0xbd6e36cd	-0.05815773
72	0x3e545910	0.207371
73	0x3e43ef95	0.19134362
74	0x3e340e0e	0.17583486
75	0xbd9189ec	-0.07106385
76	0x3e32d0b7	0.17462431
77	0xbe3c5368	-0.18391192
78	0x3df2ff1e	0.11865066
79	0x3cf8a642	0.030352715
80	0x3d9a6443	0.07538655
81	0x3db51aea	0.08843024
82	0xbe5182a6	-0.20459995
83	0x3d90a5ee	0.070628986
84	0xbe18e6b3	-0.14931755
85	0xbd886cb3	-0.06661358
86	0x3e1a6e18	0.1508106
87	0xbe5eaa57	-0.21744667
88	0xbe3dd6f6	-0.18539032
89	0x3d99a4cc	0.07502136
90	0xbe17d61a	-0.14827767
91	0xbc9d8469	-0.019228177
92	0xbdf75a1b	-0.12077733
93	0x3d4c078e	0.049811892
94	0x3e50b09c	0.20379871
95	0xbe02a039	-0.12756433
96	0x3d7ed2a1	0.06221259
97	0xbc9d2426	-0.019182276
98	0x3e37916d	0.1792657
99	0x3d0866b0	0.033301055
100	0x3db693fc	0.089149445
101	0xbe4245a7	-0.18971883
102	0xbd794773	-0.060859155
103	0xbe0e44e3	-0.13893466
104	0x3dce5e59	0.10076589
105	0xbd75c3f7	-0.06000134
106	0x3ddc5839	0.10759015
107	0x3dd48a70	0.10377967
108	0xbbd4a54c	-0.0064894315
109	0x3e4ea9a0	0.20181894
110	0xbe25f533	-0.16206817
111	0xbe0a8e50	-0.1353085
112	0x3e52111d	0.2051434
113	0x3cc60f3b	0.024177184
114	0x3e4e958f	0.2017424
115	0x3e00a382	0.12562373
116	0x3dec4937	0.11537402
117	0x3d2fee4b	0.042951863
118	0xbdad5089	-0.084626265
119	0x3ca2635b	0.019822767
120	0xbca33193	-0.0199211
121	0xbe3be26e	-0.18348095
122	0xbcaa6ace	-0.020802882
123	0xbdd22520	-0.10260987
124	0xbe274a03	-0.16336827
125	0x3ddb7a85	0.10716728
126	0xbdc8b25b	-0.097996436
127	0xbdfae498	-0.12250632
128	0x3dda6094	0.10662952
129	0x3d747f9f	0.05969202
130	0x3d8d5bda	0.06902285
131	0x3d77a759	0.06046233
132	0xbdd1d065	-0.10244826
133	0xbd243d7c	-0.0400977
134	0xbdcdecaf	-0.100549094
135	0x3d509641	0.050924543
136	0x3e58b9ff	0.21164702
137	0xbd9173a2	-0.07102133
138	0x3c46a2de	0.0121237915
139	0xbc14c2cf	-0.009079649
140	0x3d5dff09	0.0541983
141	0xbdde476e	-0.10853468
142	0xbe1fe39d	-0.15614171
143	0x3e533f8c	0.2062971
144	0x3e5d4842	0.21609595
145	0xbd6bc1bd	-0.05755781
146	0xbe25654c	-0.16151923
147	0x3d3d11ad	0.046159435
148	0x3dd2f942	0.103014484
149	0xbdb15272	-0.08658303
150	0xbe1bfc95	-0.15233071
151	0x3e11f08f	0.14251922
152	0x3e33c9f5	0.17557509
153	0xbe1709d1	-0.14749838
154	0xbe1ec915	-0.15506394
155	0xbda48b49	-0.08034379
156	0xbe2cfd23	-0.16893439
157	0xbd9eb49a	-0.07749291
158	0x3e36f46c	0.17866677
159	0xbcbbc82a	-0.022922594
160	0xbe07347e	-0.13203618
161	0x3d82009d	0.06347773
162	0xbdf57ac6	-0.11986308
163	0x3d88676a	0.0666035
164	0x3de2607b	0.110535584
165	0xbdb74049	-0.08947808
166	0x3e2b4b3e	0.16727921
167	0xbde5de8b	-0.11224087
168	0xbe1ca27e	-0.15296361
169	0x3bb3e72c	0.0054902043
170	0x3da5a275	0.08087627
171	0xbe0cb676	-0.13741478
172	0xbd6ae67e	-0.05734872
173	0xbe53cc6f	-0.20683454
174	0x3e5e5a2a	0.21714082
175	0xbe492d2e	-0.19646141
176	0x3dede3db	0.116157256
177	0x3e017b31	0.1264465
178	0x3e507670	0.2035768
179	0x3da2e66e	0.07954107
180	0x3e3dd00b	0.18536393
181	0x3e1e5011	0.1546023
182	0xbdf00323	-0.11719348
183	0x3d973220	0.073826075
184	0x3e39867f	0.18117712
185	0x3e551ac5	0.20810993
186	0x3c8b619b	0.017014315
187	0x3ce8ff48	0.02844204
188	0x3de65a16	0.11247651
189	0xbe47fbf0	-0.195297
190	0xbd82dbf2	-0.063896075
191	0xbde6d539	-0.11271138
192	0x3d255852	0.040367432
193	0xbe14b4b7	-0.14522062
194	0xbe4d5653	-0.20052461
195	0xbdcbe461	-0.09955669
196	0x3dbdcf04	0.09268001
197	0x3e62756a	0.22115102
198	0x3de59f6e	0.112120494
199	0x39e87b2f	0.00044342267
200	0xbe43d867	-0.1912552
201	0xbe1eb122	-0.15497258
202	0x3d89ac91	0.067223676
203	0xbe105da0	-0.14098215
204	0xbd48137c	-0.048846707
205	0xbc7cd06a	-0.015430549
206	0xbcad6ad6	-0.021169107
207	0xbe5ea506	-0.21742639
208	0xbcc621d9	-0.024186062
209	0x3e62b051	0.22137572
210	0x3df6e5e2	0.120555654
211	0xbd90c289	-0.07068355
212	0x3dbb5e49	0.09148843
213	0x3e558372	0.20850924
214	0xb88fc778	-6.855925e-05
215	0xbdf4a0b0	-0.11944711
216	0xbcd99a53	-0.026562845
217	0x3e556df0	0.20842719
218	0x3e614936	0.22000584
219	0xbe2966e0	-0.1654315
220	0xbe01ec1f	-0.1268773
221	0xbe2fed75	-0.17180426
222	0xbda4e60e	-0.08051692
223	0x3e12afd2	0.14324883
224	0x3d61a410	0.055088103
225	0x3d9674ea	0.07346518
226	0x3e01cd23	0.1267591
227	0xbe3350b9	-0.17511262
228	0x3e55a1bb	0.20862477
229	0xbdeadba9	-0.11467678
230	0x3d9d78ac	0.07689032
231	0x3bc2f509	0.0059496206
232	0x3e18c6bc	0.14919561
233	0x3e5b2a60	0.21402884
234	0xbdf8637f	-0.121283524
235	0xbe2c46ed	-0.16823931
236	0x3d67640a	0.05649189
237	0x3e19678d	0.14980908
238	0x3e3ef2ab	0.18647258
239	0x3e4bd37c	0.19904894
240	0xbe26082a	-0.16214052
241	0xbd9480a3	-0.07251098
242	0xbd0840fc	-0.0332651
243	0x3e2b0af3	0.16703396
244	0x3e54c819	0.20779456
245	0x3c22c7cf	0.009935333
246	0xbd48ea66	-0.049051665
247	0xbe4ecda9	-0.2019564
248	0x3e62f663	0.22164302
249	0xbe1c8120	-0.15283632
250	0xbc79a988	-0.015238173
251	0xbd5f34f5	-0.054493863
252	0x3c40c926	0.0117667075
253	0xbd67c0b2	-0.056580253
254	0xbe0209ca	-0.12699047
255	0x3e021f4e	0.12707254

original_model.qlstm.layers.0.0.forget_gate_params.bias f4 [20]
0	0xbd40817c	-0.046998486
1	0xbe59eaad	-0.21280928
2	0xbcd6cd1b	-0.026220849
3	0x3e3132e8	0.17304575
4	0x3df70481	0.12061406
5	0x3cfe3128	0.031029299
6	0xbd0b5b18	-0.03402242
7	0xbe44c050	-0.19213986
8	0x3e19ac0d	0.15007038
9	0x3cf22814	0.029560126
10	0x3e207316	0.15668902
11	0xbd23f02c	-0.040023968
12	0x3cca9b0d	0.024732137
13	0x3e1d7213	0.15375547
14	0xbe256e31	-0.16155316
15	0x3d34998e	0.044091754
16	0x3e4c920a	0.19977584
17	0x3e0946c5	0.13405903
18	0xbcf88657	-0.030337496
19	0xbe120c76	-0.14262566

original_model.qlstm.layers.0.0.forget_gate_params.input_weight.weight f4 [20, 10]
0	0xbdb2fa1c	-0.08739111
1	0xbe5dabbe	-0.21647546
2	0xbe2f1a91	-0.17099978
3	0xbe2cd897	-0.16879497
4	0x3c9a6504	0.018846996
5	0x3dce76eb	0.100812756
6	0xbc4704ec	-0.01214717
7	0xbd7c21b2	-0.06155557
8	0x3d94b24e	0.072605714
9	0x3d8e9519	0.06962032
10	0x3d2d578d	0.042319823
11	0xbce611a3	-0.028084582
12	0x3db05bcb	0.08611258
13	0xbe47b298	-0.19501722
14	0x3dd05565	0.10172538
15	0xbcc032e3	-0.023461765
16	0x3d8ec501	0.06971169
17	0xbd178067	-0.03698769
18	0xb9bb6913	-0.00035745706
19	0x3e1d8663	0.15383296
20	0xbe04e605	-0.1297837
21	0x3a9f6d9b	0.0012163402
22	0x3db04237	0.086063795
23	0xbe1711bf	-0.14752863
24	0x3ce9f1f3	0.028557753
25	0x3d3dadc8	0.04630831
26	0xbc8d42dd	-0.017243797
27	0xbdcc22e1	-0.0996759
28	0xbcf5b02d	-0.029991234
29	0x3e158df8	0.14604938
30	0x3e131571	0.14363648
31	0x3e48e0a1	0.19616939
32	0x3dcdf321	0.10056139
33	0xbdc3d1e4	-0.09561518
34	0xbd9473e7	-0.07248669
35	0x3e121d07	0.14268886
36	0xbe1fe00a	-0.15612808
37	0x3e119ebf	0.14220713
38	0xbd78fdf1	-0.060789052
39	0xbe319702	-0.17342761
40	0xbdbeb59f	-0.09311985
41	0x3d5ed17a	0.05439899
42	0x3e53b1f3	0.20673351
43	0x3d6c0802	0.057624824
44	0xbe2051ae	-0.15656158
45	0xbe5c98e3	-0.21542697
46	0x3e2edd15	0.17076524
47	0x3b9e397a	0.004828629
48	0xbcdc4a4e	-0.0268909
49	0x3db2fe51	0.08739913
50	0x3e408ee5	0.1880451
51	0xbe2341bb	-0.15943043
52	0x3e1bb967	0.15207444
53	0x3c04886b	0.008089165
54	0x3ceeeb00	0.029164791
55	0xbe000a80	-0.12504005
56	0xbdc86724	-0.097852975
57	0x3daeeb95	0.085410275
58	0xbcd45eeb	-0.025924167
59	0x3e3db725	0.18526895
60	0xbd994344	-0.07483533
61	0x3e4c3f7e	0.19946095
62	0xbdba7a75	-0.09105388
63	0x3e0999b5	0.13437541
64	0x3e1451f1	0.14484383
65	0xbe513c8e	-0.20433256
66	0xbe304bda	-0.17216435
67	0xbe308f0a	-0.17242065
68	0xbe272577	-0.16322885
69	0x3e4ad69f	0.19808434
70	0xbda55464	-0.08072737
71	0x3daefb4e	0.08544026
72	0x3e46cb8f	0.19413589
73	0xbe3e0de2	-0.18559983
74	0xbe2a5a86	-0.16636094
75	0xbd9c126d	-0.07620702
76	0xbdb2a6bf	-0.087232105
77	0xbd9b6e45	-0.075893916
78	0xbe251f00	-0.16125107
79	0xbe0ff158	-0.14056909
80	0xbe009bdf	-0.1255946
81	0xbe4ba54f	-0.19887279
82	0xbba41fb7	-0.0050086635
83	0xbde278ba	-0.11058183
84	0x3d8ce1bc	0.06878993
85	0xbd8cac73	-0.068688296
86	0x3e184dd0	0.14873433
87	0x3e22b03d	0.15887542
88	0x3daff61b	0.08591863
89	0x3e3e3157	0.18573509
90	0xbe542ed2	-0.20720986
91	0x3d81b844	0.06333974
92	0xbb293188	-0.0025816876
93	0x3d7ac583	0.061223518
94	0xbe316049	-0.17321886
95	0x3d93f7a9	0.07224972
96	0x3dbd362e	0.092388496
97	0x3d4529c1	0.048135523
98	0xbb8c2294	-0.004276583
99	0x3b8e5eca	0.004344796
100	0x3d9d893f	0.07692193
101	0xbe5e8ca8	-0.21733344
102	0xbe3694a6	-0.17830142
103	0xbcbff1fc	-0.023430817
104	0x3df0855c	0.11744186
105	0xbe1fadbf	-0.15593623
106	0x3e52f179	0.20599927
107	0x3e52ac70	0.20573592
108	0xbe55fafd	-0.20896526
109	0xbc66d6ce	-0.014089299
110	0x3ca46aae	0.0200704
111	0x3e4680ac	0.19385022
112	0xbe10d76e	-0.1414468
113	0x3ddd49a6	0.10805063
114	0x3dd305b6	0.10303824
115	0x3be53436	0.0069947494
116	0x3c5baf1f	0.013408451
117	0x3dfde4b9	0.12397141
118	0x3e3e8f46	0.18609342
119	0xbe1176be	-0.14205453
120	0xbd5eba56	-0.054376923
121	0xbe0ca584	-0.13735014
122	0xbca9baf0	-0.020719022
123	0xbde7fb7e	-0.11327265
124	0x3d024587	0.031804588
125	0xbc3259f0	-0.010885701
126	0xbd394654	-0.045233086
127	0xbde10621	-0.10987497
128	0x3d82cb02	0.06386377
129	0x3df5126f	0.119664066
130	0xbe3da801	-0.1852112
131	0xbca1d947	-0.019756926
132	0x3cfa396c	0.030544959
133	0xbab7398d	-0.0013978943
134	0xbd1e1cdb	-0.038601737
135	0xbe4b979d	-0.19882055
136	0x3d3e93e6	0.046527766
137	0xbdd69c5b	-0.10479041
138	0x3e292852	0.16519287
139	0xbe237361	-0.15961982
140	0xbe54fe40	-0.20800114
141	0xbc5f5809	-0.013631829
142	0xbe42a7a8	-0.19009268
143	0xbd0679d5	-0.03283103
144	0x3e08552f	0.13313745
145	0xbddaec18	-0.106895626
146	0x3e06195c	0.13095611
147	0xbd6afaf4	-0.057368234
148	0x3e3009dc	0.17191261
149	0x3aeef574	0.001823111
150	0x3db8aed2	0.09017719
151	0x3e5cc461	0.21559288
152	0xbe2044c4	-0.15651232
153	0x3e4fc977	0.20291696
154	0xbd95dd6b	-0.07317623
155	0xbe3cfec6	-0.18456563
156	0xbd97f35a	-0.074194625
157	0x3e505d31	0.2034805
158	0x3e5b5df0	0.21422553
159	0x3ceb3f84	0.02871681
160	0x3d043605	0.03227808
161	0xbe3ee0ef	-0.18640493
162	0x3e51d8c2	0.20492843
163	0xbe06e8ad	-0.13174696
164	0x3e48bacb	0.19602506
165	0xbe305f01	-0.17223741
166	0x3d90cda5	0.070704736
167	0xbe241fd6	-0.1602777
168	0x3e3d3b5d	0.18479677
169	0x3cb6002a	0.022216875
170	0xbda622f6	-0.08112137
171	0x3d8b0ef1	0.06789959
172	0x3db2f578	0.08738226
173	0x3e2f55ff	0.17122649
174	0xbd0b3b34	-0.033992007
175	0x3d975551	0.0738932
176	0x3e4cac67	0.19987641
177	0x3d0dafe7	0.03459158
178	0x3d09c266	0.03363266
179	0x3dcaa7fe	0.09895323
180	0xbddacfd2	-0.1068417
181	0x3e4e76b0	0.20162463
182	0x3e203003	0.15643315
183	0x3d997e33	0.07494774
184	0xbd263ae4	-0.040583506
185	0x3d263554	0.0405782
186	0x3db90008	0.09033209
187	0x3ccc83f7	0.02496527
188	0xbe01d17c	-0.12677568
189	0xbe1b530f	-0.15168403
190	0xbd625351	-0.055255238
191	0x3e61a5c8	0.22035897
192	0xbda391be	-0.079867825
193	0x3e5c1ac3	0.21494584
194	0xbc6d94f0	-0.0145008415
195	0x3d85fa96	0.06541936
196	0xbd38140b	-0.04494099
197	0xbe40bbba	-0.18821612
198	0x3e103daa	0.14086023
199	0x3de1d371	0.110266574

original_model.qlstm.layers.0.0.forget_gate_params.hidden_weight.weight f4 [20, 20]
0	0x3d90a4ba	0.07062669
1	0xbdd6979f	-0.10478138
2	0x3dcfa69a	0.101391986
3	0xbe0f3f3a	-0.13988963
4	0xbc22c576	-0.009934774
5	0x3e63f7ab	0.22262447
6	0xbdf202d2	-0.11816944
7	0x3d727718	0.059195608
8	0xbc5d50b5	-0.013508012
9	0xbc9346bc	-0.017978065
10	0x3de7bbae	0.11315094
11	0xbe3ad902	-0.18246844
12	0xbbea3f51	-0.007148661
13	0xbe19b861	-0.15011741
14	0xbe3b67bd	-0.18301292
15	0xbdb9d015	-0.090728916
16	0xbe5c3434	-0.21504289
17	0x3e312f88	0.17303288
18	0xbcf8d92f	-0.030376999
19	0xbe165507	-0.14680873
20	0xbe2d98b8	-0.16952789
21	0xbe4835a4	-0.19551712
22	0x3e28fa74	0.1650179
23	0xbe194da2	-0.14971021
24	0x3e4d1ea2	0.20031217
25	0x3d62ecfd	0.05540179
26	0xbdb3a165	-0.08771018
27	0x3e1e7239	0.1547326
28	0xbc1f13f1	-0.009709344
29	0x3e30056c	0.17189568
30	0xbd3a8913	-0.04554088
31	0xbdd3bcad	-0.103387214
32	0xbe567372	-0.20942476
33	0x3e2fd0cc	0.17169493
34	0xbd8a52dc	-0.067540854
35	0xbe4b0f51	-0.19830061
36	0xbe583522	-0.21114019
37	0xbd2d5661	-0.042318705
38	0xbd821158	-0.06350964
39	0xbb465095	-0.0030260433
40	0xbe40c89e	-0.1882653
41	0x3defab0d	0.11702547
42	0xbe268446	-0.16261396
43	0x3e331022	0.17486623
44	0xbe25c013	-0.16186552
45	0xbd47c1f4	-0.048768952
46	0x3e5872aa	0.21137491
47	0x3df72564	0.120676786
48	0x3e274b59	0.16337337
49	0x3df6d68e	0.12052642
50	0x3d9340a4	0.071900636
51	0x3e5a0115	0.21289475
52	0x3de6ad94	0.11263576
53	0xbe4f2b67	-0.202314
54	0x3dd1c0ec	0.10241875
55	0x3de5360e	0.11191951
56	0x3de3344b	0.110939585
57	0x3e2e1de0	0.17003584
58	0xbe19b46e	-0.15010235
59	0x3db683ad	0.08911834
60	0xbd7a55d2	-0.061117
61	0x3e37e8b2	0.1795986
62	0x3cdbdf7a	0.02683996
63	0x3e1af314	0.1513179
64	0xbd301293	-0.042986464
65	0x3e4e6e32	0.20159224
66	0xbe0e9f36	-0.13927922
67	0xbdb5112c	-0.08841166
68	0x3e449f0d	0.19201298
69	0x3e11b73b	0.14230053
70	0x3e5b8e6d	0.2144105
71	0xbe32fdf2	-0.17479685
72	0x3e101d5a	0.14073697
73	0xbe289071	-0.1646135
74	0x3e42171d	0.1895413
75	0xbc8703af	-0.016481249
76	0x3e408b5d	0.18803163
77	0x3ddb81be	0.10718106
78	0x3d456d2c	0.048199818
79	0x3e478437	0.1948403
80	0x3da6ad8f	0.081385724
81	0xbe30a57e	-0.1725063
82	0xbe132c1e	-0.14372298
83	0x3da22dd4	0.07918897
84	0xbc6da221	-0.014503987
85	0xbc294d98	-0.010333441
86	0x3aa6854b	0.0012704519
87	0x3d7f1778	0.06227824
88	0x3dd7a343	0.105291866
89	0xbd801153	-0.06253304
90	0xbcb30e2a	-0.02185734
91	0xbe0dbf51	-0.13842513
92	0x3e0b057d	0.13576312
93	0x3e561762	0.20907357
94	0x3e385bbb	0.18003742
95	0x3982af27	0.0002492603
96	0xbdcc8837	-0.099869184
97	0x3d2bb0b6	0.04191657
98	0xbe2374a1	-0.15962459
99	0x3c7450d5	0.01491185
100	0xbdfbea1d	-0.12300513
101	0x3e2795b6	0.16365704
102	0x3dbd408d	0.09240828
103	0xbdf6e309	-0.12055022
104	0x3ca6fb6a	0.020383555
105	0xbd0822af	-0.0332362
106	0xbddb8e9a	-0.107205585
107	0xbe39d848	-0.18148911
108	0xbe5dbb39	-0.21653451
109	0x3e190c11	0.14946009
110	0xbe270027	-0.16308652
111	0x3e519f55	0.20470937
112	0x3d8c3bae	0.068473205
113	0x3e575b18	0.21030843
114	0x3daa805e	0.08325265
115	0x3daed4f1	0.08536709
116	0xbe5da3d7	-0.21644531
117	0xbd5dceb6	-0.054152213
118	0x3de2910f	0.11062824
119	0x3cad15fa	0.021128643
120	0x3e16c9c4	0.14725405
121	0x3dc95f6e	0.09832655
122	0x3dea3349	0.11435563
123	0x3c06ea87	0.008234627
124	0x3c3431a2	0.0109981615
125	0x3e43fb7f	0.19138907
126	0xbbf3d934	-0.007441664
127	0x3d5f48a9	0.054512653
128	0xbe062a97	-0.13102184
129	0x3dbf90bb	0.09353777
130	0x3d6ecdee	0.05830186
131	0x3d90ccb2	0.070702925
132	0x3d4a9e0a	0.049467124
133	0x3d7444bb	0.05963586
134	0xbe2040a8	-0.15649664
135	0xbd2dbc7b	-0.042416077
136	0xbd86bfa3	-0.065795206
137	0xbe08df7c	-0.13366503
138	0xbe4004aa	-0.18751779
139	0xbe59121c	-0.21198314
140	0xbd1721ca	-0.036897458
141	0xbdb1d18d	-0.08682547
142	0x3e6414ef	0.2227361
143	0xbe3fdd71	-0.18736817
144	0x3de456cd	0.111493684
145	0xbd72c6c8	-0.059271604
146	0xbe431eca	-0.19054714
147	0x3daeaf0e	0.08529483
148	0xbe46fa74	-0.19431478
149	0x3c50d699	0.012746477
150	0x3e3d168c	0.18465632
151	0xbe38db6c	-0.18052453
152	0x3decb514	0.115579754
153	0x3e3670c7	0.17816459
154	0x3d5e4320	0.054263234
155	0x3d254dba	0.04035733
156	0x3e1e813a	0.15478984
157	0x3d878035	0.066162504
158	0xbdf4a6bd	-0.11945865
159	0xbe0bc720	-0.13650179
160	0x3cd158e7	0.025555087
161	0x3e4d0ea7	0.2002512
162	0x3e339bfe	0.17539975
163	0xbd8bd207	-0.06827169
164	0x3e4a9f57	0.19787346
165	0xbe55ebcb	-0.20890729
166	0xbe2e4fc5	-0.17022617
167	0x3e3153de	0.17317149
168	0xbd8d197c	-0.068896264
169	0xbd22ae2e	-0.039716892
170	0x3d5039d9	0.050836418
171	0x3e3ae10d	0.18249913
172	0xbe5ab5d2	-0.21358421
173	0x3e5d2f54	0.21600085
174	0x3e5d7a89	0.21628775
175	0xbd5b652a	-0.053563274
176	0x3c8ca9dd	0.01717084
177	0x3d295c44	0.041347757
178	0x3df48411	0.11939252
179	0xbe21daef	-0.15806173
180	0x3decdadb	0.11565181
181	0x3e5e290e	0.21695349
182	0xbd82700b	-0.06369027
183	0x3dc06bd6	0.09395568
184	0x3e5b7574	0.21431524
185	0xbda8f4c4	-0.0824981
186	0xbe3c4204	-0.18384558
187	0xbe5e0d49	-0.21684755
188	0x3d706879	0.058693383
189	0x3e0315a6	0.12801227
190	0xbe20d9c9	-0.15708078
191	0xbe05cb8f	-0.13065933
192	0x3e64d69b	0.2234749
193	0x3d9aa5e8	0.07551175
194	0xbd9b10bf	-0.075715534
195	0xbe3589bb	-0.17728321
196	0x3e5cb959	0.2155508
197	0x3cbd5cf2	0.023115609
198	0x3e5922a1	0.21204616
199	0xbe276de8	-0.1635052
200	0x3e2140c7	0.15747367
201	0x3dbd7629	0.09251053
202	0xbe3d1b0f	-0.18467353
203	0x3ccf98da	0.02534144
204	0x3dbdafd9	0.09262056
205	0xbd68860f	-0.056768473
206	0xbe039c21	-0.12852527
207	0x3e2ea041	0.1705332
208	0x3d3ca48e	0.04605537
209	0x3e17ee9f	0.1483712
210	0x3e5faaf7	0.21842562
211	0xbdcf0d52	-0.101099625
212	0x3d0bbcac	0.03411548
213	0xbd649831	-0.055809204
214	0xbdcc22f6	-0.09967606
215	0x3df61343	0.12015393
216	0xbe4dcec0	-0.200984
217	0xbde5cb66	-0.11220436
218	0xbb6f78ef	-0.0036540588
219	0x3ccadab9	0.024762498
220	0x3c91ee9a	0.01781397
221	0x3d5e91c7	0.054338243
222	0x3e594ed0	0.21221471
223	0xbe52f86c	-0.20602578
224	0xbda13d13	-0.07872977
225	0xbcd2f254	-0.025750317
226	0xbe34d0a4	-0.17657715
227	0xbd2e4546	-0.042546533
228	0xbe47f569	-0.1952721
229	0x3df5559d	0.1197922
230	0xbe023c53	-0.12718324
231	0x3dbaf27e	0.09128283
232	0x3b801292	0.0039084638
233	0x3d923343	0.07138684
234	0x3e04ef74	0.12981969
235	0xbe122c7a	-0.14274779
236	0x3c57e1a6	0.013176357
237	0x3d8a97ca	0.06767233
238	0xbe283194	-0.16425163
239	0xbe3c4963	-0.1838737
240	0xbe63bfca	-0.2224113
241	0x3e4e6735	0.20156558
242	0x3ce3c5aa	0.027804215
243	0x3df0733f	0.117407314
244	0xbe5e2954	-0.21695453
245	0x3d811a69	0.063038655
246	0x3e4922e5	0.19642217
247	0xbd554e91	-0.05207688
248	0x3dedb73f	0.11607217
249	0xbe1ca762	-0.15298226
250	0xbe5cda8b	-0.21567743
251	0x3e3f6b9c	0.18693393
252	0xbe5d4b00	-0.21610641
253	0xbdd570e8	-0.10421926
254	0xbe5b0fa8	-0.21392691
255	0x3c35f3de	0.011105506

original_model.qlstm.layers.0.0.cell_gate_params.bias f4 [20]
0	0x3e05bdf9	0.1306075
1	0xbe1f9c79	-0.15587033
2	0x3d1e0f05	0.038588542
3	0xbe192053	-0.14953737
4	0xbe1deb4e	-0.15421793
5	0xbdaa04e9	-0.08301718
6	0xbe1e2c2e	-0.1544654
7	0x3d3c1862	0.04592169
8	0x3ce9bc57	0.02853219
9	0x3bdce50a	0.006741171
10	0x3e0ec036	0.1394051
11	0x3e13aaee	0.14420673
12	0x3dcc1443	0.09964802
13	0xbe209376	-0.15681252
14	0xbdd0ecb4	-0.102013975
15	0x3e354bc9	0.17704691
16	0xbd19dced	-0.037564207
17	0x3e29267a	0.16518584
18	0x3e52da7c	0.20591158
19	0x3e46270e	0.19350836

original_model.qlstm.layers.0.0.cell_gate_params.input_weight.weight f4 [20, 10]
0	0xbe0c7e10	-0.13719964
1	0x3d73f348	0.059558183
2	0x3cf22133	0.029556846
3	0x3e4c7865	0.19967802
4	0x3d121549	0.03566483
5	0x3d92d972	0.07170381
6	0xbda026af	-0.07819878
7	0x3dfa8f91	0.12234414
8	0xbdc77b55	-0.097403206
9	0x3cc1a621	0.023638787
10	0xbe4947ea	-0.1965634
11	0x3e4466f4	0.19179899
12	0x3e631aab	0.22178142
13	0x39f7f749	0.00047295753
14	0x3e3c0a61	0.18363334
15	0xbd1c5699	-0.038168523
16	0x3c8c801a	0.017150927
17	0x3b01ec9e	0.0019824873
18	0xbd800c7a	-0.0625238
19	0xbe01138f	-0.12605117
20	0x3e502ca2	0.20329526
21	0xbd14e4be	-0.036350958
22	0xbe49073b	-0.19631664
23	0xbe0b0abb	-0.13578312
24	0x3da955b3	0.08268299
25	0xbdde0016	-0.1083986
26	0x3e5644c6	0.20924672
27	0x3e1c1042	0.15240577
28	0x3d14d28c	0.036333606
29	0x3cf03d5f	0.029326139
30	0xbd9f665a	-0.07783194
31	0xbdbd6b42	-0.092489734
32	0x3e2f5b2e	0.17124626
33	0x3d6d7655	0.05797418
34	0x3e3dc526	0.18532237
35	0x3dd6bd3e	0.10485314
36	0x3dcaaf30	0.098966956
37	0x3e4b200a	0.1983644
38	0xbcec93e7	-0.02887912
39	0x3de0f02c	0.10983309
40	0xbd2b2efe	-0.041792862
41	0xbda4d9be	-0.080493435
42	0x3e3c1c58	0.18370187
43	0x3e51520c	0.20441455
44	0x3e5a6355	0.21326955
45	0x3da8b152	0.08236946
46	0xbe5efb72	-0.21775606
47	0x3d824017	0.063598804
48	0xbe3582f6	-0.17725739
49	0x3e1bcf53	0.15215807
50	0xbd890606	-0.06690602
51	0x3d9d513c	0.0768151
52	0xbdffea4a	-0.12495859
53	0x3d85a52b	0.06525644
54	0x3e3d7d0e	0.18504736
55	0x3ba93d62	0.005164788
56	0xbddc28a3	-0.10749938
57	0xbb26964a	-0.002541917
58	0x3e1603c3	0.14649872
59	0x3e2dc23a	0.16968623
60	0x3e4bb988	0.19894993
61	0x3e2a9633	0.16658859
62	0x3dace00c	0.08441171
63	0xbe17c9cb	-0.14823072
64	0x3bc04c27	0.005868453
65	0xbdf34fe5	-0.11880473
66	0xbe492783	-0.19643979
67	0xba3da3b8	-0.0007234174
68	0x3c87e359	0.0165879
69	0xbc22ff27	-0.009948528
70	0x3e63b66d	0.22237559
71	0x3e5cc63b	0.21559994
72	0xbe4e2d54	-0.20134479
73	0xbe253816	-0.16134676
74	0x3c946d00	0.018118382
75	0xbe0db74b	-0.13839452
76	0xbe3b7610	-0.18306756
77	0xbe0bd6b7	-0.13656126
78	0xbde8ab98	-0.11360854
79	0x3d91ba03	0.07115557
80	0x3dee07cd	0.11622582
81	0x3d73ab2b	0.05948941
82	0xbbfd78ae	-0.0077353334
83	0xbd691b7c	-0.056910977
84	0xbdd9804d	-0.106201746
85	0x3da7ded2	0.081967965
86	0x3e358e86	0.1773015
87	0xbd1e6a5d	-0.038675655
88	0xbe510a9d	-0.20414205
89	0x3e51f776	0.20504555
90	0x3db5d448	0.0887838
91	0x3e20da38	0.15708244
92	0x3e589bff	0.21153258
93	0x3e53b3ec	0.20674103
94	0xbe570bce	-0.21000597
95	0x3e379ab5	0.1793011
96	0x3cae09d2	0.021244917
97	0xbe06336c	-0.13105553
98	0x3e3d8e1d	0.18511243
99	0x3d30f1d8	0.04319939
100	0x3e3798ad	0.17929335
101	0x3d882533	0.0664772
102	0x3e2c859b	0.16847841
103	0xbda22d8c	-0.079188436
104	0x3e3b090e	0.18265173
105	0xbe4cc760	-0.1999793
106	0xbd169353	-0.036761593
107	0x3e43c099	0.19116439
108	0xbd9b1a44	-0.07573369
109	0x3e112316	0.1417354
110	0xbddcaecd	-0.10775528
111	0x3dd68d92	0.10476221
112	0x3dccde92	0.100033894
113	0x3d44c2e6	0.048037432
114	0x3d8bebfa	0.06832118
115	0x3e191e80	0.14953041
116	0xbddba56c	-0.10724911
117	0xbdbe0d1f	-0.092798464
118	0x3df1aae6	0.118001744
119	0xbdb39baa	-0.08769925
120	0xbe30a4a9	-0.17250313
121	0xbe1563dd	-0.14588876
122	0xbe446c92	-0.19182041
123	0xbd2e43c4	-0.042545095
124	0xbd0ca47f	-0.034336563
125	0xbcd60276	-0.02612422
126	0xbd7298f1	-0.059227888
127	0x3e5655ee	0.20931217
128	0xbde28cc5	-0.11062006
129	0x3df811da	0.1211278
130	0x3d738700	0.059454918
131	0x3d8e296b	0.069414936
132	0xbdfa639d	-0.12226031
133	0x3e212a62	0.15738824
134	0xbce0709b	-0.027397444
135	0xbd158144	-0.03650023
136	0xbe219f5d	-0.15783449
137	0x3bfafaf4	0.0076593105
138	0x3e5645fb	0.20925133
139	0xbe3ceb23	-0.18449073
140	0xbb93d5e6	-0.0045115827
141	0x3c2181ca	0.009857604
142	0xbe3c56fc	-0.18392557
143	0xbe4b1f98	-0.19836271
144	0xbd9392e6	-0.07205753
145	0xbe37d383	-0.17951779
146	0xbe1092cc	-0.14118499
147	0xbda75193	-0.08169856
148	0x3e444de1	0.19170333
149	0x3dbd19d3	0.09233441
150	0xbd9b6684	-0.07587913
151	0xbe03304a	-0.1281139
152	0x3dd7fa7f	0.10545825
153	0xbe29e905	-0.16592796
154	0x3e5acee5	0.21367987
155	0x3dde1001	0.10842896
156	0x3d1bc837	0.038032737
157	0x3dd0c483	0.10193732
158	0xbd942893	-0.072343014
159	0x3de5af12	0.11215033
160	0xbe47a949	-0.19498171
161	0xbd4b1312	-0.049578734
162	0x3c8c7644	0.017146237
163	0xbe45b852	-0.19308594
164	0x3e43ca51	0.19120146
165	0x3e5373b2	0.20649603
166	0xbddd335c	-0.10800812
167	0xbe48aae3	-0.19596438
168	0xbdba8187	-0.09106737
169	0x3e1ef91c	0.15524715
170	0x3e0f6ae0	0.14005613
171	0xbe29ddc0	-0.16588497
172	0x3dda5338	0.10660404
173	0xbd9c04e9	-0.07618124
174	0xbe4a08b5	-0.19729884
175	0xbd703316	-0.05864247
176	0x3e10421f	0.14087723
177	0x3d40a983	0.04703666
178	0xbd10cf3d	-0.035353888
179	0xbe309721	-0.17245151
180	0x3da5e9f5	0.081012644
181	0x3e596415	0.21229585
182	0xbdfb69b2	-0.12276019
183	0xbdd14495	-0.10218159
184	0xbddf0936	-0.10890429
185	0xbcdd4ddb	-0.027014663
186	0xbe3bda87	-0.1834508
187	0x3e3c85ef	0.18410467
188	0x3e5702f2	0.20997217
189	0xbcdf4862	-0.027256195
190	0xbcd45dcd	-0.025923634
191	0x3df1367c	0.1177797
192	0x3e0cbd46	0.13744077
193	0xbe3e6d71	-0.18596436
194	0x3e430ac3	0.19047074
195	0xbe249011	-0.16070582
196	0xbe0b6eb4	-0.13616449
197	0x3dcd6295	0.10028569
198	0xbe259896	-0.16171488
199	0x3e63cb6a	0.22245565

original_model.qlstm.layers.0.0.cell_gate_params.hidden_weight.weight f4 [20, 20]
0	0x3e1bf5b7	0.15230452
1	0xbe21f5ab	-0.15816371
2	0x3e47e508	0.19520962
3	0x3dfb14eb	0.12259849
4	0x3e294a73	0.16532306
5	0x3e22d2e6	0.15900764
6	0x3d463bdf	0.04839694
7	0x3aca890d	0.0015452221
8	0x3c743758	0.014905773
9	0xbe57fef3	-0.21093349
10	0x3db7eb6e	0.089804515
11	0xbe4b3015	-0.1984256
12	0xbbf4a962	-0.007466481
13	0xbcc457bc	-0.023967616
14	0xbdff66e1	-0.124707945
15	0x3cdd4624	0.027010985
16	0xbe057a57	-0.1303495
17	0x3dd130cb	0.10214385
18	0x3d7aed49	0.06126145
19	0xbc9ca190	-0.019120008
20	0xbd108736	-0.035285197
21	0x3e533b82	0.20628169
22	0xbcdf5521	-0.027262272
23	0xbdce5a2f	-0.10075795
24	0x3e155efe	0.14587018
25	0x3d3f8b27	0.046763565
26	0xbaca2231	-0.0015421567
27	0x3c1e8e8f	0.009677543
28	0xbdce04ab	-0.10059484
29	0x3e61a0e6	0.22034034
30	0x3e4d2ad2	0.20035866
31	0x3dc24b7d	0.094870545
32	0xbe3a67a7	-0.18203603
33	0x3d35e80b	0.044410747
34	0x3e43b23c	0.1911096
35	0xbddb034f	-0.106939904
36	0xbe503053	-0.20330934
37	0xbd4ba125	-0.049714226
38	0x3dc44569	0.095835514
39	0xbdcecda2	-0.10097815
40	0x3e146667	0.14492188
41	0xbe313a20	-0.17307329
42	0xbd4e71bf	-0.050401445
43	0x3d80ba99	0.06285591
44	0xbe0c1858	-0.13681161
45	0xbdfca47a	-0.12336059
46	0xbe453d9c	-0.19261783
47	0xbdc92703	-0.09821894
48	0x3dee0c22	0.11623408
49	0xbe22f2c7	-0.15912925
50	0xbdce251e	-0.10065673
51	0x3e32007d	0.17382999
52	0xbe427b0f	-0.18992256
53	0xbdb77d3f	-0.08959436
54	0xbe268e74	-0.16265279
55	0xbdf547cf	-0.11976587
56	0x3d63a309	0.055575404
57	0xbe52bf01	-0.20580675
58	0xbe5e3dc7	-0.21703254
59	0x3dbcbea2	0.09216048
60	0x3d0aaa55	0.033853848
61	0x3e41c9fc	0.18924707
62	0xbdfdeaa3	-0.12398269
63	0xbd590294	-0.052980974
64	0xbe064ba6	-0.13114795
65	0x3e2bf651	0.16793181
66	0xbe2df2da	-0.16987172
67	0xbe39383c	-0.18087858
68	0xbe4500d6	-0.192386
69	0x3e09d91b	0.13461725
70	0xbde964f0	-0.113962054
71	0xbe4bc1e7	-0.19898187
72	0xbd0f5ab6	-0.034998618
73	0xbe5829e0	-0.21109724
74	0x3dee0831	0.11622656
75	0x3d3a8318	0.045535177
76	0xbd41a68d	-0.047277976
77	0xbb88397e	-0.004157244
78	0xbd8f1ed7	-0.06988304
79	0x3e258cba	0.16166964
80	0x3d309df0	0.04311937
81	0xbd7adb33	-0.0612442
82	0x3dadc99b	0.08485719
83	0x3e2267e7	0.15859948
84	0x3e1539dc	0.14572853
85	0x3c9a1c91	0.01881245
86	0xbe516ef1	-0.20452477
87	0xbe13c8dc	-0.1443209
88	0x3db45fde	0.08807348
89	0x3e589f31	0.21154477
90	0x3e1b8693	0.15188055
91	0xbe5014b5	-0.20320399
92	0xbd0959a3	-0.03353275
93	0x3e59a420	0.21254015
94	0x3da3c58c	0.079966635
95	0x3db840bc	0.08996722
96	0xbd221a52	-0.039575882
97	0xbda2d9d6	-0.07951705
98	0xbd87c2d0	-0.066289544
99	0x3d818d15	0.063257374
100	0x3e5050b6	0.20343289
101	0xbe25cfb4	-0.16192514
102	0xbda89cc0	-0.08233023
103	0xbe2b0adf	-0.16703366
104	0xbe2c36d9	-0.16817798
105	0x3e214ddf	0.15752362
106	0xbe5978ad	-0.2123744
107	0x3e1ad423	0.15119986
108	0xbd810e41	-0.06301547
109	0x3d8eac90	0.069665074
110	0xbe316cfd	-0.17326732
111	0x3e5abe0f	0.21361564
112	0xbe63b1c9	-0.22235788
113	0x3c1ec18b	0.009689699
114	0xbdb6eca8	-0.08931857
115	0x3e4be457	0.19911323
116	0xbd86dfc1	-0.065856464
117	0x3e00f8ea	0.12594953
118	0x3dfdb68c	0.12388334
119	0x3cafef71	0.02147648
120	0x3e4d4ca0	0.20048761
121	0xbbb473d2	-0.005506971
122	0xbc983094	-0.018577851
123	0x3d233b80	0.039851665
124	0xbe0474d5	-0.12935193
125	0xbd1684ee	-0.036747865
126	0x3db07d15	0.086176075
127	0x3d98cb5e	0.07460664
128	0xbe1c7b90	-0.1528151
129	0xbd4d680b	-0.05014805
130	0x3d6478c6	0.05577924
131	0xbd8d0758	-0.06886166
132	0xbdb526eb	-0.08845314
133	0xbd800f09	-0.06252868
134	0x3e2c4951	0.16824843
135	0x3d257b25	0.040400643
136	0xbcd7016d	-0.026245797
137	0xbd741fd6	-0.059600674
138	0xbe39f2a1	-0.18158962
139	0xbd1a3344	-0.037646547
140	0x3d35ad92	0.044354983
141	0x3e0372ea	0.12836805
142	0x3e037cb4	0.12840539
143	0xbe193fd0	-0.14965749
144	0x3e3f7ef2	0.1870077
145	0x3e462f00	0.19353867
146	0xbd876d3e	-0.06612633
147	0xbe4e55f8	-0.20149982
148	0x3d20166e	0.03908389
149	0xbe21407f	-0.1574726
150	0x3e307f2f	0.17236017
151	0xbe101ac5	-0.14072712
152	0x3d2571a4	0.04039158
153	0x3e4fa2bb	0.2027692
154	0xbd7fb096	-0.062424265
155	0xbd9b2f3a	-0.07577367
156	0xbe1c2dbc	-0.15251821
157	0x3d28e495	0.041233618
158	0x3e212c9c	0.15739673
159	0xbe285d81	-0.16441919
160	0xbb3f8322	-0.0029222448
161	0x3b7cf330	0.00385971
162	0xbd90f90e	-0.070787534
163	0x3e05b351	0.13056685
164	0xbe630d6b	-0.22173087
165	0x3b7ec365	0.0038873788
166	0x3e53b8b5	0.20675929
167	0xbd652d7a	-0.055951573
168	0xbde0ea34	-0.10982171
169	0xbe5cfc77	-0.21580683
170	0x3e60e297	0.21961437
171	0x3dae7d58	0.08520001
172	0x3e13cad8	0.14432847
173	0x3d7ca017	0.06167611
174	0x3d7e8151	0.062135044
175	0x3e1ce3cc	0.15321273
176	0xbd612a1d	-0.054971803
177	0x3ddcd1ac	0.10782179
178	0x3e31caed	0.17362566
179	0x3db9232a	0.0903991
180	0x3e6115d2	0.2198098
181	0x3e4eff7e	0.2021465
182	0xbdd3a024	-0.10333279
183	0x3e048a39	0.12943353
184	0xbe3c7f95	-0.18408044
185	0xbe1e5368	-0.15461504
186	0x3df506cb	0.11964186
187	0x3e0f4013	0.13989286
188	0xbd716b04	-0.05893995
189	0x3e57599b	0.21030276
190	0x3d109eb0	0.035307586
191	0xbb42d94f	-0.0029731577
192	0x3df9caf9	0.12196917
193	0x3ddffcfc	0.10936925
194	0xbe34b995	-0.17648919
195	0x3e562931	0.20914151
196	0xbe48ef80	-0.19622612
197	0xbbd7367a	-0.0065677734
198	0xbc34eac8	-0.011042304
199	0xbd371bba	-0.044704176
200	0x3dd632df	0.10458922
201	0xbd9d67f5	-0.07685844
202	0xbe563b70	-0.20921111
203	0xbde17827	-0.11009245
204	0xbd171646	-0.036886476
205	0xbc546e2e	-0.012965722
206	0xbe146fbb	-0.14495747
207	0x3e26522e	0.16242287
208	0xbba3ee4d	-0.005002773
209	0x3e38f28d	0.18061276
210	0x3d27f64d	0.041006375
211	0xbe3b9c4f	-0.18321346
212	0xbe60f50d	-0.2196848
213	0x3dc8e183	0.09808638
214	0xbc91b9aa	-0.017788727
215	0x3e557617	0.20845829
216	0xbe497244	-0.19672495
217	0x3e1c25fe	0.15248868
218	0x3e195992	0.14975575
219	0x3e5a9d3b	0.21349041
220	0xbe5e26fa	-0.21694556
221	0x3e0ae6a1	0.1356454
222	0x3d2dfa65	0.042475123
223	0x3def0ea6	0.11672716
224	0x3e0feaf7	0.14054476
225	0xbda6ab15	-0.081381
226	0xbe2fc8fc	-0.17166513
227	0xbc306e3a	-0.010768468
228	0xbe090395	-0.13380273
229	0x3de0e8fa	0.10981937
230	0x3d2aa5cf	0.041662034
231	0xbd9073e5	-0.07053355
232	0xbe56a3fb	-0.20960991
233	0xbe0250b2	-0.12726095
234	0xbe44449f	-0.19166802
235	0x3b473e0d	0.0030401975
236	0xbe1a0977	-0.15042673
237	0x3d669a75	0.056299645
238	0xbc77b4c3	-0.015118781
239	0xbdd3c36d	-0.10340009
240	0xbcea8046	-0.028625619
241	0xbe1bea2b	-0.15226047
242	0xbdcc5d7e	-0.0997877
243	0x3db0bb66	0.086294934
244	0x3e4c9cae	0.19981644
245	0xbd7b1a7b	-0.06130455
246	0xbc6d1c14	-0.014472026
247	0xbdd7a017	-0.105285816
248	0xbd5ae4c9	-0.053440843
249	0x3cbd33bf	0.023095964
250	0xbdd98176	-0.10620396
251	0x3e0f9e9c	0.14025348
252	0x3dc6b5e7	0.09702664
253	0x3b855af2	0.0040696794
254	0xbcc7248f	-0.024309425
255	0x3e368c26	0.178269

original_model.qlstm.layers.0.0.output_gate_params.bias f4 [20]
0	0xbce690d1	-0.028145226
1	0x3e5d775f	0.21627568
2	0xbc8ae74b	-0.016955992
3	0xbd4d9e13	-0.05019958
4	0xbe00c598	-0.12575376
5	0xbe5894c9	-0.21150507
6	0x3c7c76dc	0.015409198
7	0xbe0e9079	-0.139223
8	0xbe3bf829	-0.18356384
9	0xbe252ea5	-0.16131075
10	0xbd0df1ab	-0.0346543
11	0x3e32b61e	0.17452285
12	0x3b3eaa3c	0.0029093167
13	0x3baa7c3f	0.0052027996
14	0xbd2f1088	-0.042740375
15	0x3d4f2ad6	0.05057796
16	0x3d1836a4	0.037161484
17	0xbd834cd0	-0.06411135
18	0xbd4eb413	-0.0504647
19	0x3e05d51a	0.13069573

original_model.qlstm.layers.0.0.output_gate_params.input_weight.weight f4 [20, 10]
0	0xbdaeafda	-0.08529635
1	0x3e61c55a	0.2204794
2	0x3e54cfe2	0.20782426
3	0x3dcda484	0.100411445
4	0x3dab1c40	0.08354998
5	0x3bbabcac	0.005698761
6	0xbe0fdb69	-0.14048542
7	0x3dd4ef9b	0.103972636
8	0xbd1409ea	-0.036142267
9	0x3ce0dd47	0.027449263
10	0x3cb7027d	0.022340054
11	0xbd90c8c5	-0.07069544
12	0xbd62502f	-0.05525225
13	0x3e040d4a	0.12895694
14	0x3dd7ba97	0.10533636
15	0x3e2cd8fd	0.1687965
16	0x3df28d26	0.11843328
17	0xbe50b63c	-0.20382017
18	0x3e5818ea	0.21103254
19	0x3d91a7e7	0.07112103
20	0x3e61d659	0.22054423
21	0xbe3d5ad3	-0.18491678
22	0x3d7a1d5c	0.061063156
23	0x3e4d9589	0.20076574
24	0xbd65b135	-0.0560772
25	0xbdcd73f0	-0.10031879
26	0x3df27043	0.118378185
27	0xbe42d034	-0.19024736
28	0x3de1bb52	0.11022057
29	0x3c3e26fa	0.011605972
30	0x3e1b82bf	0.15186594
31	0xbdb39715	-0.08769051
32	0xbd62824d	-0.055300046
33	0xbce08ecb	-0.027411839
34	0xbe35e4ff	-0.17763136
35	0xbdffb28e	-0.124852285
36	0xbcd63922	-0.02615029
37	0x3d68eb68	0.056865126
38	0x3e3db610	0.18526483
39	0x3db5cfc5	0.088775195
40	0x3e2d04d3	0.16896372
41	0x3e574b88	0.21024907
42	0x3cd3beed	0.025847876
43	0x3e47137d	0.19441028
44	0x3b7d0e77	0.0038613358
45	0xbe3534b2	-0.17695883
46	0x3e29bd13	0.16576032
47	0xbdf521b6	-0.119693205
48	0xbd3f7dd2	-0.04675085
49	0xbe13a486	-0.1441823
50	0x3df47128	0.11935645
51	0x3e4952fe	0.19660565
52	0x3d72e18f	0.05929714
53	0x3db554b3	0.08854046
54	0xbe4e348a	-0.2013723
55	0x3e48564f	0.19564174
56	0xbe51b323	-0.20478491
57	0xbe59c2c6	-0.21265706
58	0xbe36853d	-0.17824264
59	0x3c9fd641	0.019511344
60	0xbce52ee7	-0.027976466
61	0xbc163d99	-0.009169959
62	0x3e5c1003	0.21490483
63	0x3dd64396	0.1046211
64	0x3db95dce	0.09051095
65	0xbdc3b68a	-0.09556301
66	0x3e2d6b33	0.16935425
67	0xbe1e79be	-0.15476128
68	0x3c9fa94f	0.019489912
69	0xbd95408c	-0.07287702
70	0x3e557d6f	0.2084863
71	0xbdc8214b	-0.09771975
72	0x3e603d96	0.21898493
73	0xbdade09c	-0.084901065
74	0xbde5f15f	-0.112276785
75	0x3e278893	0.16360693
76	0x3d92f745	0.07176069
77	0x3e2b7794	0.16744834
78	0xbe322704	-0.17397696
79	0x3e490a4e	0.19632837
80	0xbe2bde4b	-0.16784017
81	0x3d2bc0fa	0.041932084
82	0xbdbef011	-0.09323133
83	0x3dd17e1b	0.10229131
84	0xbcee7093	-0.029106414
85	0x3e166f06	0.1469079
86	0x3e1b1a55	0.15146764
87	0xbb1a85d5	-0.0023578305
88	0x3dff97bd	0.12480114
89	0x3bac9fa2	0.005268053
90	0x3e26c7e3	0.16287188
91	0xbd9cccb1	-0.07656229
92	0xbdce4555	-0.10071818
93	0xb92968fc	-0.00016156206
94	0x3d395683	0.04524852
95	0x3d2392a6	0.039934777
96	0x3d968a3d	0.073505856
97	0x3c9fc509	0.019503133
98	0xbd805aec	-0.06267342
99	0xbc13eace	-0.00902815
100	0xbe17b416	-0.14814791
101	0x3d474e59	0.048658703
102	0x3dc390dd	0.09549115
103	0xbdd4d690	-0.10392487
104	0x3dde87bb	0.10865732
105	0x3e4481b7	0.19190107
106	0x3cf04000	0.029327393
107	0x3d0cfffa	0.034423806
108	0xbddac077	-0.10681241
109	0x3ced36b0	0.028956741
110	0xbe56db4f	-0.20982097
111	0xbe199bce	-0.15000841
112	0x3b861083	0.004091324
113	0x3e4a597a	0.19760695
114	0xbc202632	-0.0097747315
115	0xbc2cd1b9	-0.010548049
116	0xbcbb4cca	-0.022863764
117	0xbda72edf	-0.08163237
118	0xbd336705	-0.04379942
119	0xbe0f8d0b	-0.14018647
120	0x3d912fb3	0.07089176
121	0xbdd32e56	-0.10311572
122	0x3d3504a3	0.044193875
123	0x3d30ea54	0.043192223
124	0x3b143a13	0.0022617623
125	0x3e1feddc	0.1561808
126	0x3e430252	0.19043854
127	0xbe1555e6	-0.14583549
128	0x3d7398b9	0.05947182
129	0x3d1a570b	0.037680667
130	0xbdc4a0af	-0.096009605
131	0x3e3be431	0.18348767
132	0xbdc5a33b	-0.09650274
133	0x3e191e92	0.14953068
134	0xbd6b7483	-0.05748416
135	0xbe3c3cfe	-0.18382642
136	0xbd2e8eb3	-0.042616557
137	0xbe5d8408	-0.21632397
138	0xbdd31f57	-0.10308712
139	0xbd65aef9	-0.05607507
140	0x3dc13564	0.094340116
141	0xbe5f3f6b	-0.21801536
142	0xbdea937a	-0.1145391
143	0x3dbcb0f0	0.09213436
144	0x3db04038	0.08605999
145	0x3e5426b2	0.20717886
146	0xbd36cd8c	-0.04462962
147	0x3e396866	0.18106231
148	0x3e32f6b1	0.17476918
149	0x3dedf4d2	0.116189614
150	0xbc8d7575	-0.017267922
151	0xbe39a1f3	-0.18128185
152	0xbe1cca56	-0.1531156
153	0x3bd21897	0.0064116227
154	0xbdcaf0d5	-0.09909216
155	0x3e36fbef	0.17869543
156	0x3db83b05	0.08995632
157	0x3b0a6764	0.0021118755
158	0xbd9ab94a	-0.07554872
159	0x3e16a518	0.14711416
160	0x3e06e184	0.13171965
161	0xbe1000cb	-0.14062802
162	0xbe3f418a	-0.18677345
163	0x3e52d3cc	0.20588607
164	0xbe4ba8c8	-0.19888604
165	0x3e54699c	0.20743412
166	0x3dde7577	0.108622484
167	0x3e0b8ae2	0.13627198
168	0x3d9edbdb	0.07756778
169	0x3d1d74a6	0.038441323
170	0xbe3244e2	-0.17409089
171	0xbaa6cea3	-0.0012726377
172	0xbe49a5f6	-0.19692215
173	0x3e4836eb	0.195522
174	0x3e00e6ea	0.12588087
175	0x3e526c58	0.20549142
176	0x3e551343	0.20808129
177	0xbe11286b	-0.14175574
178	0xbc4925bd	-0.012277064
179	0xbd7eced3	-0.06220896
180	0xbd1c2983	-0.038125526
181	0x3e37f6be	0.17965218
182	0xbda5f30b	-0.081029974
183	0xbe2475b2	-0.16060522
184	0x3d018142	0.03161741
185	0xbda59e00	-0.08086777
186	0x3dd25b44	0.10271314
187	0xbe563506	-0.20918664
188	0x3e4742bf	0.19459055
189	0xbd7991a9	-0.060929928
190	0x3d92cb91	0.071677335
191	0xbe43f382	-0.1913586
192	0xbd238a84	-0.03992702
193	0x3e4539ed	0.19260378
194	0x3d002dd2	0.031293698
195	0xbbd3984d	-0.0064573647
196	0x3d52bddd	0.0514506
197	0xbd2afe86	-0.04174664
198	0xbe029852	-0.12753418
199	0xbcf98ffc	-0.030464165

original_model.qlstm.layers.0.0.output_gate_params.hidden_weight.weight f4 [20, 20]
0	0xbe25dd9e	-0.16197821
1	0xbcdce02d	-0.026962364
2	0xbdd84f42	-0.10561992
3	0x3d7087dc	0.058723316
4	0x3daeb640	0.08530855
5	0x3d1267af	0.03574341
6	0x3dac05d2	0.08399548
7	0x3cd5ac7c	0.026083224
8	0xbe5838a2	-0.21115354
9	0xbe262382	-0.16224483
10	0x3de32252	0.110905305
11	0x3e11be38	0.14232719
12	0xbd9d1458	-0.07669896
13	0x3e08a71c	0.13344997
14	0x3e22ad25	0.15886362
15	0x3d098308	0.033572227
16	0xbc9d2aa2	-0.019185368
17	0x3e300acc	0.17191619
18	0x3e0e2316	0.13880572
19	0x3e2ecacd	0.1706955
20	0xbc36f7b3	-0.0111674545
21	0xbdda4553	-0.10657754
22	0xbe0e26b8	-0.13881958
23	0x3dfb3f4f	0.122679345
24	0xbdf6fa63	-0.12059476
25	0x3e40915c	0.1880545
26	0x3dc93a9e	0.098256335
27	0xbc44404f	-0.011978223
28	0xbe1042ed	-0.1408803
29	0x3e249482	0.16072276
30	0x3e3b3a27	0.18283902
31	0x3dbe0796	0.09278791
32	0x3df754dd	0.12076733
33	0xbe605ecd	-0.21911164
34	0x3e463e6a	0.19359747
35	0xbe3899cd	-0.1802742
36	0xbe18752f	-0.14888452
37	0xbe38b2dc	-0.1803698
38	0x3cc60ad1	0.02417508
39	0xbd815c40	-0.063164234
40	0xbe0f92bd	-0.1402082
41	0xbdbe338a	-0.09287174
42	0xbcef03fd	-0.029176706
43	0xbe0f6abf	-0.14005564
44	0x3e540507	0.20705043
45	0x3cc99aa1	0.024609866
46	0x3bda4232	0.006660723
47	0x3e621517	0.22078358
48	0x3e4fd3b3	0.202956
49	0x3e456938	0.19278419
50	0x3e5688a7	0.20950566
51	0xbe2d3726	-0.16915569
52	0x3d6ba3aa	0.05752913
53	0x3dd65e40	0.104671955
54	0x3c94880e	0.018131282
55	0xbe4ec39f	-0.20191811
56	0xbd119985	-0.0355468
57	0x3e1d4a26	0.15360317
58	0x3db70215	0.08935944
59	0x3d6197d2	0.055076428
60	0x3dc4037d	0.09570978
61	0x3d9e6b57	0.07735317
62	0x3e2f7ec1	0.17138197
63	0x3deb3811	0.11485303
64	0x3e312d16	0.17302355
65	0x3e029405	0.12751777
66	0xbd4869a8	-0.048928887
67	0xbda35c98	-0.07976645
68	0xbe27cf34	-0.16387635
69	0x3cdff933	0.027340507
70	0xbe29d969	-0.16586842
71	0xbe27db2f	-0.16392206
72	0xbd3fd3fe	-0.04683303
73	0xbdd22a0c	-0.10261926
74	0x3df6bdaa	0.12047894
75	0xbd926aff	-0.07149314
76	0xbdfe4a8c	-0.124165624
77	0xbdaa7021	-0.08322168
78	0x3e4b9f8f	0.19885086
79	0x3e3bc5cb	0.18337171
80	0xbdb79525	-0.08963994
81	0x3e5753d5	0.21028073
82	0xbb6e63a9	-0.003637532
83	0x3e35491f	0.17703675
84	0xbd3353e7	-0.043781187
85	0x3e119bae	0.14219543
86	0x3e345607	0.17610942
87	0xbe4bb470	-0.1989305
88	0xbd18fc01	-0.037349705
89	0xbd9359fe	-0.07194899
90	0xbdf83b6b	-0.12120708
91	0xbde207d2	-0.11036648
92	0xbca52b18	-0.02016215
93	0x3e1949d2	0.14969566
94	0xbe26c0c2	-0.16284469
95	0x3dcd4233	0.10022392
96	0x3da3ce5e	0.07998346
97	0x3e1c68d4	0.15274364
98	0x3dbd67c0	0.09248304
99	0x3e404bbe	0.18778893
100	0xbe417109	-0.18890776
101	0xbd8b9fd0	-0.06817591
102	0xbe11601e	-0.14196822
103	0x3e1a418a	0.15064064
104	0xbe16c801	-0.14724733
105	0xbdb2583b	-0.08708235
106	0xbda7b1fd	-0.081882454
107	0x3e4eb3a4	0.20185715
108	0xbdb8b58e	-0.09019004
109	0x3de1f2c6	0.110326335
110	0x3d63c3c4	0.05560662
111	0x3e174bef	0.1477506
112	0x3d9a9f64	0.075499326
113	0xbdef1cb9	-0.116754
114	0xbe4530ae	-0.19256851
115	0xbdcf113c	-0.10110709
116	0xbd92d8c6	-0.071702525
117	0x3e3a8f4a	0.18218723
118	0xbe4a0b92	-0.19730976
119	0xbdab5cf5	-0.083673395
120	0x3e37b836	0.17941365
121	0xbe55c438	-0.20875633
122	0x3e423cc0	0.18968487
123	0xbd6ab87c	-0.057304844
124	0x3db4e9d1	0.088336594
125	0xbdb6768a	-0.08909328
126	0xbda6e68c	-0.08149442
127	0xbd79a4c0	-0.060948133
128	0xbce92669	-0.028460698
129	0x3d909936	0.07060473
130	0xbd836e33	-0.06417503
131	0xbe0d0249	-0.13770403
132	0x3e0528c0	0.13003826
133	0x3e2d3e90	0.16918397
134	0x3db22237	0.08697932
135	0xbe170ff7	-0.14752184
136	0xbdcd56f0	-0.10026348
137	0x3cf64341	0.030061366
138	0xbdf3597f	-0.118823044
139	0xbdedbef9	-0.11608691
140	0x3d22d227	0.0397512
141	0x3e37afbc	0.17938131
142	0xbdcb1e07	-0.09917837
143	0xbdcbab84	-0.099448234
144	0xbe2cc8e7	-0.16873513
145	0x3e1a22c6	0.15052328
146	0xbdd309a7	-0.103045754
147	0x3db838e5	0.08995227
148	0xbe59a6bd	-0.21255012
149	0xbdec7e97	-0.115475826
150	0x3dd56161	0.10418964
151	0x3e634243	0.22193246
152	0xbdcf5db5	-0.10125295
153	0x3e52ac78	0.20573604
154	0x3ce81078	0.028328165
155	0x3d9ac28e	0.075566396
156	0x3da55f6b	0.0807484
157	0xbdb3fa6f	-0.08788001
158	0xbe51d958	-0.20493066
159	0x3cd31092	0.025764737
160	0x3e01492b	0.12625568
161	0x3dbf5cd0	0.093438745
162	0x3e2a1b9e	0.16612098
163	0x3db82477	0.0899133
164	0xbd63bf76	-0.055602513
165	0xbe637715	-0.22213395
166	0x3d0308d2	0.031990834
167	0x3e35cbc5	0.17753513
168	0x3d75fba4	0.060054436
169	0xbe5b849a	-0.21437302
170	0xbd87a8a7	-0.06623965
171	0xbdd465a7	-0.10370951
172	0xbb1a3d62	-0.0023535122
173	0xbdb146d8	-0.086560905
174	0xbdd6cb6d	-0.10488019
175	0x3e03c1be	0.12866876
176	0x3e5bfc5f	0.2148299
177	0xbe224e46	-0.15850171
178	0xbdeb9064	-0.1150215
179	0xbe222cf6	-0.15837464
180	0x3e26b6a6	0.16280612
181	0xbdc0b396	-0.09409253
182	0xbc9ca368	-0.019120887
183	0x3d6292f6	0.055315934
184	0xbd8b7480	-0.0680933
185	0xbe20b005	-0.15692146
186	0xbe1147fd	-0.14187618
187	0x3d659a6e	0.05605548
188	0x3dafc0ca	0.085816935
189	0x3e19a42f	0.15004037
190	0xbe14a1ce	-0.14514849
191	0x3e058af3	0.13041286
192	0xbdec468f	-0.115368955
193	0xbdb3b7c1	-0.08775283
194	0x3e0dfbb2	0.13865545
195	0x3dfd2456	0.12360446
196	0x3e524a19	0.20536079
197	0x3e278534	0.16359407
198	0xbcb6795c	-0.022274666
199	0x3cf3cd5a	0.029761005
200	0xbc815dca	-0.015791792
201	0xbe5f59c1	-0.21811582
202	0xbe4d3eb5	-0.20043452
203	0x3e446a03	0.19181065
204	0xbe0b39b5	-0.13596232
205	0xbd95d55f	-0.07316088
206	0x3d4569a7	0.04819646
207	0x3d685cc6	0.0567291
208	0x3df7f6b3	0.12107601
209	0xbe43cb0d	-0.19120426
210	0x3dd7f23d	0.1054425
211	0xbda59b67	-0.08086281
212	0x3dff3de0	0.124629736
213	0x3d37a273	0.044832658
214	0x3d567fb5	0.052367885
215	0x3cf3fba4	0.029783078
216	0xbe4cf70e	-0.20016119
217	0x3d523b63	0.051326167
218	0xbdaeb6e8	-0.0853098
219	0xbe43a160	-0.19104528
220	0xbe2064a1	-0.15663387
221	0x3d40b6bb	0.047049265
222	0x3dfec31a	0.124395564
223	0xbe14fd80	-0.14549828
224	0x3e5207bc	0.20510763
225	0xbdb548d2	-0.0885178
226	0xbda4d374	-0.08048144
227	0xbdb371e4	-0.08761957
228	0xbd0851ab	-0.03328101
229	0x3e581d65	0.21104963
230	0x3e223bd3	0.15843134
231	0x3e1f5475	0.15559562
232	0xbe30153e	-0.17195603
233	0xbe4fcad9	-0.20292224
234	0xbd14c82d	-0.036323715
235	0xbd1a1640	-0.037618876
236	0xbdb65c47	-0.08904319
237	0x3e2459e4	0.16049916
238	0x3cec9b64	0.02888269
239	0x3e079695	0.13241036
240	0x3b81c13d	0.0039598034
241	0x3dd0eb7d	0.10201166
242	0x3df592c2	0.119908825
243	0x3dea91bf	0.1145358
244	0xbe5563f5	-0.20838912
245	0x3e2888f6	0.16458496
246	0xbb83f041	-0.004026443
247	0xbe5391fd	-0.20661159
248	0x3da5bc2c	0.080925316
249	0xbd74537d	-0.059649933
250	0xbe0effd4	-0.13964778
251	0xbdbcb525	-0.09214238
252	0x3e418d12	0.1890147
253	0xbd4c7e35	-0.049925048
254	0x3d49de0c	0.049284026
255	0x3d58bc2b	0.052913826
