estimates_output/cnn_lstm_real_c0.5subcnn/intermediate_models/step_qonnx_to_finn.onnx (onnx, 130369 bytes, 15 tensors)

BatchNormalization_0_param0 f4 [32]
0.69187397 0.5863922 0.7744048 0.00012428514 0.70099485 1.4464126 4.0229e-40 1.0058025
1.0011265 0.8866316 0.9928256 0.73848194 4.5068455e-10 3.2916772e-09 1.0204194 3.9139348e-07
-6.27822e-40 0.7115589 0.6260367 0.7658699 0.9958709 3.5650635e-05 0.00011111586 0.5380341
1.4924932 0.6377003 -0.00033940386 0.7519675 0.86245674 0.8600346 1.61437e-40 0.8052448
00000000: a71e 313f cd1d 163f 653f 463f 8a52 0239
00000010: 6674 333f 0c24 b93f 6c61 0400 23be 803f
00000020: ea24 803f 4afa 623f d229 7e3f 270d 3d3f
00000030: 36c4 f72f cc33 6231 1a9d 823f b620 d234
00000040: 1dd6 0680 b928 363f f143 203f 0d10 443f
00000050: 65f1 7e3f 9487 1538 e006 e938 9abc 093f
00000060: 040a bf3f 5440 233f 04f2 b1b9 f180 403f
00000070: f7c9 5c3f 3a2b 5c3f 05c2 0100 8624 4e3f

BatchNormalization_0_param1 f4 [32]
0.23363699 0.30792892 -0.20306422 -0.049383 -0.05907075 -0.00798377 -0.05370811 0.09983106
0.43768448 0.47150886 0.43617204 0.06893495 -0.046573162 0.05562545 0.4098504 0.05047454
0.069541454 0.37629482 -0.032921996 0.08505256 0.40376735 0.04823072 -0.05896958 0.24485347
-0.02803884 0.04137406 -0.057209183 0.39439014 0.43283513 0.0060169194 -0.05312944 0.006184562
00000000: 893e 6f3e dca8 9d3e 11f0 4fbe d445 4abd
00000010: 2cf4 71bd 5cce 02bc 09fd 5bbd 3a74 cc3d
00000020: 2e18 e03e 9c69 f13e f151 df3e c42d 8d3d
00000030: 80c3 3ebd 83d7 633d e9d7 d13e 64be 4e3d
00000040: c06b 8e3d b7a9 c03e 37d9 06bd 0930 ae3d
00000050: 98ba ce3e 938d 453d 168a 71bd deba 7a3e
00000060: b6b1 e5bc d977 293d 2d54 6abd 81ed c93e
00000070: 919c dd3e 9429 c53b 419e 59bd dea7 ca3b

BatchNormalization_0_param2 f4 [32]
0.029841596 0.10982643 0.123241715 6e-45 0.1435633 0.0034302187 6e-45 0.0005104624
0.012350897 0.03182647 0.015060927 0.17768857 6e-45 6e-45 0.005777861 6e-45
6e-45 0.09484474 0.18898514 0.042905893 0.0048440993 6e-45 6e-45 0.12417395
0.0028609247 0.18888539 6e-45 0.049981985 0.059810363 0.12298199 6e-45 0.052192837
00000000: 5d76 f43c aeec e03d 2766 fc3d 0400 0000
00000010: 4202 133e 85cd 603b 0400 0000 8dd0 053a
00000020: 6b5b 4a3c 795c 023d 1bc2 763c fef3 353e
00000030: 0400 0000 0400 0000 3654 bd3b 0400 0000
00000040: 0400 0000 f63d c23d 5285 413e 17be 2f3d
00000050: 40bb 9e3b 0400 0000 0400 0000 e94e fe3d
00000060: 5a7e 3b3b 2c6b 413e 0400 0000 e9b9 4c3d
00000070: b6fb 743d fbdd fb3d 0400 0000 28c8 553d

BatchNormalization_0_param3 f4 [32]
0.0011561824 0.015949225 0.00082907535 6e-45 0.0021028845 0.00041257904 6e-45 4.436413e-05
0.00074577285 0.00228414 0.0009791069 0.0053859623 6e-45 6e-45 0.00018132887 6e-45
6e-45 0.017159386 0.0050704572 0.00012218725 0.000111153415 6e-45 6e-45 0.018852998
0.00027990644 0.0054958686 6e-45 0.0048424974 0.006739053 0.00039014575 6e-45 9.858797e-05
00000000: 0b8b 973a f3a7 823c 4e56 593a 0400 0000
00000010: 8cd0 093b 6c4f d839 0400 0000 9f13 3a38
00000020: f87f 433a 83b1 153b 6055 803a ba7c b03b
00000030: 0400 0000 0400 0000 1923 3e39 0400 0000
00000040: 0400 0000 d791 8c3c 1426 a63b 641f 0039
00000050: 091b e938 0400 0000 0400 0000 9a71 9a3c
00000060: 68c0 9239 b016 b43b 0400 0000 d0ad 9e3b
00000070: 46d3 dc3b 7a8c cc39 0400 0000 03c1 ce38

BatchNormalization_1_param0 f4 [64]
0.68362784 0.91048485 0.744946 0.7709811 0.92731553 0.8936888 0.8323583 0.96402466
0.7759344 1.0898349 0.7623914 0.9689942 0.96385276 1.0107756 1.0255497 1.0493201
0.7905732 0.90050644 0.88698184 0.8666747 0.82699984 0.7577542 0.9112561 1.0158144
0.9442731 0.77412415 1.0321755 0.87195694 1.1343898 0.94349223 0.81580323 0.87673277
0.8911557 1.0997632 1.0431132 0.98774725 0.81297684 0.8171881 0.84259206 0.8223919
0.7417423 0.8632397 0.84851235 0.987373 0.86852074 1.1221675 0.8415702 0.79223835
0.93828034 1.2380939 0.8240694 0.90806776 1.0403876 0.8725551 0.9291571 0.7729886
0.7501942 0.8293543 0.8946735 0.91527104 0.7814711 0.86604685 0.9105708 0.9425251
00000000: 3c02 2f3f 8915 693f c8b4 3e3f 045f 453f
00000010: 8d64 6d3f cac8 643f 6f15 553f 52ca 763f
00000020: a3a3 463f b67f 8b3f 152c 433f 0110 783f
00000030: 0ebf 763f 1861 813f 3645 833f 1f50 863f
00000040: 0163 4a3f 9787 663f 3e11 633f 65de 5d3f
00000050: 43b6 533f 2efc 413f 1448 693f 3506 823f
00000060: e2bb 713f 002d 463f 541e 843f 9238 5f3f
00000070: af33 913f b588 713f 7bd8 503f 8f71 603f
00000080: c822 643f 0ac5 8c3f bc84 853f 01dd 7c3f
00000090: 401f 503f 3d33 513f 1db4 573f 4788 523f
000000a0: d3e2 3d3f 47fd 5c3f 1b38 593f 7ac4 7c3f
000000b0: 6057 5e3f 2fa3 8f3f 2571 573f 22d0 4a3f
000000c0: 2433 703f dc79 9e3f 36f6 523f 2177 683f
000000d0: 6c2b 853f c55f 5f3f 3ddd 6d3f 95e2 453f
000000e0: ba0c 403f 9050 543f 5309 653f 344f 6a3f
000000f0: 7d0e 483f 3fb5 5d3f 2b1b 693f 5349 713f

BatchNormalization_1_param1 f4 [64]
0.10807397 0.1529568 0.027441062 -0.037047643 0.12467943 0.1074064 0.11341639 0.069108985
0.052032717 0.040701766 0.039755516 0.120344594 0.049528252 0.1417053 0.01306874 -0.062338077
0.10745724 0.23284544 0.14451279 0.07468945 0.041719314 0.07052039 0.08967347 0.053356614
0.18985501 0.08862557 0.109566614 0.06172273 0.028072832 0.08146201 0.06303216 0.047443714
0.05324581 0.109347224 0.062726825 0.08968955 0.13553932 0.06327523 0.065508194 0.082597576
-0.02783119 0.1601801 0.1596676 0.121821925 0.16734064 0.01939146 0.11390634 0.07267959
0.06295971 0.2054848 0.10697754 0.059487414 0.1571219 0.07936951 0.12681808 0.047822066
0.13563882 0.13640602 0.08871468 -0.04068318 0.08450495 0.020104252 -0.03604191 0.060737994
00000000: e355 dd3d b5a0 1c3e 14cc e03c 45bf 17bd
00000010: ee57 ff3d e3f7 db3d da46 e83d 0389 8d3d
00000020: 4220 553d e5b6 263d aed6 223d 3a77 f63d
00000030: 23de 4a3d 321b 113e 451e 563c 3656 7fbd
00000040: 8b12 dc3d 096f 6e3e 29fb 133e c8f6 983d
00000050: dfe1 2a3d ff6c 903d b9a6 b73d 778c 5a3d
00000060: 5a69 423e 5381 b53d 7664 e03d f9d0 7c3d
00000070: fff8 e53c 8ed5 a63d 0117 813d 5754 423d
00000080: 4718 5a3d 70f1 df3d ec76 803d 28af b73d
00000090: d2ca 0a3e 7296 813d 2929 863d eb28 a93d
000000a0: 3cfe e3bc 4106 243e e77f 233e c67d f93d
000000b0: 585b 2b3e d7da 9e3c ba47 e93d 09d9 943d
000000c0: 05f1 803d 9b6a 523e 0a17 db3d 13a9 733d
000000d0: 90e4 203e 7b8c a23d 99dc 013e 12e1 433d
000000e0: e7e4 0a3e 05ae 0b3e 0bb0 b53d 68a3 26bd
000000f0: ee10 ad3d acb1 a43c afa0 13bd 67c8 783d

BatchNormalization_1_param2 f4 [64]
0.18809354 0.20741485 0.21204446 0.09858684 0.12067202 0.108929306 0.14339449 0.09871111
0.1366211 0.083104655 0.18736441 0.13194759 0.10158841 0.18361847 0.103139736 0.05619549
0.11558214 0.46832106 0.2076474 0.13988508 0.2338103 0.19575478 0.14121196 0.086919874
0.077056706 0.1875217 0.38026047 0.24230756 0.08999872 0.11274913 0.052176625 0.111459665
0.07051248 0.1077428 0.067895584 0.076491944 0.1866893 0.039851315 0.13682996 0.1168101
0.07913354 0.14056635 0.21035746 0.10415847 0.08303005 0.10932292 0.34549698 0.22774579
0.043302726 0.11999429 0.16655171 0.047539104 0.07186583 0.11394286 0.14888652 0.08157364
0.18521763 0.23721391 0.06331413 0.115560256 0.3858402 0.07670853 0.061428804 0.085442804
00000000: 989b 403e 8f64 543e 2f22 593e e6e7 c93d
00000010: e422 f73d 5416 df3d 01d6 123e 0d29 ca3d
00000020: 67e6 0b3e c632 aa3d 75dc 3f3e 451d 073e
00000030: 960d d03d 7b06 3c3e ed3a d33d 3e2d 663d
00000040: 54b6 ec3d c7c7 ef3e 85a1 543e 093e 0f3e
00000050: f86b 6f3e f173 483e de99 103e 0c03 b23d
00000060: e8cf 9d3d b005 403e 80b1 c23e 791f 783e
00000070: 4051 b83d 04e9 e63d 28b7 553d f744 e43d
00000080: d968 903d 42a8 dc3d d70c 8b3d cfa7 9c3d
00000090: 7b2b 3f3e 223b 233d 271d 0c3e 223a ef3d
000000a0: c410 a23d a0f0 0f3e f267 573e 0951 d53d
000000b0: a90b aa3d b2e4 df3d fbe4 b03e 3136 693e
000000c0: 335e 313d 91bf f53d 888c 2a3e 5db8 423d
000000d0: 642e 933d e05a e93d b575 183e 1510 a73d
000000e0: b1a9 3d3e 34e8 723e d7aa 813d dbaa ec3d
000000f0: d98c c53e 5d19 9d3d c59c 7b3d a3fc ae3d

BatchNormalization_1_param3 f4 [64]
0.08531874 0.14324643 0.1740763 0.03928404 0.08847239 0.07000374 0.082014464 0.05312774
0.102647886 0.10923363 0.14655265 0.09043511 0.030688751 0.0431458 0.13070177 0.054425962
0.057968985 0.508706 0.14265326 0.10194955 0.102756105 0.14797375 0.038447466 0.11856055
0.02249165 0.115308434 0.1644186 0.16988674 0.071998514 0.076174654 0.045009278 0.07084966
0.029433684 0.051014796 0.0726272 0.0211227 0.08761096 0.012384997 0.087243244 0.077414066
0.047569323 0.076194964 0.1368673 0.053963196 0.023417672 0.14687045 0.21167125 0.16897649
0.019723272 0.036883518 0.12181399 0.056491647 0.025854994 0.055952266 0.12079652 0.085184805
0.123866685 0.17020692 0.025517577 0.030405028 0.2942217 0.04246902 0.055419803 0.04857399
00000000: 97bb ae3d 31af 123e 0f41 323e 4de8 203d
00000010: 0331 b53d 1f5e 8f3d 33f7 a73d 799c 593d
00000020: 0e39 d23d e2b5 df3d e611 163e 0b36 b93d
00000030: fa66 fb3c a6b9 303d afd6 053e c2ed 5e3d
00000040: e370 6d3d 8e3a 023f b213 123e edca d03d
00000050: cb71 d23d 6e86 173e 177b 1d3d e0cf f23d
00000060: 6940 b83c d426 ec3d 595d 283e caf6 2d3e
00000070: f573 933d 7501 9c3d a65b 383d a019 913d
00000080: e91e f13c e4f4 503d 92bd 943d 8309 ad3c
00000090: 606d b33d 71ea 4a3c 96ac b23d 448b 9e3d
000000a0: 0dd8 423d 1b0c 9c3d f126 0c3e 8308 5d3d
000000b0: 6bd6 bf3c 3565 163e 59c0 583e 2c08 2d3e
000000c0: b392 a13c 2c13 173d 9d79 f93d c963 673d
000000d0: dacd d33c 342e 653d 2a64 f73d 5f75 ae3d
000000e0: d1ad fd3d b94a 2e3e 3d0a d13c f713 f93c
000000f0: 3aa4 963e fff3 2d3d e0ff 623d 85f5 463d

Conv_0_param0 f4 [1, 32, 1]
0.019426893 0.048608903 0.12338588 -0.11435869 0.14353333 -0.06539237 -8.51622e-40 -0.40293786
-0.45001635 -0.022883 -0.35026306 0.17784896 -0.33693245 -0.25955346 -0.20905058 -0.1769548
-5.03618e-40 -0.024361044 0.18960124 0.042699024 -0.18276876 -0.12736136 -0.13876396 0.05315071
-0.05287663 0.18953682 -4.9655796e-06 -0.001808348 -0.0006891328 0.122901626 -0.05361808 0.05213374
00000000: 2625 9f3c 211a 473d bcb1 fc3d e434 eabd
00000010: 67fa 123e 6fec 85bd fa45 0980 df4d cebe
00000020: 8b68 e6be 2175 bbbc ae55 b3be 0a1e 363e
00000030: 6982 acbe 31e4 84be 5b11 56be a433 35be
00000040: e27b 0580 d090 c7bc d426 423e 2ce5 2e3d
00000050: bc27 3bbe 046b 02be 2418 0ebe 8fb4 593d
00000060: 2a95 58bd f115 423e 019e a6b6 1706 edba
00000070: eba6 34ba d9b3 fb3d a29e 5bbd 308a 553d

Conv_1_param0 f4 [1, 64, 1]
-0.16457553 -0.112771794 -0.14050452 0.006839469 -0.22219622 -0.29063275 -0.17616506 -0.18369223
-0.1408575 -0.16309477 -0.14095195 -0.2296246 0.016451577 0.13298316 -0.17659824 -0.082441874
-0.29128107 -0.15521187 -0.070627354 -0.26729673 -0.05917996 -0.14119197 0.06308392 -0.19221172
0.012638808 -0.23226368 -0.03593347 -0.2458461 0.05849512 -0.10402198 -0.18114017 -0.19016767
-0.07591918 0.05094202 -0.17421184 0.07239752 -0.04980808 -0.14613725 -0.14339596 -0.19233806
-0.13584526 -0.20417373 -0.25921035 -0.186866 0.0068198964 -0.037389886 0.020714788 -0.16301754
-0.11667158 0.07107197 -0.13756537 -0.23729345 -0.044606566 -0.10531205 -0.26607952 -0.16207492
-0.16713417 -0.106414415 -0.19567373 -0.0641778 -0.15835077 -0.16958916 -0.15902087 0.005507798
00000000: 7d86 28be e6f4 e6bd 6be0 0fbe a01d e03b
00000010: 6887 63be d1cd 94be 9d64 34be d119 3cbe
00000020: f33c 10be 5102 27be b555 10be b622 6bbe
00000030: 75c5 863c bd2c 083e 2bd6 34be 49d7 a8bd
00000040: cb22 95be dcef 1ebe 13a5 90bd 1edb 88be
00000050: b066 72bd a194 10be 2432 813d 26d3 44be
00000060: 0113 4f3c 88d6 6dbe f92e 13bd 14bf 7bbe
00000070: 9498 6f3d 7a09 d5bd cf7c 39be 50bb 42be
00000080: 847b 9bbd 94a8 503d 9764 32be 2745 943d
00000090: 8f03 4cbd 01a5 15be 64d6 12be 45f4 44be
000000a0: 051b 0bbe eb12 51be 38b7 84be cd59 3fbe
000000b0: 7079 df3b 2326 19bd 0fb2 a93c 12ee 26be
000000c0: 82f1 eebd 2e8e 913d f0dd 0cbe 0efd 72be
000000d0: 60b5 36bd d8ad d7bd 933b 88be f8f6 25be
000000e0: 3825 2bbe cdef d9bd b25e 48be a76f 83bd
000000f0: b426 22be c8a8 2dbe 5ed6 22be c27a b43b

Quant_0_out0 f4 [32, 1, 3]
-52.0 126.0 -52.0 -65.0 115.0 74.0 52.0 1.0
-54.0 -12.0 -15.0 0.0 40.0 22.0 -37.0 86.0
26.0 -114.0 0.0 0.0 0.0 -54.0 98.0 116.0
-84.0 -76.0 -66.0 46.0 -108.0 4.0 17.0 63.0
108.0 -105.0 12.0 54.0 17.0 64.0 0.0 1.0
9.0 -76.0 -127.0 -7.0 32.0 -20.0 10.0 -32.0
0.0 0.0 0.0 43.0 127.0 -6.0 85.0 7.0
-53.0 -27.0 57.0 -29.0 114.0 -9.0 -15.0 3.0
9.0 0.0 -28.0 24.0 -29.0 127.0 57.0 29.0
-92.0 23.0 72.0 64.0 42.0 -64.0 0.0 0.0
0.0 38.0 96.0 -62.0 -33.0 -122.0 70.0 41.0
-90.0 48.0 0.0 1.0 11.0 21.0 -45.0 23.0
00000000: 0000 50c2 0000 fc42 0000 50c2 0000 82c2
00000010: 0000 e642 0000 9442 0000 5042 0000 803f
00000020: 0000 58c2 0000 40c1 0000 70c1 0000 0000
00000030: 0000 2042 0000 b041 0000 14c2 0000 ac42
00000040: 0000 d041 0000 e4c2 0000 0000 0000 0000
00000050: 0000 0000 0000 58c2 0000 c442 0000 e842
00000060: 0000 a8c2 0000 98c2 0000 84c2 0000 3842
00000070: 0000 d8c2 0000 8040 0000 8841 0000 7c42
00000080: 0000 d842 0000 d2c2 0000 4041 0000 5842
00000090: 0000 8841 0000 8042 0000 0000 0000 803f
000000a0: 0000 1041 0000 98c2 0000 fec2 0000 e0c0
000000b0: 0000 0042 0000 a0c1 0000 2041 0000 00c2
000000c0: 0000 0000 0000 0000 0000 0000 0000 2c42
000000d0: 0000 fe42 0000 c0c0 0000 aa42 0000 e040
000000e0: 0000 54c2 0000 d8c1 0000 6442 0000 e8c1
000000f0: 0000 e442 0000 10c1 0000 70c1 0000 4040
00000100: 0000 1041 0000 0000 0000 e0c1 0000 c041
00000110: 0000 e8c1 0000 fe42 0000 6442 0000 e841
00000120: 0000 b8c2 0000 b841 0000 9042 0000 8042
00000130: 0000 2842 0000 80c2 0000 0000 0000 0000
00000140: 0000 0000 0000 1842 0000 c042 0000 78c2
00000150: 0000 04c2 0000 f4c2 0000 8c42 0000 2442
00000160: 0000 b4c2 0000 4042 0000 0000 0000 803f
00000170: 0000 3041 0000 a841 0000 34c2 0000 b841

Quant_1_out0 f4 [64, 32, 3]
-12.0 5.0 -9.0 -7.0 -4.0 6.0 -7.0 -8.0
-7.0 1.0 -3.0 -3.0 18.0 22.0 26.0 7.0
-46.0 -39.0 5.0 -4.0 -7.0 5.0 -20.0 5.0
0.0 3.0 3.0 -4.0 -10.0 -31.0 0.0 -2.0
-11.0 7.0 -14.0 -30.0 5.0 2.0 -6.0 -4.0
1.0 5.0 -4.0 4.0 2.0 1.0 -2.0 4.0
-6.0 1.0 7.0 -3.0 2.0 4.0 8.0 -10.0
30.0 -4.0 25.0 7.0 1.0 -18.0 -7.0 -3.0
-3.0 4.0 4.0 11.0 -3.0 6.0 -1.0 3.0
4.0 7.0 -36.0 -11.0 23.0 28.0 -1.0 -3.0
-6.0 -1.0 10.0 15.0 17.0 -8.0 -15.0 24.0
-10.0 7.0 2.0 1.0 -7.0 8.0 -16.0 -2.0
4.0 -3.0 -6.0 7.0 6.0 -10.0 6.0 8.0
3.0 1.0 -3.0 10.0 11.0 8.0 16.0 -18.0
3.0 16.0 -3.0 4.0 3.0 -32.0 -8.0 -16.0
33.0 15.0 -16.0 23.0 -13.0 16.0 -41.0 38.0
-11.0 -35.0 -21.0 12.0 -3.0 6.0 -6.0 5.0
-1.0 -1.0 50.0 6.0 -3.0 5.0 -2.0 8.0
-5.0 3.0 2.0 5.0 -4.0 -13.0 -7.0 7.0
3.0 -9.0 3.0 2.0 -25.0 11.0 9.0 2.0
-4.0 7.0 -3.0 -6.0 -7.0 16.0 8.0 0.0
43.0 24.0 4.0 7.0 0.0 7.0 2.0 2.0
-3.0 2.0 0.0 -1.0 4.0 10.0 1.0 -2.0
-11.0 16.0 10.0 0.0 -4.0 17.0 2.0 1.0
0.0 -7.0 -11.0 3.0 -12.0 3.0 -13.0 39.0
3.0 9.0 7.0 12.0 17.0 20.0 -2.0 43.0
19.0 21.0 7.0 13.0 11.0 2.0 -14.0 -13.0
-22.0 -27.0 -4.0 -15.0 -9.0 11.0 16.0 -7.0
-2.0 -16.0 -4.0 -8.0 10.0 6.0 4.0 -9.0
-8.0 -6.0 -6.0 -19.0 -14.0 -5.0 -10.0 -7.0
-14.0 -9.0 -11.0 2.0 -5.0 3.0 13.0 26.0
5.0 13.0 -2.0 -20.0 31.0 28.0 19.0 -6.0
00000000: 0000 40c1 0000 a040 0000 10c1 0000 e0c0
00000010: 0000 80c0 0000 c040 0000 e0c0 0000 00c1
00000020: 0000 e0c0 0000 803f 0000 40c0 0000 40c0
00000030: 0000 9041 0000 b041 0000 d041 0000 e040
00000040: 0000 38c2 0000 1cc2 0000 a040 0000 80c0
00000050: 0000 e0c0 0000 a040 0000 a0c1 0000 a040
00000060: 0000 0000 0000 4040 0000 4040 0000 80c0
00000070: 0000 20c1 0000 f8c1 0000 0000 0000 00c0
00000080: 0000 30c1 0000 e040 0000 60c1 0000 f0c1
00000090: 0000 a040 0000 0040 0000 c0c0 0000 80c0
000000a0: 0000 803f 0000 a040 0000 80c0 0000 8040
000000b0: 0000 0040 0000 803f 0000 00c0 0000 8040
000000c0: 0000 c0c0 0000 803f 0000 e040 0000 40c0
000000d0: 0000 0040 0000 8040 0000 0041 0000 20c1
000000e0: 0000 f041 0000 80c0 0000 c841 0000 e040
000000f0: 0000 803f 0000 90c1 0000 e0c0 0000 40c0
00000100: 0000 40c0 0000 8040 0000 8040 0000 3041
00000110: 0000 40c0 0000 c040 0000 80bf 0000 4040
00000120: 0000 8040 0000 e040 0000 10c2 0000 30c1
00000130: 0000 b841 0000 e041 0000 80bf 0000 40c0
00000140: 0000 c0c0 0000 80bf 0000 2041 0000 7041
00000150: 0000 8841 0000 00c1 0000 70c1 0000 c041
00000160: 0000 20c1 0000 e040 0000 0040 0000 803f
00000170: 0000 e0c0 0000 0041 0000 80c1 0000 00c0
00000180: 0000 8040 0000 40c0 0000 c0c0 0000 e040
00000190: 0000 c040 0000 20c1 0000 c040 0000 0041
000001a0: 0000 4040 0000 803f 0000 40c0 0000 2041
000001b0: 0000 3041 0000 0041 0000 8041 0000 90c1
000001c0: 0000 4040 0000 8041 0000 40c0 0000 8040
000001d0: 0000 4040 0000 00c2 0000 00c1 0000 80c1
000001e0: 0000 0442 0000 7041 0000 80c1 0000 b841
000001f0: 0000 50c1 0000 8041 0000 24c2 0000 1842
00000200: 0000 30c1 0000 0cc2 0000 a8c1 0000 4041
00000210: 0000 40c0 0000 c040 0000 c0c0 0000 a040
00000220: 0000 80bf 0000 80bf 0000 4842 0000 c040
00000230: 0000 40c0 0000 a040 0000 00c0 0000 0041
00000240: 0000 a0c0 0000 4040 0000 0040 0000 a040
00000250: 0000 80c0 0000 50c1 0000 e0c0 0000 e040
00000260: 0000 4040 0000 10c1 0000 4040 0000 0040
00000270: 0000 c8c1 0000 3041 0000 1041 0000 0040
00000280: 0000 80c0 0000 e040 0000 40c0 0000 c0c0
00000290: 0000 e0c0 0000 8041 0000 0041 0000 0000
000002a0: 0000 2c42 0000 c041 0000 8040 0000 e040
000002b0: 0000 0000 0000 e040 0000 0040 0000 0040
000002c0: 0000 40c0 0000 0040 0000 0000 0000 80bf
000002d0: 0000 8040 0000 2041 0000 803f 0000 00c0
000002e0: 0000 30c1 0000 8041 0000 2041 0000 0000
000002f0: 0000 80c0 0000 8841 0000 0040 0000 803f
00000300: 0000 0000 0000 e0c0 0000 30c1 0000 4040
00000310: 0000 40c1 0000 4040 0000 50c1 0000 1c42
00000320: 0000 4040 0000 1041 0000 e040 0000 4041
00000330: 0000 8841 0000 a041 0000 00c0 0000 2c42
00000340: 0000 9841 0000 a841 0000 e040 0000 5041
00000350: 0000 3041 0000 0040 0000 60c1 0000 50c1
00000360: 0000 b0c1 0000 d8c1 0000 80c0 0000 70c1
00000370: 0000 10c1 0000 3041 0000 8041 0000 e0c0
00000380: 0000 00c0 0000 80c1 0000 80c0 0000 00c1
00000390: 0000 2041 0000 c040 0000 8040 0000 10c1
000003a0: 0000 00c1 0000 c0c0 0000 c0c0 0000 98c1
000003b0: 0000 60c1 0000 a0c0 0000 20c1 0000 e0c0
000003c0: 0000 60c1 0000 10c1 0000 30c1 0000 0040
000003d0: 0000 a0c0 0000 4040 0000 5041 0000 d041
000003e0: 0000 a040 0000 5041 0000 00c0 0000 a0c1
000003f0: 0000 f841 0000 e041 0000 9841 0000 c0c0

o0ujta f4 [1, 255]
-0.5254844 -0.52136296 -0.5172415 -0.51312006 -0.5089986 -0.50487715 -0.5007557 -0.49663424
-0.49251282 -0.48839137 -0.48426992 -0.48014846 -0.476027 -0.4719056 -0.46778414 -0.46366268
-0.45954123 -0.45541978 -0.45129836 -0.4471769 -0.44305545 -0.438934 -0.43481255 -0.43069112
-0.42656967 -0.42244822 -0.41832677 -0.4142053 -0.4100839 -0.40596244 -0.40184098 -0.39771953
-0.39359808 -0.38947666 -0.3853552 -0.38123375 -0.3771123 -0.37299088 -0.36886942 -0.36474797
-0.36062652 -0.35650507 -0.35238364 -0.3482622 -0.34414074 -0.3400193 -0.33589783 -0.3317764
-0.32765496 -0.3235335 -0.31941205 -0.3152906 -0.31116918 -0.30704772 -0.30292627 -0.29880482
-0.29468337 -0.29056194 -0.2864405 -0.28231904 -0.2781976 -0.27407613 -0.2699547 -0.26583326
-0.2617118 -0.25759035 -0.2534689 -0.24934746 -0.24522603 -0.24110457 -0.23698312 -0.23286168
-0.22874023 -0.22461879 -0.22049734 -0.21637589 -0.21225445 -0.208133 -0.20401156 -0.1998901
-0.19576865 -0.19164722 -0.18752576 -0.18340433 -0.17928287 -0.17516144 -0.17103998 -0.16691853
-0.1627971 -0.15867564 -0.1545542 -0.15043275 -0.1463113 -0.14218986 -0.13806841 -0.13394697
-0.12982552 -0.12570406 -0.12158263 -0.117461175 -0.11333973 -0.109218284 -0.10509684 -0.100975394
-0.09685394 -0.0927325 -0.08861105 -0.08448961 -0.08036816 -0.076246716 -0.07212526 -0.06800382
-0.06388237 -0.05976093 -0.05563948 -0.051518034 -0.047396585 -0.04327514 -0.039153695 -0.035032246
-0.030910801 -0.026789354 -0.022667907 -0.018546462 -0.014425015 -0.010303568 -0.006182122 -0.0020606755
0.002060771 0.0061822175 0.010303664 0.01442511 0.018546557 0.022668004 0.02678945 0.030910896
0.035032343 0.03915379 0.043275237 0.047396682 0.051518127 0.055639576 0.05976102 0.06388247
0.068003915 0.07212536 0.076246805 0.08036826 0.0844897 0.08861115 0.09273259 0.09685404
0.10097548 0.105096936 0.10921838 0.11333983 0.11746127 0.12158272 0.12570417 0.1298256
0.13394706 0.13806851 0.14218995 0.1463114 0.15043284 0.1545543 0.15867575 0.16279718
0.16691864 0.17104007 0.17516153 0.17928298 0.18340442 0.18752587 0.1916473 0.19576876
0.1998902 0.20401165 0.2081331 0.21225454 0.21637599 0.22049743 0.22461888 0.22874033
0.23286177 0.23698322 0.24110466 0.24522611 0.24934757 0.25346902 0.25759044 0.2617119
0.26583335 0.2699548 0.27407625 0.27819768 0.28231913 0.28644058 0.29056203 0.2946835
0.2988049 0.30292636 0.3070478 0.31116927 0.31529072 0.31941214 0.3235336 0.32765505
0.3317765 0.33589795 0.34001938 0.34414083 0.34826228 0.35238373 0.3565052 0.3606266
0.36474806 0.3688695 0.37299097 0.37711242 0.38123384 0.3853553 0.38947675 0.3935982
0.39771962 0.40184107 0.40596253 0.41008398 0.41420543 0.41832685 0.4224483 0.42656976
0.4306912 0.43481266 0.4389341 0.44305554 0.447177 0.45129845 0.4554199 0.45954132
0.46366277 0.46778423 0.47190568 0.47602713 0.48014855 0.48427 0.48839146 0.4925129
0.49663436 0.5007558 0.50487727 0.5089987 0.5131201 0.5172416 0.521363
00000000: 2586 06bf 0b78 05bf f069 04bf d65b 03bf
00000010: bb4d 02bf a13f 01bf 8731 00bf d846 febe
00000020: a42a fcbe 6f0e fabe 3af2 f7be 05d6 f5be
00000030: d0b9 f3be 9c9d f1be 6781 efbe 3265 edbe
00000040: fd48 ebbe c82c e9be 9410 e7be 5ff4 e4be
00000050: 2ad8 e2be f5bb e0be c09f debe 8c83 dcbe
00000060: 5767 dabe 224b d8be ed2e d6be b812 d4be
00000070: 84f6 d1be 4fda cfbe 1abe cdbe e5a1 cbbe
00000080: b085 c9be 7c69 c7be 474d c5be 1231 c3be
00000090: dd14 c1be a9f8 bebe 74dc bcbe 3fc0 babe
000000a0: 0aa4 b8be d587 b6be a16b b4be 6c4f b2be
000000b0: 3733 b0be 0217 aebe cdfa abbe 99de a9be
000000c0: 64c2 a7be 2fa6 a5be fa89 a3be c56d a1be
000000d0: 9151 9fbe 5c35 9dbe 2719 9bbe f2fc 98be
000000e0: bde0 96be 89c4 94be 54a8 92be 1f8c 90be
000000f0: ea6f 8ebe b553 8cbe 8137 8abe 4c1b 88be
00000100: 17ff 85be e2e2 83be adc6 81be f154 7fbe
00000110: 881c 7bbe 1ee4 76be b4ab 72be 4b73 6ebe
00000120: e13a 6abe 7802 66be 0eca 61be a491 5dbe
00000130: 3b59 59be d120 55be 68e8 50be feaf 4cbe
00000140: 9477 48be 2b3f 44be c106 40be 58ce 3bbe
00000150: ee95 37be 855d 33be 1b25 2fbe b1ec 2abe
00000160: 48b4 26be de7b 22be 7543 1ebe 0b0b 1abe
00000170: a1d2 15be 389a 11be ce61 0dbe 6529 09be
00000180: fbf0 04be 91b8 00be 5000 f9bd 7c8f f0bd
00000190: a91e e8bd d6ad dfbd 033d d7bd 30cc cebd
000001a0: 5c5b c6bd 89ea bdbd b679 b5bd e308 adbd
000001b0: 1098 a4bd 3d27 9cbd 69b6 93bd 9645 8bbd
000001c0: c3d4 82bd e0c7 74bd 39e6 63bd 9304 53bd
000001d0: ec22 42bd 4641 31bd a05f 20bd f97d 0fbd
000001e0: a638 fdbc 5975 dbbc 0cb2 b9bc c0ee 97bc
000001f0: e656 6cbc 4cd0 28bc 6693 cabb 660c 07bb
00000200: 000e 073b 3394 ca3b b3d0 283c 4c57 6c3c
00000210: f3ee 973c 40b2 b93c 8c75 db3c d938 fd3c
00000220: 137e 0f3d b95f 203d 6041 313d 0623 423d
00000230: ac04 533d 53e6 633d f9c7 743d d0d4 823d
00000240: a345 8b3d 76b6 933d 4927 9c3d 1d98 a43d
00000250: f008 ad3d c379 b53d 96ea bd3d 695b c63d
00000260: 3ccc ce3d 103d d73d e3ad df3d b61e e83d
00000270: 898f f03d 5c00 f93d 98b8 003e 01f1 043e
00000280: 6b29 093e d561 0d3e 3e9a 113e a8d2 153e
00000290: 110b 1a3e 7b43 1e3e e57b 223e 4eb4 263e
000002a0: b8ec 2a3e 2125 2f3e 8b5d 333e f595 373e
000002b0: 5ece 3b3e c806 403e 313f 443e 9b77 483e
000002c0: 04b0 4c3e 6ee8 503e d820 553e 4159 593e
000002d0: ab91 5d3e 14ca 613e 7e02 663e e83a 6a3e
000002e0: 5173 6e3e bbab 723e 24e4 763e 8e1c 7b3e
000002f0: f854 7f3e b1c6 813e e5e2 833e 1aff 853e
00000300: 4f1b 883e 8437 8a3e b953 8c3e ed6f 8e3e
00000310: 228c 903e 57a8 923e 8cc4 943e c1e0 963e
00000320: f5fc 983e 2a19 9b3e 5f35 9d3e 9451 9f3e
00000330: c96d a13e fd89 a33e 32a6 a53e 67c2 a73e
00000340: 9cde a93e d1fa ab3e 0517 ae3e 3a33 b03e
00000350: 6f4f b23e a46b b43e d987 b63e 0da4 b83e
00000360: 42c0 ba3e 77dc bc3e acf8 be3e e114 c13e
00000370: 1531 c33e 4a4d c53e 7f69 c73e b485 c93e
00000380: e8a1 cb3e 1dbe cd3e 52da cf3e 87f6 d13e
00000390: bc12 d43e f02e d63e 254b d83e 5a67 da3e
000003a0: 8f83 dc3e c49f de3e f8bb e03e 2dd8 e23e
000003b0: 62f4 e43e 9710 e73e cc2c e93e 0049 eb3e
000003c0: 3565 ed3e 6a81 ef3e 9f9d f13e d4b9 f33e
000003d0: 08d6 f53e 3df2 f73e 720e fa3e a72a fc3e
000003e0: dc46 fe3e 8831 003f a33f 013f bd4d 023f
000003f0: d75b 033f f269 043f 0c78 053f

1ss1dL f4 [32, 255]
0.0006218812 0.0018656437 0.0031094062 0.0043531684 0.005596931 0.0068406933 0.0080844555 0.009328218
0.010571981 0.0118157435 0.013059505 0.014303268 0.015547031 0.016790792 0.018034555 0.019278318
0.02052208 0.021765843 0.023009606 0.024253368 0.02549713 0.026740892 0.027984655 0.029228417
0.03047218 0.03171594 0.032959703 0.034203466 0.03544723 0.03669099 0.037934754 0.039178517
0.04042228 0.041666042 0.042909805 0.044153567 0.04539733 0.046641093 0.047884855 0.049128618
0.050372377 0.05161614 0.052859902 0.054103665 0.055347428 0.05659119 0.057834953 0.059078716
0.06032248 0.06156624 0.062810004 0.06405377 0.06529753 0.06654129 0.067785054 0.06902882
0.07027258 0.07151634 0.072760105 0.07400387 0.07524763 0.07649139 0.077735156 0.07897892
0.08022267 0.08146644 0.0827102 0.08395396 0.085197724 0.08644149 0.08768525 0.08892901
0.090172775 0.09141654 0.0926603 0.09390406 0.095147826 0.09639159 0.09763535 0.098879114
0.10012288 0.10136664 0.1026104 0.103854164 0.10509793 0.10634169 0.10758545 0.108829215
0.11007298 0.11131674 0.1125605 0.113804266 0.11504803 0.11629179 0.117535554 0.11877932
0.12002307 0.121266834 0.1225106 0.12375436 0.12499812 0.1262419 0.12748565 0.12872942
0.12997317 0.13121694 0.1324607 0.13370447 0.13494822 0.136192 0.13743575 0.13867952
0.13992327 0.14116703 0.1424108 0.14365456 0.14489833 0.14614208 0.14738585 0.1486296
0.14987338 0.15111713 0.1523609 0.15360466 0.15484843 0.15609218 0.15733595 0.1585797
0.15982348 0.16106723 0.162311 0.16355476 0.16479853 0.16604228 0.16728605 0.16852981
0.16977358 0.17101733 0.1722611 0.17350486 0.17474863 0.17599238 0.17723615 0.17847991
0.17972367 0.18096744 0.18221119 0.18345496 0.18469872 0.18594249 0.18718624 0.18843001
0.18967377 0.19091754 0.19216129 0.19340506 0.19464882 0.19589259 0.19713634 0.19838011
0.19962387 0.20086764 0.2021114 0.20335516 0.20459892 0.20584269 0.20708644 0.20833021
0.20957397 0.21081774 0.2120615 0.21330526 0.21454902 0.21579279 0.21703655 0.21828032
0.21952407 0.22076783 0.2220116 0.22325535 0.22449912 0.22574288 0.22698665 0.2282304
0.22947417 0.23071793 0.2319617 0.23320545 0.23444922 0.23569298 0.23693675 0.2381805
0.23942427 0.24066803 0.2419118 0.24315555 0.24439932 0.24564308 0.24688685 0.2481306
0.24937437 0.25061813 0.2518619 0.25310567 0.2543494 0.25559318 0.25683695 0.25808072
0.25932446 0.26056823 0.261812 0.26305574 0.2642995 0.26554328 0.26678705 0.2680308
0.26927456 0.27051833 0.2717621 0.27300584 0.2742496 0.27549338 0.27673715 0.2779809
0.27922466 0.28046843 0.2817122 0.28295594 0.2841997 0.28544348 0.28668725 0.287931
0.28917477 0.29041854 0.2916623 0.29290605 0.29414982 0.2953936 0.29663736 0.2978811
0.29912487 0.30036864 0.30161238 0.30285615 0.30409992 0.3053437 0.30658743 0.3078312
0.30907497 0.31031874 0.31156248 0.31280625 0.31405002 0.3152938 0.31653753 0.0006218812
00000000: be05 233a 9d88 f43a 2ec7 4b3b 06a5 8e3b
00000010: 7666 b73b e527 e03b aa74 043c 62d5 183c
00000020: 1a36 2d3c d296 413c 89f7 553c 4158 6a3c
00000030: f9b8 7e3c d88c 893c 34bd 933c 90ed 9d3c
00000040: ec1d a83c 484e b23c a47e bc3c 00af c63c
00000050: 5bdf d03c b70f db3c 1340 e53c 6f70 ef3c
00000060: cba0 f93c 93e8 013d c100 073d ef18 0c3d
00000070: 1d31 113d 4b49 163d 7961 1b3d a779 203d
00000080: d591 253d 03aa 2a3d 31c2 2f3d 5fda 343d
00000090: 8df2 393d bb0a 3f3d e922 443d 173b 493d
000000a0: 4453 4e3d 726b 533d a083 583d ce9b 5d3d
000000b0: fcb3 623d 2acc 673d 58e4 6c3d 86fc 713d
000000c0: b414 773d e22c 7c3d 88a2 803d 9f2e 833d
000000d0: b6ba 853d cd46 883d e4d2 8a3d fb5e 8d3d
000000e0: 12eb 8f3d 2977 923d 4003 953d 578f 973d
000000f0: 6e1b 9a3d 85a7 9c3d 9c33 9f3d b3bf a13d
00000100: c94b a43d e0d7 a63d f763 a93d 0ef0 ab3d
00000110: 257c ae3d 3c08 b13d 5394 b33d 6a20 b63d
00000120: 81ac b83d 9838 bb3d afc4 bd3d c650 c03d
00000130: dddc c23d f468 c53d 0bf5 c73d 2281 ca3d
00000140: 390d cd3d 5099 cf3d 6725 d23d 7eb1 d43d
00000150: 953d d73d acc9 d93d c355 dc3d dae1 de3d
00000160: f16d e13d 08fa e33d 1f86 e63d 3612 e93d
00000170: 4d9e eb3d 642a ee3d 7bb6 f03d 9242 f33d
00000180: a8ce f53d bf5a f83d d6e6 fa3d ed72 fd3d
00000190: 04ff ff3d 8e45 013e 998b 023e a5d1 033e
000001a0: b017 053e bc5d 063e c7a3 073e d3e9 083e
000001b0: de2f 0a3e ea75 0b3e f5bb 0c3e 0102 0e3e
000001c0: 0c48 0f3e 178e 103e 23d4 113e 2e1a 133e
000001d0: 3a60 143e 45a6 153e 51ec 163e 5c32 183e
000001e0: 6878 193e 73be 1a3e 7f04 1c3e 8a4a 1d3e
000001f0: 9690 1e3e a1d6 1f3e ad1c 213e b862 223e
00000200: c4a8 233e cfee 243e db34 263e e67a 273e
00000210: f2c0 283e fd06 2a3e 094d 2b3e 1493 2c3e
00000220: 20d9 2d3e 2b1f 2f3e 3765 303e 42ab 313e
00000230: 4ef1 323e 5937 343e 657d 353e 70c3 363e
00000240: 7b09 383e 874f 393e 9295 3a3e 9edb 3b3e
00000250: a921 3d3e b567 3e3e c0ad 3f3e ccf3 403e
00000260: d739 423e e37f 433e eec5 443e fa0b 463e
00000270: 0552 473e 1198 483e 1cde 493e 2824 4b3e
00000280: 336a 4c3e 3fb0 4d3e 4af6 4e3e 563c 503e
00000290: 6182 513e 6dc8 523e 780e 543e 8454 553e
000002a0: 8f9a 563e 9be0 573e a626 593e b26c 5a3e
000002b0: bdb2 5b3e c9f8 5c3e d43e 5e3e e084 5f3e
000002c0: ebca 603e f610 623e 0257 633e 0d9d 643e
000002d0: 19e3 653e 2429 673e 306f 683e 3bb5 693e
000002e0: 47fb 6a3e 5241 6c3e 5e87 6d3e 69cd 6e3e
000002f0: 7513 703e 8059 713e 8c9f 723e 97e5 733e
00000300: a32b 753e ae71 763e bab7 773e c5fd 783e
00000310: d143 7a3e dc89 7b3e e8cf 7c3e f315 7e3e
00000320: ff5b 7f3e 0551 803e 0bf4 803e 1197 813e
00000330: 163a 823e 1cdd 823e 2280 833e 2823 843e
00000340: 2dc6 843e 3369 853e 390c 863e 3eaf 863e
00000350: 4452 873e 4af5 873e 5098 883e 553b 893e
00000360: 5bde 893e 6181 8a3e 6724 8b3e 6cc7 8b3e
00000370: 726a 8c3e 780d 8d3e 7eb0 8d3e 8353 8e3e
00000380: 89f6 8e3e 8f99 8f3e 953c 903e 9adf 903e
00000390: a082 913e a625 923e acc8 923e b16b 933e
000003a0: b70e 943e bdb1 943e c354 953e c8f7 953e
000003b0: ce9a 963e d43d 973e dae0 973e df83 983e
000003c0: e526 993e ebc9 993e f06c 9a3e f60f 9b3e
000003d0: fcb2 9b3e 0256 9c3e 07f9 9c3e 0d9c 9d3e
000003e0: 133f 9e3e 19e2 9e3e 1e85 9f3e 2428 a03e
000003f0: 2acb a03e 306e a13e 3511 a23e be05 233a

w8Wzi0 f4 [64, 255]
0.003761313 0.011283939 0.018806566 0.02632919 0.033851817 0.04137444 0.04889707 0.056419693
0.06394232 0.07146495 0.07898757 0.0865102 0.094032824 0.10155545 0.10907807 0.1166007
0.12412333 0.13164595 0.13916858 0.1466912 0.15421383 0.16173646 0.16925909 0.17678171
0.18430433 0.19182695 0.19934958 0.20687221 0.21439484 0.22191747 0.2294401 0.23696272
0.24448533 0.25200796 0.2595306 0.26705322 0.27457583 0.28209847 0.28962108 0.29714373
0.30466634 0.31218898 0.3197116 0.32723424 0.33475685 0.34227946 0.3498021 0.35732472
0.36484736 0.37236997 0.37989262 0.38741523 0.39493784 0.4024605 0.4099831 0.41750574
0.42502835 0.432551 0.4400736 0.44759625 0.45511886 0.46264148 0.47016412 0.47768673
0.48520938 0.492732 0.50025463 0.5077773 0.51529986 0.5228225 0.53034514 0.5378677
0.54539037 0.552913 0.56043565 0.56795824 0.5754809 0.5830035 0.5905261 0.59804875
0.6055714 0.61309403 0.6206166 0.62813926 0.6356619 0.6431845 0.6507071 0.65822977
0.6657524 0.673275 0.68079764 0.6883203 0.69584286 0.7033655 0.71088815 0.7184108
0.7259334 0.733456 0.74097866 0.7485013 0.7560239 0.7635465 0.77106917 0.77859175
0.7861144 0.79363704 0.8011597 0.80868226 0.8162049 0.82372755 0.83125013 0.8387728
0.8462954 0.85381806 0.86134064 0.8688633 0.8763859 0.8839085 0.89143115 0.8989538
0.90647644 0.913999 0.92152166 0.9290443 0.9365669 0.94408953 0.9516122 0.9591348
0.9666574 0.97418004 0.9817027 0.9892253 0.9967479 1.0042706 1.0117931 1.0193158
1.0268384 1.034361 1.0418837 1.0494063 1.0569289 1.0644516 1.0719742 1.0794969
1.0870194 1.094542 1.1020647 1.1095873 1.1171099 1.1246326 1.1321552 1.1396778
1.1472005 1.154723 1.1622458 1.1697683 1.1772909 1.1848136 1.1923362 1.1998588
1.2073815 1.2149041 1.2224267 1.2299494 1.2374719 1.2449945 1.2525172 1.2600398
1.2675625 1.2750851 1.2826077 1.2901304 1.297653 1.3051755 1.3126982 1.3202208
1.3277434 1.3352661 1.3427887 1.3503114 1.357834 1.3653566 1.3728793 1.3804018
1.3879244 1.3954471 1.4029697 1.4104923 1.418015 1.4255376 1.4330602 1.4405829
1.4481055 1.4556282 1.4631507 1.4706733 1.478196 1.4857186 1.4932412 1.5007639
1.5082865 1.515809 1.5233318 1.5308543 1.5383769 1.5458996 1.5534222 1.5609449
1.5684675 1.5759901 1.5835128 1.5910354 1.598558 1.6060807 1.6136032 1.6211258
1.6286485 1.6361711 1.6436938 1.6512164 1.658739 1.6662617 1.6737843 1.6813068
1.6888295 1.6963521 1.7038747 1.7113974 1.71892 1.7264426 1.7339653 1.7414879
1.7490106 1.7565331 1.7640557 1.7715784 1.779101 1.7866236 1.7941463 1.8016689
1.8091915 1.8167142 1.8242368 1.8317595 1.839282 1.8468046 1.8543273 1.8618499
1.8693725 1.8768952 1.8844178 1.8919404 1.899463 1.9069856 1.9145082 0.003761313
00000000: 5c80 763b 45e0 383c 3a10 9a3c 50b0 d73c
00000010: 34a8 0a3d 3f78 293d 4b48 483d 5618 673d
00000020: 31f4 823d 375c 923d 3cc4 a13d 422c b13d
00000030: 4894 c03d 4efc cf3d 5364 df3d 59cc ee3d
00000040: 5f34 fe3d 32ce 063e 3582 0e3e 3836 163e
00000050: 3bea 1d3e 3e9e 253e 4152 2d3e 4406 353e
00000060: 46ba 3c3e 496e 443e 4c22 4c3e 4fd6 533e
00000070: 528a 5b3e 553e 633e 58f2 6a3e 5ba6 723e
00000080: 5d5a 7a3e 3007 813e 32e1 843e 33bb 883e
00000090: 3495 8c3e 366f 903e 3749 943e 3923 983e
000000a0: 3afd 9b3e 3cd7 9f3e 3db1 a33e 3f8b a73e
000000b0: 4065 ab3e 413f af3e 4319 b33e 44f3 b63e
000000c0: 46cd ba3e 47a7 be3e 4981 c23e 4a5b c63e
000000d0: 4b35 ca3e 4d0f ce3e 4ee9 d13e 50c3 d53e
000000e0: 519d d93e 5377 dd3e 5451 e13e 562b e53e
000000f0: 5705 e93e 58df ec3e 5ab9 f03e 5b93 f43e
00000100: 5d6d f83e 5e47 fc3e b010 003f b1fd 013f
00000110: b1ea 033f b2d7 053f b3c4 073f b3b1 093f
00000120: b49e 0b3f b58b 0d3f b678 0f3f b665 113f
00000130: b752 133f b83f 153f b82c 173f b919 193f
00000140: ba06 1b3f bbf3 1c3f bbe0 1e3f bccd 203f
00000150: bdba 223f bda7 243f be94 263f bf81 283f
00000160: c06e 2a3f c05b 2c3f c148 2e3f c235 303f
00000170: c222 323f c30f 343f c4fc 353f c5e9 373f
00000180: c5d6 393f c6c3 3b3f c7b0 3d3f c89d 3f3f
00000190: c88a 413f c977 433f ca64 453f ca51 473f
000001a0: cb3e 493f cc2b 4b3f cd18 4d3f cd05 4f3f
000001b0: cef2 503f cfdf 523f cfcc 543f d0b9 563f
000001c0: d1a6 583f d293 5a3f d280 5c3f d36d 5e3f
000001d0: d45a 603f d447 623f d534 643f d621 663f
000001e0: d70e 683f d7fb 693f d8e8 6b3f d9d5 6d3f
000001f0: d9c2 6f3f daaf 713f db9c 733f dc89 753f
00000200: dc76 773f dd63 793f de50 7b3f df3d 7d3f
00000210: df2a 7f3f f08b 803f 7082 813f f178 823f
00000220: 716f 833f f165 843f 725c 853f f252 863f
00000230: 7249 873f f33f 883f 7336 893f f42c 8a3f
00000240: 7423 8b3f f419 8c3f 7510 8d3f f506 8e3f
00000250: 75fd 8e3f f6f3 8f3f 76ea 903f f6e0 913f
00000260: 77d7 923f f7cd 933f 78c4 943f f8ba 953f
00000270: 78b1 963f f9a7 973f 799e 983f f994 993f
00000280: 7a8b 9a3f fa81 9b3f 7a78 9c3f fb6e 9d3f
00000290: 7b65 9e3f fb5b 9f3f 7c52 a03f fc48 a13f
000002a0: 7d3f a23f fd35 a33f 7d2c a43f fe22 a53f
000002b0: 7e19 a63f fe0f a73f 7f06 a83f fffc a83f
000002c0: 7ff3 a93f 00ea aa3f 80e0 ab3f 01d7 ac3f
000002d0: 81cd ad3f 01c4 ae3f 82ba af3f 02b1 b03f
000002e0: 82a7 b13f 039e b23f 8394 b33f 038b b43f
000002f0: 8481 b53f 0478 b63f 846e b73f 0565 b83f
00000300: 855b b93f 0652 ba3f 8648 bb3f 063f bc3f
00000310: 8735 bd3f 072c be3f 8722 bf3f 0819 c03f
00000320: 880f c13f 0806 c23f 89fc c23f 09f3 c33f
00000330: 89e9 c43f 0ae0 c53f 8ad6 c63f 0bcd c73f
00000340: 8bc3 c83f 0bba c93f 8cb0 ca3f 0ca7 cb3f
00000350: 8c9d cc3f 0d94 cd3f 8d8a ce3f 0d81 cf3f
00000360: 8e77 d03f 0e6e d13f 8f64 d23f 0f5b d33f
00000370: 8f51 d43f 1048 d53f 903e d63f 1035 d73f
00000380: 912b d83f 1122 d93f 9118 da3f 120f db3f
00000390: 9205 dc3f 12fc dc3f 93f2 dd3f 13e9 de3f
000003a0: 94df df3f 14d6 e03f 94cc e13f 15c3 e23f
000003b0: 95b9 e33f 15b0 e43f 96a6 e53f 169d e63f
000003c0: 9693 e73f 178a e83f 9780 e93f 1877 ea3f
000003d0: 986d eb3f 1864 ec3f 995a ed3f 1951 ee3f
000003e0: 9947 ef3f 1a3e f03f 9a34 f13f 1a2b f23f
000003f0: 9b21 f33f 1b18 f43f 9b0e f53f 5c80 763b
