estimates_output/cnn_lstm_real_c0.5subcnn/intermediate_models/step_3_to_4D.onnx (onnx, 31712 bytes, 12 tensors)

Conv_0_param0 f4 [32]
000000 26 25 9f 3c 21 1a 47 3d bc b1 fc 3d e4 34 ea bd
       0.019426893 0.048608903 0.12338588 -0.11435869
000010 67 fa 12 3e 6f ec 85 bd fa 45 09 80 df 4d ce be
       0.14353333 -0.06539237 -8.51622e-40 -0.40293786
000020 8b 68 e6 be 21 75 bb bc ae 55 b3 be 0a 1e 36 3e
       -0.45001635 -0.022883 -0.35026306 0.17784896
000030 69 82 ac be 31 e4 84 be 5b 11 56 be a4 33 35 be
       -0.33693245 -0.25955346 -0.20905058 -0.1769548
000040 e2 7b 05 80 d0 90 c7 bc d4 26 42 3e 2c e5 2e 3d
       -5.03618e-40 -0.024361044 0.18960124 0.042699024
000050 bc 27 3b be 04 6b 02 be 24 18 0e be 8f b4 59 3d
       -0.18276876 -0.12736136 -0.13876396 0.05315071
000060 2a 95 58 bd f1 15 42 3e 01 9e a6 b6 17 06 ed ba
       -0.05287663 0.18953682 -4.9655796e-06 -0.001808348
000070 eb a6 34 ba d9 b3 fb 3d a2 9e 5b bd 30 8a 55 3d
       -0.0006891328 0.122901626 -0.05361808 0.05213374

BatchNormalization_0_param0 f4 [32]
000000 a7 1e 31 3f cd 1d 16 3f 65 3f 46 3f 8a 52 02 39
       0.69187397 0.5863922 0.7744048 0.00012428514
000010 66 74 33 3f 0c 24 b9 3f 6c 61 04 00 23 be 80 3f
       0.70099485 1.4464126 4.0229e-40 1.0058025
000020 ea 24 80 3f 4a fa 62 3f d2 29 7e 3f 27 0d 3d 3f
       1.0011265 0.8866316 0.9928256 0.73848194
000030 36 c4 f7 2f cc 33 62 31 1a 9d 82 3f b6 20 d2 34
       4.5068455e-10 3.2916772e-09 1.0204194 3.9139348e-07
000040 1d d6 06 80 b9 28 36 3f f1 43 20 3f 0d 10 44 3f
       -6.27822e-40 0.7115589 0.6260367 0.7658699
000050 65 f1 7e 3f 94 87 15 38 e0 06 e9 38 9a bc 09 3f
       0.9958709 3.5650635e-05 0.00011111586 0.5380341
000060 04 0a bf 3f 54 40 23 3f 04 f2 b1 b9 f1 80 40 3f
       1.4924932 0.6377003 -0.00033940386 0.7519675
000070 f7 c9 5c 3f 3a 2b 5c 3f 05 c2 01 00 86 24 4e 3f
       0.86245674 0.8600346 1.61437e-40 0.8052448

BatchNormalization_0_param1 f4 [32]
000000 89 3e 6f 3e dc a8 9d 3e 11 f0 4f be d4 45 4a bd
       0.23363699 0.30792892 -0.20306422 -0.049383
000010 2c f4 71 bd 5c ce 02 bc 09 fd 5b bd 3a 74 cc 3d
       -0.05907075 -0.00798377 -0.05370811 0.09983106
000020 2e 18 e0 3e 9c 69 f1 3e f1 51 df 3e c4 2d 8d 3d
       0.43768448 0.47150886 0.43617204 0.06893495
000030 80 c3 3e bd 83 d7 63 3d e9 d7 d1 3e 64 be 4e 3d
       -0.046573162 0.05562545 0.4098504 0.05047454
000040 c0 6b 8e 3d b7 a9 c0 3e 37 d9 06 bd 09 30 ae 3d
       0.069541454 0.37629482 -0.032921996 0.08505256
000050 98 ba ce 3e 93 8d 45 3d 16 8a 71 bd de ba 7a 3e
       0.40376735 0.04823072 -0.05896958 0.24485347
000060 b6 b1 e5 bc d9 77 29 3d 2d 54 6a bd 81 ed c9 3e
       -0.02803884 0.04137406 -0.057209183 0.39439014
000070 91 9c dd 3e 94 29 c5 3b 41 9e 59 bd de a7 ca 3b
       0.43283513 0.0060169194 -0.05312944 0.006184562

BatchNormalization_0_param2 f4 [32]
000000 5d 76 f4 3c ae ec e0 3d 27 66 fc 3d 04 00 00 00
       0.029841596 0.10982643 0.123241715 6e-45
000010 42 02 13 3e 85 cd 60 3b 04 00 00 00 8d d0 05 3a
       0.1435633 0.0034302187 6e-45 0.0005104624
000020 6b 5b 4a 3c 79 5c 02 3d 1b c2 76 3c fe f3 35 3e
       0.012350897 0.03182647 0.015060927 0.17768857
000030 04 00 00 00 04 00 00 00 36 54 bd 3b 04 00 00 00
       6e-45 6e-45 0.005777861 6e-45
000040 04 00 00 00 f6 3d c2 3d 52 85 41 3e 17 be 2f 3d
       6e-45 0.09484474 0.18898514 0.042905893
000050 40 bb 9e 3b 04 00 00 00 04 00 00 00 e9 4e fe 3d
       0.0048440993 6e-45 6e-45 0.12417395
000060 5a 7e 3b 3b 2c 6b 41 3e 04 00 00 00 e9 b9 4c 3d
       0.0028609247 0.18888539 6e-45 0.049981985
000070 b6 fb 74 3d fb dd fb 3d 04 00 00 00 28 c8 55 3d
       0.059810363 0.12298199 6e-45 0.052192837

BatchNormalization_0_param3 f4 [32]
000000 0b 8b 97 3a f3 a7 82 3c 4e 56 59 3a 04 00 00 00
       0.0011561824 0.015949225 0.00082907535 6e-45
000010 8c d0 09 3b 6c 4f d8 39 04 00 00 00 9f 13 3a 38
       0.0021028845 0.00041257904 6e-45 4.436413e-05
000020 f8 7f 43 3a 83 b1 15 3b 60 55 80 3a ba 7c b0 3b
       0.00074577285 0.00228414 0.0009791069 0.0053859623
000030 04 00 00 00 04 00 00 00 19 23 3e 39 04 00 00 00
       6e-45 6e-45 0.00018132887 6e-45
000040 04 00 00 00 d7 91 8c 3c 14 26 a6 3b 64 1f 00 39
       6e-45 0.017159386 0.0050704572 0.00012218725
000050 09 1b e9 38 04 00 00 00 04 00 00 00 9a 71 9a 3c
       0.000111153415 6e-45 6e-45 0.018852998
000060 68 c0 92 39 b0 16 b4 3b 04 00 00 00 d0 ad 9e 3b
       0.00027990644 0.0054958686 6e-45 0.0048424974
000070 46 d3 dc 3b 7a 8c cc 39 04 00 00 00 03 c1 ce 38
       0.006739053 0.00039014575 6e-45 9.858797e-05

Conv_1_param0 f4 [64]
000000 7d 86 28 be e6 f4 e6 bd 6b e0 0f be a0 1d e0 3b
       -0.16457553 -0.112771794 -0.14050452 0.006839469
000010 68 87 63 be d1 cd 94 be 9d 64 34 be d1 19 3c be
       -0.22219622 -0.29063275 -0.17616506 -0.18369223
000020 f3 3c 10 be 51 02 27 be b5 55 10 be b6 22 6b be
       -0.1408575 -0.16309477 -0.14095195 -0.2296246
000030 75 c5 86 3c bd 2c 08 3e 2b d6 34 be 49 d7 a8 bd
       0.016451577 0.13298316 -0.17659824 -0.082441874
000040 cb 22 95 be dc ef 1e be 13 a5 90 bd 1e db 88 be
       -0.29128107 -0.15521187 -0.070627354 -0.26729673
000050 b0 66 72 bd a1 94 10 be 24 32 81 3d 26 d3 44 be
       -0.05917996 -0.14119197 0.06308392 -0.19221172
000060 01 13 4f 3c 88 d6 6d be f9 2e 13 bd 14 bf 7b be
       0.012638808 -0.23226368 -0.03593347 -0.2458461
000070 94 98 6f 3d 7a 09 d5 bd cf 7c 39 be 50 bb 42 be
       0.05849512 -0.10402198 -0.18114017 -0.19016767
000080 84 7b 9b bd 94 a8 50 3d 97 64 32 be 27 45 94 3d
       -0.07591918 0.05094202 -0.17421184 0.07239752
000090 8f 03 4c bd 01 a5 15 be 64 d6 12 be 45 f4 44 be
       -0.04980808 -0.14613725 -0.14339596 -0.19233806
0000a0 05 1b 0b be eb 12 51 be 38 b7 84 be cd 59 3f be
       -0.13584526 -0.20417373 -0.25921035 -0.186866
0000b0 70 79 df 3b 23 26 19 bd 0f b2 a9 3c 12 ee 26 be
       0.0068198964 -0.037389886 0.020714788 -0.16301754
0000c0 82 f1 ee bd 2e 8e 91 3d f0 dd 0c be 0e fd 72 be
       -0.11667158 0.07107197 -0.13756537 -0.23729345
0000d0 60 b5 36 bd d8 ad d7 bd 93 3b 88 be f8 f6 25 be
       -0.044606566 -0.10531205 -0.26607952 -0.16207492
0000e0 38 25 2b be cd ef d9 bd b2 5e 48 be a7 6f 83 bd
       -0.16713417 -0.106414415 -0.19567373 -0.0641778
0000f0 b4 26 22 be c8 a8 2d be 5e d6 22 be c2 7a b4 3b
       -0.15835077 -0.16958916 -0.15902087 0.005507798

BatchNormalization_1_param0 f4 [64]
000000 3c 02 2f 3f 89 15 69 3f c8 b4 3e 3f 04 5f 45 3f
       0.68362784 0.91048485 0.744946 0.7709811
000010 8d 64 6d 3f ca c8 64 3f 6f 15 55 3f 52 ca 76 3f
       0.92731553 0.8936888 0.8323583 0.96402466
000020 a3 a3 46 3f b6 7f 8b 3f 15 2c 43 3f 01 10 78 3f
       0.7759344 1.0898349 0.7623914 0.9689942
000030 0e bf 76 3f 18 61 81 3f 36 45 83 3f 1f 50 86 3f
       0.96385276 1.0107756 1.0255497 1.0493201
000040 01 63 4a 3f 97 87 66 3f 3e 11 63 3f 65 de 5d 3f
       0.7905732 0.90050644 0.88698184 0.8666747
000050 43 b6 53 3f 2e fc 41 3f 14 48 69 3f 35 06 82 3f
       0.82699984 0.7577542 0.9112561 1.0158144
000060 e2 bb 71 3f 00 2d 46 3f 54 1e 84 3f 92 38 5f 3f
       0.9442731 0.77412415 1.0321755 0.87195694
000070 af 33 91 3f b5 88 71 3f 7b d8 50 3f 8f 71 60 3f
       1.1343898 0.94349223 0.81580323 0.87673277
000080 c8 22 64 3f 0a c5 8c 3f bc 84 85 3f 01 dd 7c 3f
       0.8911557 1.0997632 1.0431132 0.98774725
000090 40 1f 50 3f 3d 33 51 3f 1d b4 57 3f 47 88 52 3f
       0.81297684 0.8171881 0.84259206 0.8223919
0000a0 d3 e2 3d 3f 47 fd 5c 3f 1b 38 59 3f 7a c4 7c 3f
       0.7417423 0.8632397 0.84851235 0.987373
0000b0 60 57 5e 3f 2f a3 8f 3f 25 71 57 3f 22 d0 4a 3f
       0.86852074 1.1221675 0.8415702 0.79223835
0000c0 24 33 70 3f dc 79 9e 3f 36 f6 52 3f 21 77 68 3f
       0.93828034 1.2380939 0.8240694 0.90806776
0000d0 6c 2b 85 3f c5 5f 5f 3f 3d dd 6d 3f 95 e2 45 3f
       1.0403876 0.8725551 0.9291571 0.7729886
0000e0 ba 0c 40 3f 90 50 54 3f 53 09 65 3f 34 4f 6a 3f
       0.7501942 0.8293543 0.8946735 0.91527104
0000f0 7d 0e 48 3f 3f b5 5d 3f 2b 1b 69 3f 53 49 71 3f
       0.7814711 0.86604685 0.9105708 0.9425251

BatchNormalization_1_param1 f4 [64]
000000 e3 55 dd 3d b5 a0 1c 3e 14 cc e0 3c 45 bf 17 bd
       0.10807397 0.1529568 0.027441062 -0.037047643
000010 ee 57 ff 3d e3 f7 db 3d da 46 e8 3d 03 89 8d 3d
       0.12467943 0.1074064 0.11341639 0.069108985
000020 42 20 55 3d e5 b6 26 3d ae d6 22 3d 3a 77 f6 3d
       0.052032717 0.040701766 0.039755516 0.120344594
000030 23 de 4a 3d 32 1b 11 3e 45 1e 56 3c 36 56 7f bd
       0.049528252 0.1417053 0.01306874 -0.062338077
000040 8b 12 dc 3d 09 6f 6e 3e 29 fb 13 3e c8 f6 98 3d
       0.10745724 0.23284544 0.14451279 0.07468945
000050 df e1 2a 3d ff 6c 90 3d b9 a6 b7 3d 77 8c 5a 3d
       0.041719314 0.07052039 0.08967347 0.053356614
000060 5a 69 42 3e 53 81 b5 3d 76 64 e0 3d f9 d0 7c 3d
       0.18985501 0.08862557 0.109566614 0.06172273
000070 ff f8 e5 3c 8e d5 a6 3d 01 17 81 3d 57 54 42 3d
       0.028072832 0.08146201 0.06303216 0.047443714
000080 47 18 5a 3d 70 f1 df 3d ec 76 80 3d 28 af b7 3d
       0.05324581 0.109347224 0.062726825 0.08968955
000090 d2 ca 0a 3e 72 96 81 3d 29 29 86 3d eb 28 a9 3d
       0.13553932 0.06327523 0.065508194 0.082597576
0000a0 3c fe e3 bc 41 06 24 3e e7 7f 23 3e c6 7d f9 3d
       -0.02783119 0.1601801 0.1596676 0.121821925
0000b0 58 5b 2b 3e d7 da 9e 3c ba 47 e9 3d 09 d9 94 3d
       0.16734064 0.01939146 0.11390634 0.07267959
0000c0 05 f1 80 3d 9b 6a 52 3e 0a 17 db 3d 13 a9 73 3d
       0.06295971 0.2054848 0.10697754 0.059487414
0000d0 90 e4 20 3e 7b 8c a2 3d 99 dc 01 3e 12 e1 43 3d
       0.1571219 0.07936951 0.12681808 0.047822066
0000e0 e7 e4 0a 3e 05 ae 0b 3e 0b b0 b5 3d 68 a3 26 bd
       0.13563882 0.13640602 0.08871468 -0.04068318
0000f0 ee 10 ad 3d ac b1 a4 3c af a0 13 bd 67 c8 78 3d
       0.08450495 0.020104252 -0.03604191 0.060737994

BatchNormalization_1_param2 f4 [64]
000000 98 9b 40 3e 8f 64 54 3e 2f 22 59 3e e6 e7 c9 3d
       0.18809354 0.20741485 0.21204446 0.09858684
000010 e4 22 f7 3d 54 16 df 3d 01 d6 12 3e 0d 29 ca 3d
       0.12067202 0.108929306 0.14339449 0.09871111
000020 67 e6 0b 3e c6 32 aa 3d 75 dc 3f 3e 45 1d 07 3e
       0.1366211 0.083104655 0.18736441 0.13194759
000030 96 0d d0 3d 7b 06 3c 3e ed 3a d3 3d 3e 2d 66 3d
       0.10158841 0.18361847 0.103139736 0.05619549
000040 54 b6 ec 3d c7 c7 ef 3e 85 a1 54 3e 09 3e 0f 3e
       0.11558214 0.46832106 0.2076474 0.13988508
000050 f8 6b 6f 3e f1 73 48 3e de 99 10 3e 0c 03 b2 3d
       0.2338103 0.19575478 0.14121196 0.086919874
000060 e8 cf 9d 3d b0 05 40 3e 80 b1 c2 3e 79 1f 78 3e
       0.077056706 0.1875217 0.38026047 0.24230756
000070 40 51 b8 3d 04 e9 e6 3d 28 b7 55 3d f7 44 e4 3d
       0.08999872 0.11274913 0.052176625 0.111459665
000080 d9 68 90 3d 42 a8 dc 3d d7 0c 8b 3d cf a7 9c 3d
       0.07051248 0.1077428 0.067895584 0.076491944
000090 7b 2b 3f 3e 22 3b 23 3d 27 1d 0c 3e 22 3a ef 3d
       0.1866893 0.039851315 0.13682996 0.1168101
0000a0 c4 10 a2 3d a0 f0 0f 3e f2 67 57 3e 09 51 d5 3d
       0.07913354 0.14056635 0.21035746 0.10415847
0000b0 a9 0b aa 3d b2 e4 df 3d fb e4 b0 3e 31 36 69 3e
       0.08303005 0.10932292 0.34549698 0.22774579
0000c0 33 5e 31 3d 91 bf f5 3d 88 8c 2a 3e 5d b8 42 3d
       0.043302726 0.11999429 0.16655171 0.047539104
0000d0 64 2e 93 3d e0 5a e9 3d b5 75 18 3e 15 10 a7 3d
       0.07186583 0.11394286 0.14888652 0.08157364
0000e0 b1 a9 3d 3e 34 e8 72 3e d7 aa 81 3d db aa ec 3d
       0.18521763 0.23721391 0.06331413 0.115560256
0000f0 d9 8c c5 3e 5d 19 9d 3d c5 9c 7b 3d a3 fc ae 3d
       0.3858402 0.07670853 0.061428804 0.085442804

BatchNormalization_1_param3 f4 [64]
000000 97 bb ae 3d 31 af 12 3e 0f 41 32 3e 4d e8 20 3d
       0.08531874 0.14324643 0.1740763 0.03928404
000010 03 31 b5 3d 1f 5e 8f 3d 33 f7 a7 3d 79 9c 59 3d
       0.08847239 0.07000374 0.082014464 0.05312774
000020 0e 39 d2 3d e2 b5 df 3d e6 11 16 3e 0b 36 b9 3d
       0.102647886 0.10923363 0.14655265 0.09043511
000030 fa 66 fb 3c a6 b9 30 3d af d6 05 3e c2 ed 5e 3d
       0.030688751 0.0431458 0.13070177 0.054425962
000040 e3 70 6d 3d 8e 3a 02 3f b2 13 12 3e ed ca d0 3d
       0.057968985 0.508706 0.14265326 0.10194955
000050 cb 71 d2 3d 6e 86 17 3e 17 7b 1d 3d e0 cf f2 3d
       0.102756105 0.14797375 0.038447466 0.11856055
000060 69 40 b8 3c d4 26 ec 3d 59 5d 28 3e ca f6 2d 3e
       0.02249165 0.115308434 0.1644186 0.16988674
000070 f5 73 93 3d 75 01 9c 3d a6 5b 38 3d a0 19 91 3d
       0.071998514 0.076174654 0.045009278 0.07084966
000080 e9 1e f1 3c e4 f4 50 3d 92 bd 94 3d 83 09 ad 3c
       0.029433684 0.051014796 0.0726272 0.0211227
000090 60 6d b3 3d 71 ea 4a 3c 96 ac b2 3d 44 8b 9e 3d
       0.08761096 0.012384997 0.087243244 0.077414066
0000a0 0d d8 42 3d 1b 0c 9c 3d f1 26 0c 3e 83 08 5d 3d
       0.047569323 0.076194964 0.1368673 0.053963196
0000b0 6b d6 bf 3c 35 65 16 3e 59 c0 58 3e 2c 08 2d 3e
       0.023417672 0.14687045 0.21167125 0.16897649
0000c0 b3 92 a1 3c 2c 13 17 3d 9d 79 f9 3d c9 63 67 3d
       0.019723272 0.036883518 0.12181399 0.056491647
0000d0 da cd d3 3c 34 2e 65 3d 2a 64 f7 3d 5f 75 ae 3d
       0.025854994 0.055952266 0.12079652 0.085184805
0000e0 d1 ad fd 3d b9 4a 2e 3e 3d 0a d1 3c f7 13 f9 3c
       0.123866685 0.17020692 0.025517577 0.030405028
0000f0 3a a4 96 3e ff f3 2d 3d e0 ff 62 3d 85 f5 46 3d
       0.2942217 0.04246902 0.055419803 0.04857399

Quant_0_param0 f4 [32, 1, 3]
000000 8c 00 6b be 68 5b 0e 3f 8c 00 6b be 58 e0 92 be
       -0.22949427 0.55608225 -0.22949427 -0.28686786
000010 d7 ed 01 3f 8b 36 a7 3e 8c 00 6b 3e e0 9d 90 3b
       0.5075354 0.326588 0.22949427 0.0044133514
000020 6a 0a 74 be d0 ec 58 bd 02 94 87 bd 00 00 00 00
       -0.23832098 -0.052960217 -0.06620027 0.0
000030 58 c5 34 3e 14 d9 c6 3d 8b 36 27 be 25 54 c2 3e
       0.17653406 0.09709373 -0.163294 0.37954822
000040 8c 00 eb 3d 9c cc 00 bf 00 00 00 80 00 00 00 00
       0.11474714 -0.5031221 -0.0 0.0
000050 00 00 00 00 6a 0a 74 be bf 71 dd 3e 13 0f 03 3f
       0.0 -0.23832098 0.43250844 0.51194876
000060 36 cf bd be 7a bb ab be cf 22 95 be f2 e2 4f 3e
       -0.37072152 -0.3354147 -0.2912812 0.20301417
000070 6a 0a f4 be e0 9d 90 3c be a7 99 3d 68 5b 8e 3e
       -0.47664195 0.017653406 0.075026974 0.27804112
000080 6a 0a f4 3e 04 43 ed be d0 ec 58 3d 6a 0a 74 3e
       0.47664195 -0.4634019 0.052960217 0.23832098
000090 be a7 99 3d e0 9d 90 3e 00 00 00 80 e0 9d 90 3b
       0.075026974 0.2824545 -0.0 0.0044133514
0000a0 9c b1 22 3d 7a bb ab be a4 7c 0f bf 48 14 fd bc
       0.039720163 -0.3354147 -0.5604956 -0.03089346
0000b0 e0 9d 10 3e 58 c5 b4 bd 58 c5 34 3d e0 9d 10 be
       0.14122725 -0.08826703 0.044133514 -0.14122725
0000c0 00 00 00 80 00 00 00 00 00 00 00 00 25 54 42 3e
       -0.0 0.0 0.0 0.18977411
0000d0 a4 7c 0f 3f d0 ec d8 bc ae 11 c0 3e 48 14 fd 3c
       0.5604956 -0.026480108 0.3751349 0.03089346
0000e0 7b 85 6f be 6a 0a f4 bd 9c cc 80 3e 13 0f 03 be
       -0.23390763 -0.11916049 0.25156105 -0.12798719
0000f0 9c cc 00 3f 9c b1 22 bd 02 94 87 bd d0 ec 58 3c
       0.5031221 -0.039720163 -0.06620027 0.013240054
000100 9c b1 22 3d 00 00 00 00 48 14 fd bd d0 ec d8 3d
       0.039720163 0.0 -0.12357384 0.105920434
000110 13 0f 03 be a4 7c 0f 3f 9c cc 80 3e 13 0f 03 3e
       -0.12798719 0.5604956 0.25156105 0.12798719
000120 f2 e2 cf be f2 e2 cf 3d 9c b1 a2 3e e0 9d 90 3e
       -0.40602833 0.10150708 0.3177613 0.2824545
000130 36 cf 3d 3e e0 9d 90 be 00 00 00 00 00 00 00 00
       0.18536076 -0.2824545 0.0 0.0
000140 00 00 00 00 7a bb 2b 3e d0 ec d8 3e f1 18 8c be
       0.0 0.16770735 0.42368174 -0.2736278
000150 cf 22 15 be 7a d6 09 bf ad 2c 9e 3e 47 4a 39 3e
       -0.1456406 -0.5384289 0.3089346 0.18094741
000160 03 5e cb be d0 ec 58 3e 00 00 00 80 e0 9d 90 3b
       -0.39720163 0.21184087 -0.0 0.0044133514
000170 14 d9 46 3d 36 cf bd 3d 03 5e 4b be f2 e2 cf 3d
       0.048546866 0.09268038 -0.19860081 0.10150708

Quant_1_param0 f4 [64, 32, 3]
000000 9e b3 71 bd 03 6b c9 3c b6 46 35 bd 1c fe 0c bd
       -0.059009187 0.02458716 -0.04425689 -0.034422025
000010 69 22 a1 bc 9e b3 f1 3c 1c fe 0c bd 69 22 21 bd
       -0.019669728 0.029504593 -0.034422025 -0.039339457
000020 1c fe 0c bd 69 22 a1 3b 9e b3 71 bc 9e b3 71 bc
       -0.034422025 0.004917432 -0.014752297 -0.014752297
000030 b6 46 b5 3d 50 8f dd 3d f5 eb 02 3e 1c fe 0c 3d
       0.08851378 0.1081835 0.12785323 0.034422025
000040 77 a1 67 be f0 61 44 be 03 6b c9 3c 69 22 a1 bc
       -0.22620188 -0.19177985 0.02458716 -0.019669728
000050 1c fe 0c bd 03 6b c9 3c 03 6b c9 bd 03 6b c9 3c
       -0.034422025 0.02458716 -0.09834864 0.02458716
000060 00 00 00 00 9e b3 71 3c 9e b3 71 3c 69 22 a1 bc
       0.0 0.014752297 0.014752297 -0.019669728
000070 03 6b 49 bd 56 19 1c be 00 00 00 80 69 22 21 bc
       -0.04917432 -0.1524404 -0.0 -0.009834864
000080 50 8f 5d bd 1c fe 0c 3d 1c fe 8c bd 42 10 17 be
       -0.05409175 0.034422025 -0.06884405 -0.14752296
000090 03 6b c9 3c 69 22 21 3c 9e b3 f1 bc 69 22 a1 bc
       0.02458716 0.009834864 -0.029504593 -0.019669728
0000a0 69 22 a1 3b 03 6b c9 3c 69 22 a1 bc 69 22 a1 3c
       0.004917432 0.02458716 -0.019669728 0.019669728
0000b0 69 22 21 3c 69 22 a1 3b 69 22 21 bc 69 22 a1 3c
       0.009834864 0.004917432 -0.009834864 0.019669728
0000c0 9e b3 f1 bc 69 22 a1 3b 1c fe 0c 3d 9e b3 71 bc
       -0.029504593 0.004917432 0.034422025 -0.014752297
0000d0 69 22 21 3c 69 22 a1 3c 69 22 21 3d 03 6b 49 bd
       0.009834864 0.019669728 0.039339457 -0.04917432
0000e0 42 10 17 3e 69 22 a1 bc c4 c5 fb 3d 1c fe 0c 3d
       0.14752296 -0.019669728 0.1229358 0.034422025
0000f0 69 22 a1 3b b6 46 b5 bd 1c fe 0c bd 9e b3 71 bc
       0.004917432 -0.08851378 -0.034422025 -0.014752297
000100 9e b3 71 bc 69 22 a1 3c 69 22 a1 3c 50 8f 5d 3d
       -0.014752297 0.019669728 0.019669728 0.05409175
000110 9e b3 71 bc 9e b3 f1 3c 69 22 a1 bb 9e b3 71 3c
       -0.014752297 0.029504593 -0.004917432 0.014752297
000120 69 22 a1 3c 1c fe 0c 3d b6 46 35 be 50 8f 5d bd
       0.019669728 0.034422025 -0.17702755 -0.05409175
000130 77 a1 e7 3d 1c fe 0c 3e 69 22 a1 bb 9e b3 71 bc
       0.11310094 0.1376881 -0.004917432 -0.014752297
000140 9e b3 f1 bc 69 22 a1 bb 03 6b 49 3d 42 10 97 3d
       -0.029504593 -0.004917432 0.04917432 0.07376148
000150 90 34 ab 3d 69 22 21 bd 42 10 97 bd 9e b3 f1 3d
       0.08359635 -0.039339457 -0.07376148 0.118018374
000160 03 6b 49 bd 1c fe 0c 3d 69 22 21 3c 69 22 a1 3b
       -0.04917432 0.034422025 0.009834864 0.004917432
000170 1c fe 0c bd 69 22 21 3d 69 22 a1 bd 69 22 21 bc
       -0.034422025 0.039339457 -0.07867891 -0.009834864
000180 69 22 a1 3c 9e b3 71 bc 9e b3 f1 bc 1c fe 0c 3d
       0.019669728 -0.014752297 -0.029504593 0.034422025
000190 9e b3 f1 3c 03 6b 49 bd 9e b3 f1 3c 69 22 21 3d
       0.029504593 -0.04917432 0.029504593 0.039339457
0001a0 9e b3 71 3c 69 22 a1 3b 9e b3 71 bc 03 6b 49 3d
       0.014752297 0.004917432 -0.014752297 0.04917432
0001b0 50 8f 5d 3d 69 22 21 3d 69 22 a1 3d b6 46 b5 bd
       0.05409175 0.039339457 0.07867891 -0.08851378
0001c0 9e b3 71 3c 69 22 a1 3d 9e b3 71 bc 69 22 a1 3c
       0.014752297 0.07867891 -0.014752297 0.019669728
0001d0 9e b3 71 3c 69 22 21 be 69 22 21 bd 69 22 a1 bd
       0.014752297 -0.15735783 -0.039339457 -0.07867891
0001e0 7c 2b 26 3e 42 10 97 3d 69 22 a1 bd 77 a1 e7 3d
       0.16227525 0.07376148 -0.07867891 0.11310094
0001f0 f5 eb 82 bd 69 22 a1 3d 17 74 4e be dd 58 3f 3e
       -0.063926615 0.07867891 -0.20161472 0.18686242
000200 50 8f 5d bd a3 3d 30 be 2a 7d d3 bd 9e b3 71 3d
       -0.05409175 -0.17211013 -0.103266075 0.059009187
000210 9e b3 71 bc 9e b3 f1 3c 9e b3 f1 bc 03 6b c9 3c
       -0.014752297 0.029504593 -0.029504593 0.02458716
000220 69 22 a1 bb 69 22 a1 bb c4 c5 7b 3e 9e b3 f1 3c
       -0.004917432 -0.004917432 0.2458716 0.029504593
000230 9e b3 71 bc 03 6b c9 3c 69 22 21 bc 69 22 21 3d
       -0.014752297 0.02458716 -0.009834864 0.039339457
000240 03 6b c9 bc 9e b3 71 3c 69 22 21 3c 03 6b c9 3c
       -0.02458716 0.014752297 0.009834864 0.02458716
000250 69 22 a1 bc f5 eb 82 bd 1c fe 0c bd 1c fe 0c 3d
       -0.019669728 -0.063926615 -0.034422025 0.034422025
000260 9e b3 71 3c b6 46 35 bd 9e b3 71 3c 69 22 21 3c
       0.014752297 -0.04425689 0.014752297 0.009834864
000270 c4 c5 fb bd 50 8f 5d 3d b6 46 35 3d 69 22 21 3c
       -0.1229358 0.05409175 0.04425689 0.009834864
000280 69 22 a1 bc 1c fe 0c 3d 9e b3 71 bc 9e b3 f1 bc
       -0.019669728 0.034422025 -0.014752297 -0.029504593
000290 1c fe 0c bd 69 22 a1 3d 69 22 21 3d 00 00 00 80
       -0.034422025 0.07867891 0.039339457 -0.0
0002a0 3d 86 58 3e 9e b3 f1 3d 69 22 a1 3c 1c fe 0c 3d
       0.21144958 0.118018374 0.019669728 0.034422025
0002b0 00 00 00 00 1c fe 0c 3d 69 22 21 3c 69 22 21 3c
       0.0 0.034422025 0.009834864 0.009834864
0002c0 9e b3 71 bc 69 22 21 3c 00 00 00 00 69 22 a1 bb
       -0.014752297 0.009834864 0.0 -0.004917432
0002d0 69 22 a1 3c 03 6b 49 3d 69 22 a1 3b 69 22 21 bc
       0.019669728 0.04917432 0.004917432 -0.009834864
0002e0 50 8f 5d bd 69 22 a1 3d 03 6b 49 3d 00 00 00 00
       -0.05409175 0.07867891 0.04917432 0.0
0002f0 69 22 a1 bc 90 34 ab 3d 69 22 21 3c 69 22 a1 3b
       -0.019669728 0.08359635 0.009834864 0.004917432
000300 00 00 00 80 1c fe 0c bd 50 8f 5d bd 9e b3 71 3c
       -0.0 -0.034422025 -0.05409175 0.014752297
000310 9e b3 71 bd 9e b3 71 3c f5 eb 82 bd f0 61 44 3e
       -0.059009187 0.014752297 -0.063926615 0.19177985
000320 9e b3 71 3c b6 46 35 3d 1c fe 0c 3d 9e b3 71 3d
       0.014752297 0.04425689 0.034422025 0.059009187
000330 90 34 ab 3d 03 6b c9 3d 69 22 21 bc 3d 86 58 3e
       0.08359635 0.09834864 -0.009834864 0.21144958
000340 dd 58 bf 3d 2a 7d d3 3d 1c fe 0c 3d f5 eb 82 3d
       0.09343121 0.103266075 0.034422025 0.063926615
000350 50 8f 5d 3d 69 22 21 3c 1c fe 8c bd f5 eb 82 bd
       0.05409175 0.009834864 -0.06884405 -0.063926615
000360 50 8f dd bd 09 f5 07 be 69 22 a1 bc 42 10 97 bd
       -0.1081835 -0.13277067 -0.019669728 -0.07376148
000370 b6 46 35 bd 50 8f 5d 3d 69 22 a1 3d 1c fe 0c bd
       -0.04425689 0.05409175 0.07867891 -0.034422025
000380 69 22 21 bc 69 22 a1 bd 69 22 a1 bc 69 22 21 bd
       -0.009834864 -0.07867891 -0.019669728 -0.039339457
000390 03 6b 49 3d 9e b3 f1 3c 69 22 a1 3c b6 46 35 bd
       0.04917432 0.029504593 0.019669728 -0.04425689
0003a0 69 22 21 bd 9e b3 f1 bc 9e b3 f1 bc dd 58 bf bd
       -0.039339457 -0.029504593 -0.029504593 -0.09343121
0003b0 1c fe 8c bd 03 6b c9 bc 03 6b 49 bd 1c fe 0c bd
       -0.06884405 -0.02458716 -0.04917432 -0.034422025
0003c0 1c fe 8c bd b6 46 35 bd 50 8f 5d bd 69 22 21 3c
       -0.06884405 -0.04425689 -0.05409175 0.009834864
0003d0 03 6b c9 bc 9e b3 71 3c f5 eb 82 3d f5 eb 02 3e
       -0.02458716 0.014752297 0.063926615 0.12785323
0003e0 03 6b c9 3c f5 eb 82 3d 69 22 21 bc 03 6b c9 bd
       0.02458716 0.063926615 -0.009834864 -0.09834864
0003f0 56 19 1c 3e 1c fe 0c 3e dd 58 bf 3d 9e b3 f1 bc
       0.1524404 0.1376881 0.09343121 -0.029504593
