models/ids/ids_qcdq.onnx (onnx, 67584 bytes, 17 tensors)

W_f f4 [20, 10]
000000 56 c5 78 be f2 e6 0e 3e 85 3c 27 be eb 79 41 3d
       -0.24294028 0.13955286 -0.1633168 0.04723541
000010 6f 46 ea 3d da 0a 53 be 50 4c 62 bf b9 e0 93 be
       0.114392154 -0.20609608 -0.88397694 -0.28882387
000020 7b 54 60 3d 50 9c ca bd 6b c4 72 3d 1b 7f 71 3c
       0.054768067 -0.098930955 0.05926935 0.014739777
000030 02 70 3a be 0a 5c f8 bd f3 7d 05 3e db 4c 03 3e
       -0.1820679 -0.1212693 0.13036327 0.12822287
000040 90 d9 07 3e 53 72 30 bd 3a dd 47 3e 52 72 da 3d
       0.13266587 -0.043077778 0.19517985 0.10666336
000050 da 9b 0a be fd e1 22 3e 1e 86 7a 3d 2e a7 88 3e
       -0.13536015 0.1590652 0.06116306 0.26690048
000060 ef bb a9 be e1 bc 30 3b 00 c8 83 3e 74 f2 69 be
       -0.33151194 0.002696805 0.25738525 -0.22846395
000070 2c 43 e1 bd 38 08 d0 bd a2 2d 9c 3d 1a 1c aa 3d
       -0.1099914 -0.101578176 0.07625891 0.08306141
000080 be 27 8e 3c 87 98 3a 3d b4 7a 9c 3d b5 5c 9a be
       0.017352935 0.045555618 0.07640591 -0.30148855
000090 8d 2e 8c bf f8 42 a2 bd 6a f5 4d 3b 5a 0a dc bd
       -1.0951706 -0.079229295 0.0031426796 -0.10744162
0000a0 bf 1c 07 3e 09 8c 74 3d d8 30 28 bd a6 9b 21 bd
       0.1319456 0.05970386 -0.041062206 -0.03945508
0000b0 2d cc 37 3e 9f 26 96 3e dd b1 dd bd b9 18 bd 3e
       0.1794898 0.2932634 -0.1082494 0.36932924
0000c0 c4 55 0c 3d 57 d5 44 3e 56 1e 51 3d 2c 15 cf 3d
       0.03426148 0.19222008 0.05105432 0.1011146
0000d0 7f dd 75 bd f8 f3 75 3e 6b 64 e4 3d 54 7a 86 3e
       -0.06002569 0.24018848 0.11151966 0.26265204
0000e0 b9 37 49 3b 66 ac 98 3e 71 dc 3c 3c 64 d5 93 3e
       0.003070338 0.2981903 0.011527167 0.28873742
0000f0 28 22 de be 60 79 41 3d 16 ea 6b be 28 7e 83 be
       -0.43385434 0.047234893 -0.23038515 -0.25682187
000100 f7 a0 cf bc 14 43 1d 3e 3a 76 ec be e4 5d 8c 3d
       -0.025345309 0.1535762 -0.4618395 0.06853846
000110 60 3b 86 be 90 36 fe be 88 cd 08 3d 97 9e 18 bc
       -0.26217175 -0.49651003 0.033399135 -0.0093151545
000120 bd 69 30 bd 7e 79 50 be 62 08 1f 3e a1 45 8f 3c
       -0.04306959 -0.20358846 0.15530542 0.017489256
000130 e2 f3 ce 3c f3 d4 08 3e 75 3a bf bd 9e 42 95 bc
       0.025262777 0.13362484 -0.09337322 -0.018220242
000140 d2 b2 83 3c 7c 9e 2c bf ac 7d 37 bd 87 0a 3f 3e
       0.01607648 -0.6742933 -0.044797584 0.1865636
000150 9c 2a 41 be 0c 1c f1 bd 68 7c cc 3e e5 ec 5f bd
       -0.1886391 -0.11772928 0.39938664 -0.05466928
000160 8a 02 cc be 36 c4 5f be 79 25 40 be ff fe 16 bf
       -0.39845687 -0.21852192 -0.18764295 -0.58982843
000170 e5 4e 80 be 17 86 6e be d1 67 5c be 7d fe a1 be
       -0.25060192 -0.23293339 -0.21523978 -0.31639472
000180 15 65 2c 3d 93 ee 7d be b7 0c 6c 3d 62 e9 14 be
       0.042088587 -0.2479804 0.057629313 -0.14542153
000190 73 c0 f9 bd a2 3d 90 bd 69 43 61 be be f9 b0 bd
       -0.1219491 -0.070430055 -0.21998371 -0.086413845
0001a0 d3 da 00 be 14 51 a1 3d 2b 0e c6 bd 46 3b a4 bb
       -0.12583475 0.078767926 -0.09670671 -0.0050119488
0001b0 66 cf 0f ba 1b 6f 51 3d b3 e3 b6 3c 09 e7 b6 bd
       -0.0005485922 0.05113135 0.022325372 -0.08930785
0001c0 bf 53 8c 3e 3d ba b3 3d d4 de 08 bf 32 b5 3a bd
       0.27407643 0.087757565 -0.5346501 -0.045582958
0001d0 57 62 a2 bd e2 5e 07 be 11 35 16 bb b0 a7 26 be
       -0.07928913 -0.13219789 -0.0022919814 -0.16274905
0001e0 e3 0d 25 3d 03 4e 84 3d 65 05 b0 3c cf eb a8 3e
       0.040296447 0.06460192 0.021486947 0.32992408
0001f0 72 6b 81 3c df a5 cc bc 0b 99 04 3d 21 4e b2 3d
       0.015798304 -0.024981437 0.032372516 0.08706308
000200 ee 1e a1 bd 5a 4d 51 3c 56 c7 a6 3d 01 ca 8e 3d
       -0.078672275 0.01277479 0.08143489 0.06972123
000210 cd 83 ec bd 4a d7 1e 3d 3a b7 38 be bf 96 25 bd
       -0.115485765 0.038779534 -0.18038645 -0.040426966
000220 71 48 ef 3c 2f 9a 06 be 7b 16 be be d4 d4 20 bc
       0.029209347 -0.13144754 -0.37126526 -0.009816367
000230 88 9d 02 bf ac 20 8c be 00 aa 5d be 7d 39 4b be
       -0.51021624 -0.27368677 -0.21646881 -0.19846149
000240 53 af 51 3d db 0b 4a be 04 5e 47 bd 50 1f 89 be
       0.051192593 -0.19731085 -0.048673645 -0.26781702
000250 42 60 27 be 3a 24 82 be cf 50 b3 3e c4 52 2b be
       -0.16345313 -0.25418264 0.3502259 -0.16730791
000260 de 4a 6c 3e 86 9c 30 3d 2d 96 85 3e 8c f8 20 3c
       0.23075435 0.043118022 0.26091138 0.009824883
000270 29 6f 92 3e 6f 9a ce 3d 51 aa 4a bd b0 dc 33 3d
       0.28600433 0.100880496 -0.049478833 0.043911636
000280 66 99 83 bb f8 4f 4d 3e 3b 2b 88 bd 90 76 65 be
       -0.0040160893 0.20050037 -0.066488706 -0.22408509
000290 b5 c0 fd bd 65 46 53 bd fc d4 2b bf 66 06 4a be
       -0.123902716 -0.051580805 -0.67121863 -0.19729003
0002a0 e1 51 0e be e4 79 f2 bd 2a 9d 02 be a6 b2 66 be
       -0.13898422 -0.11839655 -0.12755266 -0.22529086
0002b0 ea c1 7d bc e0 b1 12 3e 59 13 88 be 1f 38 f7 bd
       -0.015488127 0.14325666 -0.2657726 -0.12071251
0002c0 fd 18 8d be ff 88 fe 3d 1e 0a 32 3e 62 80 91 3d
       -0.27558127 0.12428474 0.17386672 0.07104565
0002d0 cc 9a d5 be 5f 46 47 3d 21 5d 39 be 51 4a 5d 3d
       -0.41719663 0.048651095 -0.18101932 0.05402595
0002e0 cf 23 34 be d4 47 0d 3c f4 4e da 3c 79 97 ab 3c
       -0.17591785 0.008623082 0.026648976 0.020946251
0002f0 3e 97 1b 3e 36 4e 09 be f3 b5 5e 3e fd 1d 0a 3e
       0.15194413 -0.13408741 0.21749096 0.13488002
000300 24 a2 d0 3c 2f 69 2f 3d 4f 64 47 3e c9 75 26 3d
       0.02546794 0.04282492 0.19471858 0.040639672
000310 ba 49 1d bd 65 3b f0 bd 7f 22 78 bd 14 7c 1a 3e
       -0.03840039 -0.117300786 -0.060579773 0.15086395

U_f f4 [20, 20]
000000 04 2c a4 bd 65 62 23 be 45 c6 11 bf bd ac 37 3f
       -0.08016208 -0.15955503 -0.5694316 0.7174795
000010 95 1a 93 3d 2c 5b ab 3e 3a 28 da be 17 ba 58 3e
       0.071828045 0.33467996 -0.42608815 0.21164738
000020 0c c6 35 3e e0 46 99 be 56 ff 68 be 8d ec e6 3d
       0.1775133 -0.29936886 -0.22753653 0.11275587
000030 ab 2e a4 3e 9d 35 d5 be 0c 1e 49 be 01 d8 7e be
       0.32066855 -0.41642466 -0.19640368 -0.24887086
000040 d9 c8 17 3e d6 c4 80 3e 95 d8 0c 3f da 9e d9 3e
       0.14822711 0.25150174 0.5501798 0.42504007
000050 e8 02 3a be fb 10 09 be 56 59 46 3d 6b a6 4a 3e
       -0.18165171 -0.13385384 0.04842504 0.19790046
000060 ac 6c 64 bd bb fe 75 3e c8 0c d4 3d ab 60 ce bd
       -0.0557677 0.24022953 0.10354 -0.10077032
000070 de b0 c1 bb 39 11 f0 bd 5a e6 4c bd f9 15 62 be
       -0.005910977 -0.11722035 -0.050024368 -0.22078694
000080 03 af 8f 3d f4 3b 2e 3e f6 32 68 3e 1b a5 73 be
       0.07015803 0.17015058 0.2267569 -0.23793451
000090 fc 9b 9b bc b1 ea 15 3e e9 d4 93 3c 89 d1 f8 bd
       -0.018995278 0.14640309 0.01804586 -0.12149341
0000a0 41 88 dd be 55 aa d3 3e 9b 66 6b 3e a1 f3 4e be
       -0.43268016 0.4134089 0.2298836 -0.20210125
0000b0 0a ef 06 be 10 ee 1b be f2 9f 24 bb 2c ce 3b be
       -0.13177124 -0.15227532 -0.002511975 -0.18340367
0000c0 8f 74 01 bf 96 3d 82 be a6 c8 6e 3d 7c ec 20 3e
       -0.5056848 -0.2543761 0.058296822 0.15715212
0000d0 90 51 ca be 73 b3 88 3e 85 55 9f 3e bf 41 0a 3e
       -0.39515352 0.2669941 0.31119934 0.13501643
0000e0 cf 8a c6 be a6 b6 14 bf a7 f6 6f be db 27 0d be
       -0.38777778 -0.580912 -0.23433934 -0.13784735
0000f0 4d 6c 21 bc f1 18 94 bd 37 0a 4d be 77 59 b7 3d
       -0.009852481 -0.0723132 -0.20023428 0.08952611
000100 7c 33 f5 3d 68 1d 4e 3e 6a 26 4d 3e fa 21 6d 3d
       0.119727105 0.20128405 0.20034185 0.05789373
000110 9f 20 f7 3b d5 3e 9a 3d 5c 87 05 3e 1f f3 30 bd
       0.0075417305 0.075315155 0.13039917 -0.04320061
000120 4c 25 91 3e a3 d6 98 be 2b fb 54 3d 37 aa 5c be
       0.28348768 -0.29851255 0.051997345 -0.21549307
000130 e9 35 b6 bd 45 cc bf 3d a0 e0 0f 3f de 96 8c 3e
       -0.08897001 0.09365133 0.56202126 0.27458853
000140 8a 5d 7e 3e 5e 54 10 bd 0b 84 1c be b1 46 76 3e
       0.2484037 -0.03523671 -0.15284745 0.24050404
000150 36 7e 53 3d 17 55 4c bc b2 dd 19 be f5 3f 58 3e
       0.051634036 -0.012471459 -0.15025976 0.21118148
000160 6e b9 b1 3e 4e 0b 8a 3e 91 2b fe bd 78 09 a7 bc
       0.34711784 0.2696175 -0.124106534 -0.020390257
000170 3e 9b 51 3c c9 00 b1 3d e3 43 6e be ef 3f 59 3d
       0.01279336 0.08642728 -0.23268084 0.053039487
000180 ff 9e 88 3c ea 0a 44 bc a8 6d 8b 3d c0 76 62 3a
       0.016677378 -0.011965493 0.06808025 0.0008638911
000190 24 63 59 3c 65 1b 72 be f4 9f 7b be 7e 81 9e 3e
       0.013268266 -0.23643263 -0.24572736 0.3095817
0001a0 81 b5 94 bd b7 05 c2 bd 65 98 ba bd 65 dd 0d be
       -0.072611816 -0.09473746 -0.09111098 -0.13853987
0001b0 49 ba 85 3e 0d 17 0f be 7d ce 2f be 9b 98 60 be
       0.26118687 -0.13973637 -0.17168613 -0.21933214
0001c0 26 bf e6 3d 93 c7 81 3d 3e 7f c4 bd 71 6a af bd
       0.112669274 0.06336894 -0.09594582 -0.08565224
0001d0 86 12 b1 3d fd 8c 58 3d 57 c8 1d 3e 5b 4d 3f be
       0.08646111 0.052868832 0.15408455 -0.18681853
0001e0 e5 5d 2a bd e7 08 0e 3e c6 25 a1 3d 69 b0 a6 3d
       -0.04159345 0.13870583 0.07868533 0.08139116
0001f0 77 2e 55 3e 4f 84 89 3e 60 89 c3 3e 4d b4 b0 3c
       0.20818506 0.26858756 0.38190746 0.02157035
000200 00 bb c4 bd ff 1d 7e 3e 5b 59 bb bd b9 00 c5 bd
       -0.0960598 0.2481613 -0.091479026 -0.096192785
000210 00 9f 8e 3e 68 46 cf 3c 54 8e 3b 3e 05 de 27 3e
       0.27855682 0.025302127 0.18316013 0.16393287
000220 92 16 89 bd 73 ce 45 be a5 11 79 3e 08 93 aa be
       -0.06693758 -0.19317035 0.24323137 -0.333153
000230 c6 d9 14 be 5d 18 0d 3e 08 f7 f4 bd 23 06 39 bd
       -0.14536199 0.13778825 -0.1196118 -0.045171868
000240 b5 01 f2 bd a2 67 da bd 3a a4 8d be c1 93 66 3e
       -0.11816732 -0.10664298 -0.27664357 0.22517301
000250 88 b6 00 3e 9e 32 90 3e 8e 07 c5 be 24 b5 13 3e
       0.1256963 0.28163618 -0.38482326 0.14424568
000260 56 27 7c 3e d6 8e cd be 1d 0f 8c be aa e9 55 3d
       0.2462438 -0.40148038 -0.2735528 0.052224793
000270 9a ec b4 3d 83 9a 08 bd 43 05 c2 bd c7 00 57 3d
       0.08834191 -0.03335048 -0.0947366 0.052490976
000280 55 90 82 3e db 97 74 be f0 21 82 bd d5 eb 4c 3e
       0.25500742 -0.23886053 -0.06354129 0.20011838
000290 93 90 a0 3c 12 aa 7f 3d cd 19 a9 be 2d 5c 23 be
       0.019600188 0.06241805 -0.33027497 -0.15953131
0002a0 74 2f 37 3e a6 e0 5e 3e 4a 25 f0 be ec e5 f8 3e
       0.17889196 0.21765384 -0.4690345 0.48612916
0002b0 00 07 30 3f 4f 53 d0 be ad ab d0 be 1f d0 02 bf
       0.6876068 -0.4068856 -0.40755978 -0.5109882
0002c0 35 0f ba 3e 8e ab 2a bf c8 b5 72 be 5d 00 80 3e
       0.36339727 -0.6666802 -0.23702157 0.25000277
0002d0 ac a4 98 be 9a cf 26 3f cc 00 1b 3f ad 39 7a bd
       -0.29813135 0.65160525 0.6054809 -0.06109016
0002e0 e1 cf 38 bf 7d bd a4 be ed 29 95 be 41 2e 04 bf
       -0.721922 -0.32175818 -0.2913355 -0.5163308
0002f0 5e da 2c bf c2 24 9d be 6a 83 ff 3e d5 dd cf bd
       -0.675207 -0.30692106 0.49904948 -0.10149733
000300 46 3c 6f 3d 5e 74 d6 3e 8b e2 6e 3e 00 56 e5 be
       0.05840709 0.41885656 0.23328607 -0.44792175
000310 ac e0 45 bf c6 22 c9 3e 48 b4 93 3e f4 58 23 3f
       -0.7729595 0.39284343 0.2884848 0.63807607
000320 98 ec 0b be 17 79 e7 3d 1a f9 1a bc fb e3 a2 be
       -0.13664472 0.11302393 -0.0094588045 -0.3181456
000330 dd ed 2e be d7 87 fc 3d fe 70 13 3e ee 57 07 3e
       -0.17082925 0.12330597 0.14398572 0.13217136
000340 ab 9f f7 be 9b 22 9b 3c c0 a3 d3 be 0e be 61 be
       -0.48364004 0.0189374 -0.4133587 -0.22045156
000350 df f2 5a bf 51 07 03 bd 4e cd 87 3e fd 77 36 3e
       -0.8552684 -0.0319894 0.26523823 0.1781921
000360 f7 bc 8b be 5b 34 a6 be 6f 5a 00 bf bd 01 f5 be
       -0.27292606 -0.3246182 -0.5013799 -0.4785289
000370 76 8a 91 be 98 50 7d 3e 2c 95 e1 3e a8 bb 73 bd
       -0.2842595 0.24737775 0.44059122 -0.059505135
000380 db 68 c4 be b5 6a 23 bd c3 9d d2 be 43 e9 fa 3c
       -0.38361248 -0.039896686 -0.41135988 0.030628806
000390 c4 ef 6c be 45 45 30 be bc ff ca 3d 00 95 2b bd
       -0.23138338 -0.17213924 0.09912059 -0.041890144
0003a0 58 c0 09 bd b8 3e 4d 3e 72 3f db 3e d9 8e a8 3d
       -0.0336307 0.20043457 0.42821842 0.08230371
0003b0 38 55 ad be 3f 19 81 bd 53 a6 95 bc 17 97 f1 3d
       -0.3385408 -0.063036434 -0.018267786 0.11796396
0003c0 d9 f8 12 be cf 1a a1 3d 17 da 2c be 3a 46 a8 3d
       -0.1435274 0.078664415 -0.1688007 0.0821652
0003d0 0f 40 e3 bc 9c 50 54 3d a6 ea 64 3e 87 57 1d 3e
       -0.027740506 0.051834688 0.22355136 0.1536542
0003e0 6c 78 f4 bd e2 c9 99 3e 07 11 8a be b4 52 72 3e
       -0.11937031 0.30036837 -0.26966116 0.23664361
0003f0 54 1f 1f 3e 26 35 1c bf 05 95 82 bc c9 38 92 be
       0.15539294 -0.610186 -0.015940199 -0.2855895

b_f f4 [20, 1]
000000 67 3b ca 3e 7a 02 c7 bd 9f 63 a1 be e5 f7 d1 3d
       0.39498445 -0.09717269 -0.31521317 0.1025236
000010 6c d8 3a 3e 37 ab 28 be 3d 87 8e bd 52 3e 37 3e
       0.18246621 -0.16471563 -0.069593884 0.17894867
000020 15 c5 32 3e 7e 41 aa be 2f 8c a5 3d f3 5f a0 be
       0.17457993 -0.33253092 0.080833785 -0.31323203
000030 0e 85 fc bd c0 e8 d1 bd da 65 f1 be 5f db 9e bd
       -0.12330066 -0.10249472 -0.4714802 -0.077566855
000040 9e 4e 5e 3e 80 0e af bd b7 55 53 3e 55 c4 5b be
       0.21709678 -0.085476875 0.20638166 -0.21461613

W_i f4 [20, 10]
000000 23 53 a0 be b0 78 89 3e 10 b0 72 be 87 06 1d bd
       -0.31313428 0.2684989 -0.23699975 -0.038336303
000010 42 e3 63 3d e9 5a ee bd 0c 83 2d 3e 30 68 11 be
       0.05563665 -0.116384335 0.16944522 -0.141999
000020 d3 80 1d 3d 12 82 58 be b3 f6 1f bd 50 83 8d 3d
       0.038452934 -0.21143368 -0.03905363 0.069098115
000030 b9 bd d5 3e 11 bb b9 bd c0 9c 26 bd d0 08 9d 3d
       0.4174631 -0.09068883 -0.040676832 0.076676965
000040 f3 b4 0e be 5e e9 7c be 6a 92 1e be d7 c4 3a be
       -0.13936214 -0.24698398 -0.1548554 -0.18239151
000050 ab dd 80 be 9c c8 57 bd d5 3b 22 3e 72 e2 77 3e
       -0.2516912 -0.05268155 0.15843137 0.24207476
000060 c2 ac 30 be 5b 24 5a be e8 8c 2a 3d 55 1a d7 bd
       -0.17253402 -0.21302931 0.041638285 -0.10503069
000070 91 4f 9b be 82 f8 09 be a4 f6 df be a1 df 69 bc
       -0.30334142 -0.13473704 -0.4374286 -0.014274509
000080 f4 c1 bb bd ed 3f 43 3e 0f c0 69 be b8 ad 83 bc
       -0.09167853 0.19067355 -0.22827171 -0.016074046
000090 a8 28 13 be 8e 18 52 be 30 47 1e be 99 ea dc bd
       -0.14370978 -0.2051718 -0.15456843 -0.107869335
0000a0 95 31 89 3e 18 44 e1 3d ee e2 90 3e f6 19 94 3e
       0.2679564 0.10999316 0.28298134 0.28926057
0000b0 f0 87 68 3e 56 b2 72 be ff 54 cf 3e 4c 7d 88 be
       0.22708106 -0.23700842 0.40494534 -0.26658094
0000c0 6d ae 05 3f a8 d1 54 be a8 ad 7a 3e ad 2a 92 bd
       0.5221928 -0.20783103 0.24480307 -0.07137046
0000d0 b5 34 5f 3e ab 65 06 3f 51 25 ee 3e 1b 21 4c 3e
       0.2179745 0.52498883 0.46512845 0.19934504
0000e0 c7 1b d4 bc b0 d3 2c 3e a5 65 a7 3e 3f b5 51 3d
       -0.025892152 0.16877627 0.32694736 0.05119824
0000f0 59 05 8a 3e 5f 0f 58 bd c3 04 11 be 06 b8 48 be
       0.26957205 -0.052749034 -0.14161973 -0.1960145
000100 a3 c6 8e bc d6 89 40 be e9 75 77 bd 6c a5 09 3d
       -0.017428702 -0.1880258 -0.060415182 0.033605024
000110 6f 14 31 3f 99 2a fb 3e 24 28 7e 3e 4d ef 33 3c
       0.69171804 0.49055937 0.2482 0.010982347
000120 65 38 d0 3e 88 74 eb bd ec 4e 81 3e ca d2 72 3e
       0.40668026 -0.11496836 0.25255525 0.23713222
000130 81 36 29 be 31 f6 4e be 9e 66 d6 3e 51 4c 32 3f
       -0.16524698 -0.20211102 0.41875166 0.696477
000140 1a 34 e4 bd fc 67 17 3e f4 71 07 3d b5 4e e1 be
       -0.1114275 0.1478576 0.03306766 -0.4400536
000150 26 6c e0 bd a1 90 d9 bd da 9f 02 bf 8f 97 ad bd
       -0.10958128 -0.10623289 -0.51025164 -0.08476173
000160 8f ac 67 bc 37 6b cc 3c 12 11 f8 bd 76 3c 0b 3e
       -0.014140262 0.024953468 -0.12112631 0.13597283
000170 14 42 15 bd d8 a0 9e 3d 9c f2 40 be 0d 48 c0 3d
       -0.03643997 0.07745522 -0.18842548 0.093887426
000180 9c 1e 51 3e 25 ef 26 3c 3b 83 2f 3e 4f 62 9b 3e
       0.20421833 0.010188852 0.17139904 0.3034844
000190 10 5e 82 be 5c 21 b0 3d 6c d1 72 be 1c df d2 3d
       -0.2546239 0.08600113 -0.237127 0.10296461
0001a0 e7 1e 45 3e ef 3d bc 3d 2a e7 ab 3a d4 da 97 bd
       0.1925007 0.091915004 0.0013115157 -0.07414785
0001b0 3a 2d e8 3d dc e7 38 be a4 b4 98 3e 7c b0 ce 3e
       0.11336751 -0.18057197 0.29825318 0.40369022
0001c0 43 93 37 3a d8 06 b3 3d 60 49 94 3e b4 2a 18 3d
       0.00070028397 0.0874154 0.2896223 0.0371501
0001d0 39 29 1a be 8e dc a4 3e 53 59 d3 3e b7 05 75 be
       -0.15054788 0.3219952 0.41279086 -0.23927961
0001e0 f2 7c ba bd 72 87 00 3f 6c 95 d9 bc ae 5e b5 be
       -0.09105863 0.50206673 -0.026560508 -0.35423797
0001f0 e0 21 ef bc 38 2e ef 3d 09 f7 ce be 1b 9a f8 3c
       -0.029190958 0.116787374 -0.40422848 0.03034692
000200 61 c2 00 3f 1b d3 1f 3e 78 0e dd 3d db fa 3c 3d
       0.502966 0.15607874 0.10793775 0.046137672
000210 2f b3 3b 3d 96 30 4a 3e a7 62 23 3e ba 02 63 3d
       0.04582518 0.19745097 0.15955602 0.055422522
000220 e6 c2 f6 3e 3f fe fc bd 4f 3f 05 3f 6e 6b 96 3e
       0.4819557 -0.12353181 0.52049726 0.29378837
000230 5e 7c 31 be 8a f8 7b be ed aa f1 3e 48 07 08 be
       -0.17332599 -0.24606529 0.4720072 -0.13284028
000240 fd 67 5a 3e 8b 69 07 3d 32 43 9b bd ab 50 b4 3d
       0.21328731 0.033059638 -0.07581176 0.08804449
000250 3e b7 39 be 76 a5 00 3e ac 39 ed be a4 53 8e 3e
       -0.18136308 0.12563118 -0.46333063 0.27798188
000260 2c 2a 25 be da 15 28 be d6 fc 88 bc 3f f5 a6 3e
       -0.16129369 -0.16414586 -0.016722124 0.32608983
000270 62 b0 6d 3c c9 90 81 3e ad f1 13 bd 51 b4 85 3c
       0.014507385 0.25305775 -0.03611915 0.016321333
000280 ca 43 83 be 66 46 eb bc 53 07 27 3c ad bc f8 bc
       -0.25637656 -0.028720092 0.010194617 -0.030363405
000290 c1 38 90 be 9a 5e 92 be 59 14 3b 3d f7 a7 93 3b
       -0.281683 -0.285878 0.045673702 0.004506107
0002a0 26 a3 72 3d 80 5b 02 bd e3 d5 7d be 8e 07 00 3e
       0.05923762 -0.031825542 -0.24788623 0.12502882
0002b0 71 00 00 3e ff 8b cf bd f5 09 3c 3e b1 60 98 bc
       0.12500168 -0.10134124 0.18363173 -0.018600794
0002c0 56 a4 67 3e 6b 16 29 3e 46 6c 12 3d da 43 18 3d
       0.22621283 0.16512458 0.03574779 0.037174083
0002d0 f6 23 53 3d 5a 6c b0 3d 97 ab d4 3d 5b 8e 43 3e
       0.051547967 0.086144164 0.10384291 0.19097273
0002e0 b0 98 76 3e 18 40 34 3e ef c7 b7 3e bd 41 e5 3e
       0.24081683 0.17602575 0.35894725 0.44776717
0002f0 c6 7b 0a 3f 6e c7 ed 3d 10 4e fe 3e 3a c1 18 be
       0.54095113 0.11610304 0.49668932 -0.1491746
000300 4d 06 b3 3d ab fb 7c 3e a6 a3 82 3e 67 ed bd bd
       0.08741436 0.24705379 0.2551548 -0.092737965
000310 68 6f 0c 3f f9 56 58 3d 66 9b 10 be cf 6e ab be
       0.5485749 0.05281732 -0.1412178 -0.33482978

U_i f4 [20, 20]
000000 25 2d d7 3e a2 ff 87 be c6 72 2d be 0f 7f 9c 3e
       0.4202663 -0.2656222 -0.16938314 0.30565688
000010 45 f9 cf 3d 6f ad 66 3e 28 cd 0e bf 88 bc f5 bd
       0.10154966 0.22527097 -0.55781794 -0.1199885
000020 3a 57 89 3e 3e a6 a9 be c4 0e 35 be 9b a2 df 3e
       0.2682436 -0.33134645 -0.17681414 0.43678746
000030 db 81 a7 3e 6f 23 11 be fc dc b5 be e2 f9 01 bf
       0.3271626 -0.14173673 -0.3552016 -0.50771916
000040 56 f7 00 3f 0e 7c ca bc 65 69 d9 3e a7 d2 ad 3e
       0.50377405 -0.024717357 0.42463222 0.33949777
000050 28 03 21 3e 00 0c 11 3e 06 fd 45 3e 58 63 ac 3e
       0.1572386 0.14164734 0.19334802 0.33669543
000060 bb e8 00 3e 08 56 6b 3e e1 a2 23 3d 3d fb 31 be
       0.1258878 0.22982037 0.039950255 -0.17380996
000070 32 da f2 3d f3 8d 56 3e d8 f4 49 3e 6c 23 50 be
       0.11858024 0.20952587 0.19722307 -0.20326012
000080 4d 09 48 3e 93 61 8a 3a d6 ae 55 be 03 66 87 3d
       0.19534798 0.0010557644 -0.20867476 0.06611254
000090 6a ce 22 3e 4f 5d 1d be ee 1f 0f be c9 a3 4c be
       0.15899053 -0.15367626 -0.13977024 -0.19984354
0000a0 88 c0 b8 3e d9 71 a9 be df dd 98 be d6 8b ad 3e
       0.3608439 -0.3309467 -0.29856774 0.3389575
0000b0 bb 37 d6 3e 36 97 95 3e ab 90 40 be 0b 86 b7 bd
       0.41839394 0.29216927 -0.18805186 -0.089611135
0000c0 fb 58 d0 3e 80 b0 d3 3d 9b cc df bd e7 9f 67 3e
       0.40692887 0.10336399 -0.10927697 0.22619592
0000d0 a8 9c 98 be 6d 02 23 3c 0f db f7 be 9f d3 53 3d
       -0.2980702 0.009949309 -0.48409316 0.05171549
0000e0 61 13 75 3e 14 bd 44 3e 9c 02 84 3e f4 3c 30 3d
       0.23933174 0.19212753 0.2578324 0.04302688
0000f0 b5 16 35 3e b9 42 38 be 05 a6 f6 3e 58 20 35 be
       0.17684443 -0.17994203 0.48173538 -0.1768812
000100 d8 f1 cb bd c0 96 c7 3d f1 f4 e1 be 8e 88 42 bd
       -0.099582374 0.0974555 -0.44132188 -0.04749351
000110 91 8d 6d 3e 39 8b 5e 3e 25 99 91 3d d9 33 e4 3e
       0.23198535 0.21732797 0.07109288 0.44570807
000120 da 86 2c be fc 70 00 3f f4 06 cb 3d c8 fb 1d be
       -0.16848317 0.501724 0.099134356 -0.15428078
000130 ce c4 d6 bc b8 53 59 be f0 f1 09 be b4 4c a0 3d
       -0.02621689 -0.21223342 -0.13471198 0.0782713
000140 ef 3c e1 3e ee 29 9d bd af 89 86 be dc 0a 54 3e
       0.439918 -0.07674013 -0.2627692 0.20707268
000150 f5 b6 7b 3e d4 7b c2 3e 49 c5 7a be 66 fd 48 3e
       0.24581511 0.37985098 -0.24489321 0.19627914
000160 32 84 23 3e c0 4f b4 3e 04 bf e5 bc 5d 45 5b be
       0.15968397 0.35217094 -0.028045185 -0.21413179
000170 cb 60 a1 be 38 cc 3f 3b b9 69 d0 3c 04 cd 3a 3d
       -0.3151916 0.002926601 0.025441037 0.045605674
000180 b1 36 d1 3e a4 ba bf bc e6 16 4e bd 70 30 43 3e
       0.4086204 -0.023404427 -0.050314806 0.19061446
000190 5b 96 56 3e dc 82 8f be 40 b4 0e 3c 31 86 a9 3d
       0.20955794 -0.28029525 0.008709967 0.08277548
0001a0 dd 30 ae 3e d1 0b 73 bd db c7 a2 be 6a e3 21 be
       0.34021655 -0.05933744 -0.31793103 -0.15809408
0001b0 41 aa e4 3e 63 47 05 3e 6f 42 4b be 4d 43 c9 bb
       0.44661143 0.13015513 -0.19849561 -0.006142056
0001c0 eb 7d 42 3d 77 a9 df bd 77 a0 06 be a1 58 80 3e
       0.047483366 -0.10920995 -0.1314715 0.25067618
0001d0 82 af cd 3e 8e 43 d0 3d d2 78 62 be 5a 7b 53 3e
       0.40172964 0.10169135 -0.22116402 0.20652524
0001e0 82 ac 03 3f 4b 44 75 be 58 ed 07 bf bf be c0 3e
       0.514351 -0.23951833 -0.5309653 0.37645528
0001f0 59 66 c7 3e 47 00 ce 3d 6a d3 da be e3 61 dc bd
       0.38945273 0.10058647 -0.4273942 -0.10760858
000200 2f 47 50 3c fe df 28 3c 57 28 83 3e 86 79 2a 3d
       0.012712284 0.01030731 0.25616714 0.0416198
000210 bc 10 08 3f 5b 23 07 bf 55 30 e1 be 1a b7 19 bf
       0.53150535 -0.52788323 -0.43982187 -0.60045016
000220 ad ce ae 3e 71 a4 31 3e fc d9 6a be 41 28 d6 3e
       0.34142056 0.17347886 -0.22934717 0.41827586
000230 e7 cc 0b 3f 99 1b 87 be 3b c9 ef be 5c fa 8c 3e
       0.5460953 -0.26388243 -0.46833214 0.2753476
000240 ff c0 60 3e 2d 64 02 3f dc 58 cb 3d ac 62 92 3e
       0.21948622 0.50934106 0.09929058 0.28590906
000250 f0 b8 cd 3e 39 e9 0f 3e 71 a8 77 be 26 08 65 be
       0.4018016 0.14053811 -0.24185349 -0.2236639
000260 5c 3d 2a bd bc 28 a8 be 24 28 15 bf f8 11 18 3e
       -0.041562423 -0.32843578 -0.58264375 0.14850605
000270 84 ab f3 3e 79 8c be bc be 87 3c 3e 66 f0 48 be
       0.47591794 -0.023260342 0.18411157 -0.19622955
000280 6e 39 8a be 22 37 86 be 5b f1 ab be e2 77 16 3f
       -0.2699694 -0.26213938 -0.33582577 0.58776677
000290 76 da 08 3d b6 c6 12 3e 30 aa b9 be 03 b3 68 3d
       0.033411466 0.14333615 -0.36262655 0.056811344
0002a0 44 71 3c be b8 55 96 be 67 e7 89 3d 8b c6 be 3e
       -0.18402582 -0.29362273 0.067335896 0.3726085
0002b0 98 07 28 3e f2 c9 f1 be cb e3 27 be 96 5a bf be
       0.16409147 -0.47224385 -0.1639549 -0.373738
0002c0 d3 22 13 bd 91 f7 ca 3e e9 f9 9c 3e 97 24 ca 3e
       -0.035921883 0.39642003 0.30659416 0.3948104
0002d0 9a 44 05 be 37 69 41 3e 6f 82 0e 3f 62 8d 98 be
       -0.1301445 0.18887793 0.55667776 -0.29795367
0002e0 21 cd d8 be dc f0 ab bc 47 d5 a4 3e 9a de af bc
       -0.42344 -0.020988874 0.32193968 -0.02146845
0002f0 c3 d6 89 be e7 17 8e 3e 4c 4b 3c 3e 1d 02 90 be
       -0.26921663 0.2775261 0.18388098 -0.28126612
000300 70 f1 a1 be 3b 23 21 3f 49 22 75 3d 4b 38 c0 3e
       -0.31629515 0.6294438 0.05984715 0.37542948
000310 10 d7 9d be 8e 52 42 3d 29 fa c0 be 38 fd 9d be
       -0.30828142 0.04744201 -0.37690857 -0.30857253
000320 d3 77 44 3e 7e 05 c4 be 8d 68 92 be 8d 66 80 3c
       0.19186334 -0.3828544 -0.2859539 0.0156739
000330 bc 7b 19 be fd 64 ed 3d 74 4e d3 be b9 d4 91 3d
       -0.14988607 0.115915276 -0.41270792 0.07120652
000340 d7 6f 4a bd d7 84 65 be 2b 2c a6 bd e1 a5 62 3e
       -0.049423065 -0.22413956 -0.08113893 0.2213359
000350 b9 e8 15 3f 04 67 8b be 57 1a b9 be a3 96 28 bf
       0.5855823 -0.27227032 -0.36152908 -0.65854853
000360 13 2e 94 bd 2c 16 b3 3d db 10 5d 3e 5d 0d 0c 3f
       -0.072353505 0.08744463 0.21588461 0.5470789
000370 76 1a b6 3e 44 17 b4 be 90 fc 12 be df 01 d6 bc
       0.35567063 -0.35174 -0.14354157 -0.02612394
000380 53 0e a1 3d 7c a8 b6 3e a8 7a 90 3e 60 f2 a3 3e
       0.0786406 0.35675418 0.2821858 0.32020855
000390 6b 07 95 3e a5 68 c8 3e a6 26 39 be 73 eb c2 bd
       0.29107222 0.39142337 -0.1808115 -0.095175646
0003a0 fe 05 9d bd d0 01 16 bd 54 cf a1 be 81 eb 9b 3e
       -0.076671585 -0.036622822 -0.3160349 0.30453113
0003b0 e5 d2 e0 3e 16 fe 13 be f3 7e 7d be 6d c0 21 be
       0.439109 -0.14452395 -0.24755459 -0.15796061
0003c0 37 e2 9f 3b be f4 75 bd 88 bd 84 be 4f 9a c3 3e
       0.004879262 -0.060047857 -0.2592585 0.38203666
0003d0 17 af d4 3d b8 5b 02 be 5d 1f 56 3e a8 87 76 3e
       0.10384958 -0.127303 0.20910402 0.24075186
0003e0 17 85 cd 3c e3 cf b2 3d 7a 32 a7 3e 2e 11 9d be
       0.025087876 0.087310575 0.32655698 -0.3067717
0003f0 43 23 b8 3d 69 df 1a 3e 64 01 e0 3c d0 69 08 3f
       0.08991101 0.15124287 0.027344413 0.5328646

b_i f4 [20, 1]
000000 e7 ea e1 3d 3a 3c 0c 3e 30 6e 9d 3e 8f 91 93 3e
       0.11031132 0.1369485 0.3074813 0.2882199
000010 fe 00 f2 3e 94 14 40 3e 53 25 1a 3e e9 2a 0e bc
       0.47266382 0.1875785 0.150533 -0.008677223
000020 80 cb 44 3e c8 79 23 3d 14 ca a1 3e 95 6b 23 be
       0.19218254 0.03991106 0.31599486 -0.15959008
000030 77 63 ed 3d 5f 03 b3 bc 59 e8 db 3e 13 3d 93 be
       0.11591237 -0.021852193 0.42950705 -0.28757533
000040 8a 7e 7a 3e b4 31 e8 3d e9 53 63 3e a0 42 0c 3e
       0.24462333 0.11337605 0.22199978 0.1369729

W_o f4 [20, 10]
000000 f4 6f 8b 3c 4e cc 84 3d 95 e7 6b bc 3f 9a 19 be
       0.017021157 0.064842805 -0.014398475 -0.15000246
000010 6e 09 87 be 08 99 5e be 25 70 ec be de 3a 8e 3d
       -0.26374382 -0.21738064 -0.4617931 0.06944822
000020 89 7f 40 be 77 44 c8 bc 4a d8 41 be 67 8a 69 3e
       -0.18798651 -0.02444671 -0.18930164 0.22806703
000030 cd b5 ab 3c cf 0b 0e 3e 95 f3 a1 3e 87 a5 2c be
       0.020960713 0.13871692 0.3163115 -0.16860019
000040 d9 2e 3b 3f 0f e3 aa be c8 c3 fb 3d 02 7c f7 bc
       0.7311836 -0.33376357 0.12293202 -0.030210499
000050 cc e7 9b 3e 9e e3 24 3f c0 2b aa 3e aa 8f 3e 3f
       0.30450284 0.64409816 0.33236504 0.74437964
000060 a8 2f f9 3e e8 e0 8e 3e 67 2e 9c 3e 29 1e b4 3e
       0.4866917 0.27905965 0.30504152 0.3517926
000070 7b f0 79 3e bc 61 6c 3e a0 12 a3 3e 04 2f 53 3e
       0.24408142 0.23084158 0.31850147 0.20623404
000080 8b 02 8a bc 16 a6 67 bd 20 43 9c be 16 f9 4a bd
       -0.016846916 -0.056554876 -0.30519962 -0.049553953
000090 21 47 c9 be 17 8d b2 bd a2 17 c6 bd 9b 49 b0 bd
       -0.3931208 -0.08718317 -0.09672476 -0.08607789
0000a0 73 f5 47 be e1 69 60 3e bb fb 34 be c2 11 ba bd
       -0.19527225 0.2191539 -0.17674153 -0.09085418
0000b0 53 61 74 be 92 b5 6c be 42 5e 8b be 01 b4 f4 bd
       -0.23865251 -0.23116139 -0.2722035 -0.119483955
0000c0 12 b0 31 be 26 79 1d be 15 f0 67 bd 08 9f 63 3b
       -0.17352322 -0.15378246 -0.056625444 0.0034732241
0000d0 c3 d0 c2 3d 7b 7b 08 3e f9 9a de bc c3 17 e7 bc
       0.095124744 0.13328354 -0.027173506 -0.028209573
0000e0 ef 20 02 be 7b 13 93 bd f3 6f 10 be 65 7b cc bd
       -0.12707876 -0.0718145 -0.14105205 -0.09984473
0000f0 93 3f d2 3e 58 15 fd 3e 5c 85 0f be 38 14 7c 3e
       0.41064128 0.49430346 -0.14015716 0.24617088
000100 9d d1 36 be ba b5 85 3e 18 38 aa be c8 f9 0e 3c
       -0.17853399 0.2611521 -0.3324592 0.008726545
000110 e7 48 b1 3c e3 0e 86 3c 81 bd 28 be fa 96 04 be
       0.021641208 0.01636452 -0.1647854 -0.12948218
000120 de 99 8e bd d4 ab 5a 3d 4a c5 b1 3c 96 43 98 bd
       -0.069629416 0.053386524 0.02170052 -0.07434766
000130 47 0b db bd 0d b0 37 bd ca 90 00 be 26 2e b1 bd
       -0.1069551 -0.04484563 -0.12555233 -0.0865138
000140 d1 0d 00 be 2c 04 cd bd 23 a2 80 be 94 8e 83 3e
       -0.1250527 -0.10010561 -0.251237 0.25694716
000150 dd e2 de bb fc eb 2c be f2 8c e1 bd 0b d5 8f bd
       -0.0068019466 -0.16886896 -0.11013211 -0.070230566
000160 b2 57 8e bd b7 cf 17 bd 37 78 0b be 88 71 d4 3e
       -0.0695032 -0.037063327 -0.13620077 0.41492867
000170 d9 7e e2 bb 8f 5f da bd 97 97 57 be 96 65 ce bd
       -0.006912094 -0.106627576 -0.2105392 -0.1007797
000180 2b a5 41 3e cb 9e df bd 7f ca 08 be 39 56 00 be
       0.18910663 -0.10918959 -0.13358496 -0.12532891
000190 88 8a 92 3d fd 6a 2c 3f dd f9 64 3e a5 7f 08 3e
       0.07155329 0.6735075 0.2236094 0.13329943
0001a0 32 b1 9a 3e 36 d6 98 3e 00 14 8f 3e c9 5e 98 3e
       0.30213314 0.2985093 0.27944946 0.29759815
0001b0 c4 e3 c9 3e 1d ea 65 3e 2f 3d d9 bd 83 3b d9 3e
       0.39431584 0.22452588 -0.10607373 0.42428216
0001c0 bd b7 94 bd 9d 01 a8 3d b8 ed 46 be fb f4 bf 3c
       -0.07261608 0.08203433 -0.1942662 0.023432245
0001d0 02 48 28 bf e7 a0 6d 3c 2d 92 0c 3d 7a 08 15 3e
       -0.65734875 0.014503694 0.03431909 0.14554015
0001e0 97 75 03 3f 90 3d 45 3e 6c 60 75 3e 97 92 0c be
       0.513513 0.19261765 0.23962563 -0.13727795
0001f0 5e c7 89 3e 43 95 00 3f 38 5e 92 be 3c 4e 2d 3e
       0.26909918 0.50227755 -0.28587508 0.16924375
000200 f4 45 6d 3d 7b ea 94 3e ce 03 ff 3e 57 43 07 be
       0.05792804 0.29085144 0.4980759 -0.13209282
000210 e8 42 fe bd ee 76 0e 3f e5 b6 c9 3b c0 b3 dc 3e
       -0.12415105 0.5565022 0.006155836 0.43105888
000220 47 d4 ac 3e 58 be 12 3f ce 3c 29 3e 8f 84 06 3e
       0.33755705 0.5732169 0.16527101 0.13136505
000230 42 0b 9a 3e 32 9a 91 3e 80 45 5d 3e af 65 4d 3e
       0.30086714 0.28437954 0.21608543 0.2005832
000240 4c 3f 55 3e 00 7c cf bc ca 8f 36 3e 48 f3 49 3d
       0.20824927 -0.025327682 0.17828289 0.049304277
000250 f9 93 9c 3e ef 70 59 3e 10 ad b2 3d b0 60 9a be
       0.30581644 0.21234487 0.08724415 -0.30151892
000260 73 19 9f 3d f4 b9 88 3e e4 74 0e 3e c9 ff 32 3f
       0.07768526 0.2670437 0.13911778 0.6992155
000270 88 1b 5d 3f 40 5c d7 3e 02 5d 1a be 3f 80 c0 bd
       0.86370134 0.4206257 -0.15074542 -0.09399461
000280 50 f4 f8 bd 1f f8 3e 3e b5 7d 88 be 2f b5 23 bd
       -0.12155974 0.18649338 -0.26658407 -0.039967712
000290 87 d5 27 bd 90 5c 28 be 7e 50 a1 be 7e d8 36 be
       -0.04097512 -0.1644156 -0.31506723 -0.17856023
0002a0 ba 34 63 be 0e ce 38 be bd 0a 03 bd e3 b7 0d bd
       -0.22188082 -0.18047354 -0.031992663 -0.034599196
0002b0 2d 07 32 3e fe df a3 bd 72 74 da 3e 01 50 72 3d
       0.1738555 -0.080017075 0.42666966 0.05915833
0002c0 a0 be cf bd 55 80 3b 3e d8 39 22 3f 54 e4 a2 3d
       -0.10143781 0.18310674 0.6336951 0.079537064
0002d0 8b 64 f9 bc 2c 5a 3c 3e b5 80 11 3e f4 6e 50 3d
       -0.03044345 0.18393773 0.14209254 0.050887063
0002e0 67 14 cc 3e 73 39 0a 3f f8 84 59 3c cf 38 87 3d
       0.39859316 0.5399391 0.013276331 0.06602632
0002f0 7e d3 03 be 21 a2 eb 3e ff 97 e5 3e 36 23 c6 bb
       -0.12873647 0.46022132 0.44842526 -0.006046678
000300 25 a9 87 3c a2 c0 71 3e d4 5a 11 3e df 8e e6 bc
       0.016560147 0.2360864 0.14194804 -0.028144298
000310 96 09 06 3f 45 1f 6b 3e 49 4d 59 3d 01 f2 4c be
       0.52358377 0.22961147 0.05305222 -0.20014192

U_o f4 [20, 20]
000000 e2 93 7b 3e fb 86 a9 be c8 75 89 be 71 6c 03 3f
       0.24568132 -0.33110794 -0.26847672 0.51337343
000010 02 19 c7 3e bb 1b 29 3e 64 d8 b7 be 76 f6 b6 bd
       0.38886267 0.16514485 -0.3590728 -0.089337274
000020 38 88 21 3f 7f 41 12 be e5 68 c1 bd 96 df e7 3e
       0.6309848 -0.14282797 -0.09443835 0.4528777
000030 72 57 03 3c 68 86 2a be c7 01 96 be 01 39 b4 be
       0.008016454 -0.16652834 -0.2929823 -0.3519974
000040 dd e0 b7 3e a7 88 ff bc 33 cd 24 3e e0 a8 06 3f
       0.35913745 -0.03119309 0.16093902 0.5260143
000050 67 f3 2f be eb ff 11 3e c6 0b 74 3d 34 e4 77 3e
       -0.17182694 0.14257781 0.05958154 0.24208146
000060 c0 6e 12 be de 18 fc bd ee 18 cb bc 14 63 4a bc
       -0.1430006 -0.123094305 -0.02479216 -0.012352724
000070 4d 6b 98 be 08 52 2e bd 16 3e f3 3d 2b 0e 51 3e
       -0.29769364 -0.0425587 0.11877076 0.20415561
000080 0f c2 3a be e6 66 6e 3d 42 99 82 3d 94 5a 97 be
       -0.1823809 0.0582036 0.06376888 -0.29561293
000090 c5 fc 29 be 19 7c 43 bd b0 24 96 3d 84 81 eb 3c
       -0.1660033 -0.04772577 0.07331216 0.028748281
0000a0 70 90 07 3f c7 86 9a be 4e 49 a8 be 0e 4d 87 3e
       0.5295477 -0.30180952 -0.32868427 0.26425976
0000b0 3f 90 a0 3e 5a 03 a0 3e 47 f7 f4 3d df d3 dd 3e
       0.3136005 0.31252557 0.11961227 0.43325707
0000c0 e3 a8 7a 3e 0b 4c 16 3e b6 91 49 be fa bd 9e be
       0.24478488 0.14677446 -0.1968449 -0.31004316
0000d0 10 57 aa be 05 58 6d be ab 81 eb be 9f c6 85 3e
       -0.33269548 -0.23178108 -0.45997366 0.26128098
0000e0 43 11 27 3f 1c 2c 10 bd 01 ac 10 bf 9e da e7 be
       0.65260714 -0.035198316 -0.5651246 -0.4528398
0000f0 70 43 d2 bd 33 c9 d3 be 69 0d 3e be f9 46 69 3e
       -0.10266769 -0.4136444 -0.18559803 0.2278098
000100 1b b9 a5 3c 5a a8 87 3a 82 68 88 be 95 61 96 3d
       0.020229867 0.0010349855 -0.26642233 0.07342831
000110 26 a5 ec 3e 9b 77 01 be 46 a2 54 be 0b 04 b3 3e
       0.46219748 -0.12643282 -0.20765027 0.34964022
000120 28 1a c8 3c ec 34 6d be 39 1e 45 bd 85 e8 21 be
       0.024426535 -0.2316472 -0.048124526 -0.15811355
000130 55 4e 04 bc 6f 46 8c 3d 68 d6 ae 3e a7 c1 6b 3e
       -0.008075316 0.06849372 0.34147954 0.23023091
000140 ba e2 10 3f dc 59 db be d0 ce b5 bd 67 ff 06 3f
       0.5659596 -0.42841995 -0.08877337 0.52733463
000150 ac 54 f5 3e 7e 5b bf 3b 42 8a 19 bf 7d 4b 79 3d
       0.47916162 0.005839764 -0.5997659 0.060863007
000160 2a 1e 18 3f 8f c3 ea be 4b 94 bf be 8e fd e3 3e
       0.59421027 -0.45852324 -0.37417826 0.44529384
000170 62 1c 26 be dd 44 18 be 10 6e 84 be b5 2c 76 be
       -0.16221765 -0.1487002 -0.2586522 -0.24040492
000180 e5 87 07 3f 90 cc 1d be 98 19 ca bd 4b bc 0e 3f
       0.52941734 -0.15410066 -0.09868163 0.5575606
000190 d3 a1 a0 3e 02 a8 ea be da b4 ba be 7d dc 40 3f
       0.31373462 -0.45831305 -0.36466104 0.7533644
0001a0 be ac 9e 3e 30 cf f2 3d 7c 30 53 bf c2 e7 cc 3c
       0.30991167 0.11855924 -0.82495856 0.025012854
0001b0 bd 6c b3 3e 4b be 7c bd e9 24 90 be 05 a0 43 3f
       0.35043898 -0.061704915 -0.2815316 0.76416045
0001c0 1a 34 13 3f 3a aa 15 bf b3 5d 49 be 72 ef 28 bf
       0.57501376 -0.5846287 -0.1966465 -0.65990365
0001d0 1e 09 83 3e 22 cd b1 bd 31 da f3 3e cf 37 b6 3e
       0.25592893 -0.08681704 0.47627404 0.35589454
0001e0 cc d3 e8 3e 71 3f 8a be 03 fe b4 be 61 72 14 3e
       0.45474088 -0.27001527 -0.35350046 0.14496757
0001f0 4e 4f e7 3e c0 22 23 bd 79 32 ad be 35 fe d1 be
       0.45177692 -0.039828062 -0.3382757 -0.41014257
000200 33 f0 0a 3e 92 79 92 3e 56 d4 1b be eb 3c 46 3d
       0.13568191 0.28608376 -0.15217718 0.04839794
000210 3c 6c 18 3f d6 b6 03 bf b5 e1 c6 bd c9 fc 8b be
       0.5954015 -0.5145086 -0.09711019 -0.27341297
000220 40 17 58 3e 3b 44 c4 38 67 c3 c2 3d b2 81 14 3f
       0.21102619 9.358717e-05 0.09509926 0.580104
000230 16 f2 01 3f ac b0 ab be af 38 22 be 50 fa a3 3e
       0.5076002 -0.33533227 -0.15841936 0.3202691
000240 73 21 f5 3e 47 05 c0 bb 13 ce dc be 03 83 6d be
       0.47877082 -0.005860004 -0.43125972 -0.23194508
000250 85 69 ca 3e 33 a6 3d be e9 c6 a3 be e4 ab b0 3e
       0.3953363 -0.18520431 -0.31987694 0.34506142
000260 4b f0 2e 3f c5 dd 05 bf 2b 43 b6 be 0c ed e8 be
       0.6833541 -0.5229152 -0.3559812 -0.45493352
000270 79 47 bd 3e 86 08 bd bc 8a de 7d 3d 57 7b 09 3f
       0.36968592 -0.023075353 0.061979808 0.53703827
000280 e4 2f bd 3e 63 8a 01 bf 36 9d d1 bd ee d9 c8 3e
       0.369506 -0.50601786 -0.10235064 0.39228767
000290 c4 9d a7 3e b3 1c ae 3e e0 6d b0 be 47 77 6b 3e
       0.32737553 0.3400627 -0.34458828 0.2299472
0002a0 bf 4a 12 3e 15 b0 06 3e fe 65 34 be 89 f8 c5 3e
       0.14286326 0.13153107 -0.17617032 0.3866618
0002b0 43 c7 ba 3e bf 60 e6 be 04 6c dc be 6f 03 77 be
       0.3648015 -0.44995686 -0.4305116 -0.24122404
0002c0 29 4e 3b 3e d5 44 8f be 95 72 70 3e bc 1d 87 3e
       0.18291534 -0.27982202 0.2348121 0.26389873
0002d0 59 79 42 be 87 e9 35 3e 1a 85 f5 3e b8 99 61 be
       -0.18991603 0.17764865 0.4795311 -0.22031295
0002e0 06 00 04 bf 02 d2 75 be d7 c7 e3 bc 34 87 e6 3b
       -0.51562536 -0.24005893 -0.027805252 0.0070351604
0002f0 11 9c 60 bd f2 57 13 be 67 fd f3 3d 6d b2 9b bd
       -0.054836337 -0.14389017 0.11913567 -0.076023914
000300 2e dd 45 bf fe 88 2e 3f ea a9 71 3e 34 6d 31 3f
       -0.7729062 0.68177783 0.23599973 0.69307256
000310 85 db 1b bf 2f 93 bb be 43 42 ee be 1a 18 ca be
       -0.60881835 -0.3663573 -0.4653493 -0.39471513
000320 3d 78 8e 3e 2d f9 55 be 77 df f3 be e6 94 a4 3e
       0.2782611 -0.20895834 -0.47631428 0.3214485
000330 f1 38 bb 3e 08 63 39 be 61 96 5a be 32 91 2f be
       0.3656688 -0.18104184 -0.21346428 -0.17145231
000340 fe 09 3c 3f cb dc f1 be 11 7f 95 3c b0 2e 89 bc
       0.73452747 -0.47238764 0.018249067 -0.016745895
000350 70 d9 73 3b 6a c9 ec be bc 0d 31 be 85 bc d0 3e
       0.003720846 -0.46247417 -0.17290395 0.4076883
000360 d7 14 49 3f 25 00 52 bc 2c 35 fd bd 68 9f 63 be
       0.78547424 -0.012817417 -0.12363657 -0.22228777
000370 1b 5d 33 3e 3e 65 1d 3d 1e 35 c8 3d 63 87 d7 3d
       0.17515986 0.03842663 0.09775756 0.1052387
000380 4d 3f 6f 3e 38 9f db 3d 97 9f 1f bd e6 0b 02 be
       0.23363991 0.10723728 -0.038970556 -0.12699851
000390 5e 30 8c 3e 23 57 10 be 9c 65 52 be c5 e7 70 3c
       0.2738065 -0.1409574 -0.20546573 0.014703696
0003a0 ba 88 5d 3e 80 4f 22 be 0d ad 38 3d ae de 5e bd
       0.21634188 -0.1585064 0.04508691 -0.054411583
0003b0 1c 4c e7 3c 3a 65 c8 3d 9e 54 94 bb 2e e7 d3 3e
       0.028234534 0.097849324 -0.0045266887 0.41387314
0003c0 e5 44 4d 3e fc 2b 20 bf f2 51 e9 be 8d 61 17 3e
       0.20045812 -0.62567115 -0.45570332 0.14783306
0003d0 e0 31 15 3f 40 0f c2 3d 8a 07 db 3d 81 70 f2 3e
       0.5827923 0.09475565 0.10694797 0.4735146
0003e0 fa 63 32 3f 08 2d 1e 3e a6 88 c6 be a7 90 56 3e
       0.696838 0.15446866 -0.3877613 0.20953618
0003f0 09 c8 f0 3e db 89 f5 bc 18 1f ed be c9 01 3b 3f
       0.47027615 -0.029972961 -0.46312785 0.730496

b_o f4 [20, 1]
000000 10 6e 07 3f 67 c9 31 3f e2 c5 c7 3e db bd f1 3e
       0.5290232 0.6944794 0.3901816 0.4721516
000010 d1 e3 90 3e c0 ff a6 3e b4 58 66 3c a5 79 d3 3e
       0.2829881 0.32616997 0.014059234 0.41303745
000020 0a 1e ef 3e 3b 02 ae bc ec de f8 bd 84 fb 74 3e
       0.46702605 -0.021241298 -0.12151894 0.2392407
000030 8a 01 91 be 85 c3 00 be f7 4e b4 3e a8 2d 64 bd
       -0.28321487 -0.12574585 0.35216495 -0.055707604
000040 b2 fe ef 3e ac b8 87 3e 09 75 64 bd ab 82 42 3e
       0.46874005 0.2650808 -0.055775676 0.18995158

W_c f4 [20, 10]
000000 03 f2 b4 3e 81 33 4d 3f b8 b3 22 3d e9 e6 4f 3f
       0.3534089 0.80156714 0.039722174 0.81211716
000010 e6 f4 cd 3e b4 12 15 3f 3c c7 7f 3e 68 21 98 3e
       0.40225905 0.58231664 0.24978346 0.29712987
000020 5d 90 10 3e 32 15 cb 3e bb 82 ee ba b7 26 0c bf
       0.1411757 0.39664608 -0.001819692 -0.54746574
000030 8e 6d a3 3b 1a de 4d bf 1d 90 94 be ac 03 15 3e
       0.004987425 -0.80417025 -0.290162 0.14552182
000040 8f 5e 20 3e 98 0b 66 ba a0 74 47 be 41 49 85 3e
       0.15661071 -0.00087755313 -0.19478083 0.2603245
000050 26 e2 3e bd 0f 4d 14 bd 28 3f 64 be 3b 38 1c be
       -0.04660239 -0.0362063 -0.22289717 -0.15255825
000060 be 47 69 bc 38 78 2f bd ee a2 9c be b5 0c b1 bd
       -0.014238296 -0.04283926 -0.30593055 -0.08645002
000070 ec 87 10 3e 05 f4 8c 3e 45 68 55 be 92 01 a9 3e
       0.1411435 0.27529922 -0.20840557 0.3300901
000080 a9 c7 80 be 02 a1 44 3d d1 75 c5 3d 96 4f e0 bd
       -0.2515233 0.04800511 0.09641612 -0.1095268
000090 1b 11 8b 3e 79 43 6c be cf 08 3b be 8e 72 ae 3c
       0.27161488 -0.23072614 -0.18265079 0.021294858
0000a0 b2 f2 eb 3d df f7 3d 3f 82 e1 2c 3e 1d 49 50 3f
       0.115209 0.74206346 0.168829 0.8136156
0000b0 6a ba aa 3e cb 21 34 3e cb 12 6f 3e 74 12 0f bd
       0.33345348 0.17591016 0.23347013 -0.034929708
0000c0 67 3c 9f 3e a9 84 b3 3e 61 f2 51 3e f5 8c 1f bd
       0.3110077 0.3506215 0.20502616 -0.038952786
0000d0 9a a4 2e 3d a6 25 d7 3e da f0 87 3e f3 8a bd 3d
       0.042637445 0.4202091 0.26550943 0.09255018
0000e0 43 67 cc 3d ab 04 e4 bd 1a f5 bc 3d 7f f9 37 be
       0.09980633 -0.11133703 0.09226437 -0.17966269
0000f0 d6 e0 b5 be f3 64 99 be ff 8f 46 bd 14 15 a7 bb
       -0.355231 -0.2995983 -0.04847717 -0.0050989483
000100 8c 1e 49 3e ed 93 7d 3d d7 31 48 3e d7 ca b5 3d
       0.19640559 0.06190865 0.19550262 0.08876579
000110 5d 25 2b bd cc af 4b bd b5 30 78 3e fc 68 4e 3d
       -0.04178368 -0.0497282 0.2423733 0.05039309
000120 62 8c eb 3d b0 d2 05 bd 5f 7c 00 be ef d4 5b 3e
       0.11501385 -0.03267163 -0.12547444 0.21467946
000130 94 4b 58 3d 35 69 dd bd 3a 02 bd 3e ff 6a 06 3f
       0.052806452 -0.10811082 0.3691576 0.52507013
000140 be d7 85 3e 11 26 50 3f 27 dc 41 3e ae 1e 20 3f
       0.2614116 0.81308085 0.18931638 0.62546813
000150 6c 5f 96 3e 3a 89 14 3f 72 11 e1 3d c9 e2 b1 3e
       0.29369676 0.5802189 0.109896556 0.34743336
000160 9c 0c 5c 3e a8 1f 94 3e a7 9a 7a 3e 83 fb 5e be
       0.21489185 0.28930402 0.24473058 -0.21775632
000170 4e df 05 3e b7 83 2c ba b7 3a aa 3e cb 8a 95 3d
       0.13073465 -0.00065809063 0.3324792 0.07301863
000180 75 1f 3e bc cc e0 8c 3e 06 03 20 3d 3c 36 36 3d
       -0.01160418 0.27515256 0.039065383 0.044485316
000190 ac 0e bd 3d 97 ff 75 be 10 08 de 3b a8 6f 98 3d
       0.09231314 -0.24023281 0.0067758635 0.07443172
0001a0 87 7b d6 3d ac 6a 8a bd 96 e2 94 be f7 fa da 3d
       0.1047278 -0.06758627 -0.2907912 0.10692399
0001b0 1a 16 e4 bd 25 c9 c7 3d 57 43 e8 bd 72 e3 91 3e
       -0.11137028 0.09755162 -0.11340969 0.2849384
0001c0 ad f7 24 be 0f fb 36 be cc ab 19 be 40 d4 e0 bd
       -0.16110106 -0.17869209 -0.15006942 -0.109779835
0001d0 40 2a e0 bd 27 26 7e be f0 c8 10 3d 87 c1 f0 3d
       -0.109455585 -0.24819241 0.03534788 0.117556624
0001e0 11 92 09 be d8 dc e2 3c 65 d5 54 3c 07 48 50 bf
       -0.13434626 0.027693197 0.01299033 -0.81359905
0001f0 ad cf 27 bd ed c8 6a 3e bf 8f 31 be 80 3d fb bc
       -0.04096954 0.2292821 -0.17339991 -0.030668974
000200 cc 1a de bd 35 8e 08 3d 75 6d 22 be 0c 34 47 3d
       -0.10844955 0.033338744 -0.15862067 0.04863362
000210 dd c7 6f be d6 6c 49 bd 56 89 b9 3e 14 a9 af bd
       -0.23416086 -0.04917606 0.36237592 -0.08577171
000220 a1 9c a3 be 49 fc 04 be d5 44 d0 3d 6a fb c7 3d
       -0.31955436 -0.12986864 0.10169379 0.0976475
000230 27 8c e6 3c 3c c2 8b be 07 b6 13 bf 82 b7 63 bd
       0.028143002 -0.27296627 -0.57699627 -0.05559493
000240 59 15 36 be ca f1 8f 3b 74 78 05 3e e6 c0 9a 3d
       -0.17781581 0.004392837 0.1303423 0.07556324
000250 d9 1a 04 3e 3e b3 28 3d d6 12 cd 3d 6e db 93 3d
       0.12900867 0.041186564 0.10013358 0.07219587
000260 e7 31 dc be 4e 49 b9 3d d0 23 ff 3d ef 66 49 be
       -0.43006822 0.09047185 0.124580026 -0.19668172
000270 76 43 11 3d 19 4f 1b 3d b1 28 2f 3e ef 35 34 3e
       0.035464726 0.03791723 0.17105366 0.17598699
000280 88 2c 96 3e 49 c8 37 3f f3 80 22 3e af 54 50 3f
       0.2933085 0.71789986 0.15869503 0.81379217
000290 c6 b1 c5 3e 13 1e 07 3f b1 c3 91 3e a8 30 35 3e
       0.38612193 0.52780265 0.28469613 0.17694342
0002a0 f8 71 d8 3e 57 44 80 3e ed 10 83 bd ac 25 68 be
       0.4227445 0.2505214 -0.06399713 -0.2267062
0002b0 f5 94 9f bd 4f 0e ca 3d 6a ec 07 3e 78 05 86 3d
       -0.07792083 0.098660104 0.13273779 0.06544012
0002c0 8b 90 42 be b8 61 2a 3d 38 61 aa bd 85 e4 1b bc
       -0.19000451 0.041597098 -0.08319324 -0.0095149325
0002d0 ae 69 1d be a4 59 94 be 7b db bc bd 02 aa e6 3d
       -0.15372345 -0.2897464 -0.0922155 0.11262895
0002e0 31 0e 14 3e 12 75 90 ba 8c 79 ec 3c 6c 1f 39 bd
       0.14458539 -0.0011021218 0.028866552 -0.04519598
0002f0 8a 19 fe bd 99 68 0c bc b0 ff dd bb 86 f0 23 3e
       -0.12407215 -0.00856986 -0.006774865 0.16009721
000300 45 b9 f5 3d f2 9b 6f 3e 94 ca 5e be 64 a8 32 be
       0.11998228 0.23399332 -0.21756965 -0.17447048
000310 ce 88 b8 bd 4e 03 69 be a5 cc 5a be 56 4d 38 be
       -0.090104684 -0.22755167 -0.21367128 -0.17998251
