models/ids/ids_brevitas.onnx (onnx, 52115 bytes, 19 tensors)

qlstm.layers.0.0.input_gate_params.bias f4 [20]
00000000: 6c23 feba 7ada 093f 72f6 ac3c 138b c23e
00000010: abeb f03d 0de7 663e 72ef 9c3e 7b4f b2bd
00000020: fae7 163f 3bec 0f3e 70ce c63e 4252 a63e
00000030: 9d62 813e 54a1 24bd 23ed bd3e 36da 6a3c
00000040: d2cb c03e ab3e e7bd f10e 95be 3a8f 063e
-0.0019389219 0.53848994 0.021113608 0.3799673 0.117637 0.22549076 0.30651432 -0.08706566
0.5894772 0.14054959 0.38829374 0.32484633 0.25270548 -0.040192917 0.37094983 0.014334252
0.37655503 -0.1129125 -0.29112962 0.13140574

qlstm.layers.0.0.input_gate_params.input_weight.weight f4 [20, 10]
00000000: 0714 cb3d 51a8 e13e 2bf5 7e3e 57d3 933e
00000010: 89fe 28be 7b8b c63e 8f66 0c3e ae3d 7e3e
00000020: 56af f23e 4147 8e3e 0e57 f03d ddb5 383e
00000030: 2081 d73e fc0a 003e 4246 3ebd bb5c 653e
00000040: b5ea cc3d 17c3 8e3e 04c5 a33d 28e2 8b3c
00000050: a5c2 cebc eca1 34bd ada9 913d 872e b53d
00000060: afc0 f1bc b68e 4d3b 7e15 e4bd 45fe a73e
00000070: 5077 60be ba91 95bc ee53 d4bd f60a 1b3d
00000080: 5c38 3fbe 300e 5fbc a012 41be 4a4b 08be
00000090: a83b 66be 12d0 b1be 61ec a4bc d137 ce3d
000000a0: 081d ec3e 3b5d ba3e e456 91be 5511 1b3f
000000b0: 933b 613c e2e4 c6bd 561e a9be 95bf 16be
000000c0: 76db 36be 7738 d5bd 195e 503e 5b44 ba3d
000000d0: 9c49 45be 1224 5abe ec65 b1bd 9e26 313e
000000e0: 0c32 31be 0a82 013e 5c27 5c3e 5ae2 333e
000000f0: 4726 0c3d 76d1 353d e093 f9bd f81a 4bbc
00000100: 77ca 1f3d 3136 013e 7313 0dbf c0a0 913e
00000110: a8b6 bbbd 6d52 65bd 75a4 dbbd ecd8 f13d
00000120: 600d 1fbe 6862 5dbc 5323 52bd 8d33 f73d
00000130: 5778 3c3f 168d c3bc 6ae5 733d 22eb a9bd
00000140: 43a3 4e3c 1bcc 2d3e 22f9 dc3e 16ae e63d
00000150: 5354 283f 86aa 7fbe b24a 883e a895 24be
00000160: f508 a43e ccfe 69be 1550 323e de96 1abe
00000170: af7b e7be 10e2 72be b2bf b53e 8af8 ebbc
00000180: 8fe3 ce3e a9bc 27be ac78 173d bfbd 803e
00000190: da38 633e 832d d53e 127f 443e b4da 7e3e
000001a0: 4d6d 7f3e c78b 283e e6bd 9bbe 8a98 4dbe
000001b0: 53a0 06be 2a4f 51be cd36 713d 7f5a 653e
000001c0: 8153 36bd c731 77bd 48c5 04be 339d 653e
000001d0: 022d 6fbe eb7e 0d3e b613 263f 3784 333f
000001e0: 184d 3dbe 7852 4a3d f0e8 25be 3117 273e
000001f0: 5071 9c3e eb6f 95bd 9759 373e a9a6 c8bc
00000200: e600 1e3e 058f 623d 5db6 b33d 64e0 1b3e
00000210: 2599 06be 4ef2 2b3e ecde d63e 8b57 923d
00000220: 0255 b5bd e3f8 c0be 5d43 223d 430b d53e
00000230: 84ea b43c 35d7 803e 61c1 a33e eab3 ee3e
00000240: a155 4f3f bcac ae3d 0951 08be 6172 c8bd
00000250: 9f1e 11be c1b7 03be 5233 b0be d2e2 28be
00000260: 5985 e53d f9d0 3d3e 3d11 47be 288d a83e
00000270: 6540 823e 642c 173c 5077 2b3e 36a8 763e
00000280: 6ff0 1dbe 4c75 b73e b544 a7be b7bc 953d
00000290: 3cbb 383f 2175 2a3e 275e b6be 9ac0 9c3e
000002a0: eb72 ec3c b86d 50bd 3c44 fb3d 7e15 8a3e
000002b0: 82c9 e03c e181 20be b3a9 163e 7c4b 01bc
000002c0: 1fe1 86be d61e c63c c528 07be 5516 b6bd
000002d0: c954 2b3e a22b c83b 32ed 86bd 3e4b 30be
000002e0: fb47 9cbe add2 603e 0623 e3bd 6716 913e
000002f0: 77df 9a3d a4a4 ac3c 374c 4c3e 833d 0abe
00000300: 5518 7abe 2b67 333e 0752 d03b 697a aebd
00000310: e9c3 c63e 2127 093c 62c1 91bd 4966 e43d
0.09915929 0.44073728 0.24898212 0.28872177 -0.16503347 0.3877829 0.13710998 0.24828216
0.47399396 0.27788737 0.11735354 0.18038125 0.42090702 0.1250419 -0.04645372 0.22398655
0.10005704 0.27883217 0.07996562 0.017075613 -0.025239298 -0.044099733 0.07112441 0.08846765
-0.029510824 0.003136558 -0.11136912 0.3281118 -0.21920514 -0.018257964 -0.10367571 0.03785225
-0.18673843 -0.013614222 -0.18854761 -0.1330997 -0.22483695 -0.34729058 -0.020132245 0.1006924
0.461159 0.36399254 -0.28386605 0.6057332 0.013747114 -0.09711625 -0.33030957 -0.1472152
-0.17857155 -0.104111604 0.20348395 0.09095069 -0.19266361 -0.21302822 -0.08662018 0.17299888
-0.17304248 0.12647262 0.2149939 0.17566815 0.03421619 0.04438921 -0.12186408 -0.012396567
0.039011445 0.12618329 -0.551078 0.28442955 -0.09165698 -0.05598681 -0.10724727 0.11808953
-0.15532446 -0.013512231 -0.05130322 0.120703794 0.73621124 -0.023870986 0.05954496 -0.08296801
0.012612167 0.16972391 0.43158823 0.11263673 0.6575367 -0.24967393 0.26619488 -0.16072714
0.32038084 -0.22851104 0.17413361 -0.15096614 -0.4521155 -0.23719049 0.35497814 -0.028805036
0.40407988 -0.16380562 0.036980316 0.25144765 0.22189656 0.41636285 0.19189098 0.24888116
0.24944039 0.16459571 -0.3041832 -0.2007772 -0.13147096 -0.20440355 0.058890153 0.22397803
-0.04451323 -0.060350206 -0.12965882 0.22423248 -0.23357013 0.13817947 0.64873827 0.7012362
-0.1848644 0.049395055 -0.1620214 0.1631744 0.305552 -0.07296737 0.1790527 -0.024493532
0.1543003 0.055312175 0.087750174 0.15222317 -0.13144358 0.1679165 0.4196695 0.07145604
-0.088541046 -0.37689885 0.039615024 0.41610155 0.022084482 0.2516419 0.31983474 0.4662164
0.80990034 0.0852904 -0.13312162 -0.09787441 -0.14171837 -0.12863065 -0.34414154 -0.16492775
0.11207075 0.18536748 -0.1944017 0.32920194 0.25439754 0.009226892 0.16744733 0.24087605
-0.1542375 0.35831678 -0.32669607 0.07311385 0.72160697 0.16646244 -0.35618708 0.30615693
0.02886339 -0.050885886 0.12268874 0.26969522 0.027439836 -0.15674545 0.14713173 -0.007891532
-0.2634363 0.024184626 -0.13199146 -0.08890978 0.16731562 0.006108717 -0.0658821 -0.17216203
-0.30523667 0.21955366 -0.110906646 0.28337404 0.07562154 0.0210746 0.19950949 -0.13500027
-0.24423344 0.17519824 0.0063574347 -0.08519442 0.38821343 0.008371145 -0.07116963 0.11152322

qlstm.layers.0.0.input_gate_params.hidden_weight.weight f4 [20, 20]
00000000: ca60 c7bd 7d27 2cbe 2196 9a3e f430 1d3d
00000010: c65a d2be 4587 c73c 769a cd3e c6b6 0f3d
00000020: 6c41 95bd e1dd 39bc 54e1 76be 1cce c63c
00000030: 83f9 563e ede4 b13e d3aa d53e 776b 793e
00000040: f572 b0be c43c e03e b86b 2ebe e1fc 703e
00000050: 029d a43c e914 d1be 0524 ff3d 9ff8 c13e
00000060: b4fb 15bd bc6d ef3d 8de9 cd3e 9eea c33d
00000070: e68c f13d c195 9d3e 7d02 a9be 6dc0 5bbd
00000080: acb0 9e3e b6d1 a13e 18ba bb3d ee26 b13e
00000090: e384 d43d a6fa 413e 7fec 8f3e 0736 ec3d
000000a0: 4b61 73be cf09 babd 5c76 ee3e f5e7 173a
000000b0: 9393 29be bec6 c6bd 4bfc f23e 7bb9 08bd
000000c0: dab7 4a3e 1849 bc3e 3de2 debe c683 693e
000000d0: 670e e53d 53a3 9bbc 9367 c33e ef73 343e
000000e0: f267 85be 3bd3 703d 8a7c 0abd 2667 1bbe
000000f0: 2254 9cbd 7ecd f2bd 9489 1e3e 3677 903d
00000100: 73b8 033e 63ef 263e 9605 b73e 3408 cdbd
00000110: 446c 793e c670 e13d e3ad 88be 9301 09bd
00000120: 46c7 bbbd a9de 3abe 4bbc 47be 617a 07be
00000130: b82e 9bbc a305 b7bd 1c07 efbc 4c01 2abe
00000140: 5d65 66be 4275 1cbf d88c c63e 4330 cf3e
00000150: 1615 113e bcf6 3a3e 7dbc 8f3e b697 c13e
00000160: b012 b33e 573f d93e 9069 09bf 00e9 163e
00000170: ef0f a73e 37af 7a3e d78d 623e 47ae aa3e
00000180: 5b47 823e 3ce1 af3e 3c6c b7be 31ac ac3e
00000190: 5e33 2ebf cfae dbbd 0e4b 6c3e 6183 eebd
000001a0: 1c19 573e caa0 00bf 9d0c 1c3d 0839 7fbe
000001b0: c2e1 9e3e 21f9 eb3e aa96 37be ffff 03bb
000001c0: 9196 a8be a357 ad3d 3dcc 2c3e 2e6d 023e
000001d0: ae55 e73e 1e78 59be 9645 92be b049 45be
000001e0: ed8b 10bf ef88 dbbb e629 c23d 6c8f 75be
000001f0: f7fb 1dbe f276 ae3e 9f74 9c3e e73f 28be
00000200: 64c8 a8be 484a 24be 23c0 fbbd 3c90 3c3e
00000210: cb49 a4be 91c8 16be f801 b3bd 3815 a6be
00000220: aa47 313e 60a6 da3c 44b5 e7bd e47d d3bd
00000230: 2f09 943d 52b0 5e3e 4474 733d 10e0 00bc
00000240: b0f9 68be 24c9 01bd 9199 ab3e 9344 503f
00000250: 4de2 34be 4892 a2be 551f bd3e ea2e 1bbe
00000260: 8feb 8f3e 57c3 d6bd 2875 9bbd 583e 38be
00000270: 57da af3d b804 b3bd 5554 713e e0dc e53e
00000280: ddf5 b8bd 7aa8 d8bd 0527 303e b67b 9d3e
00000290: 0a1c 283e 9751 87be c5d4 773e 3907 e53d
000002a0: 6a2a 6a3e a645 7d3e a001 4abe 0a71 ccbc
000002b0: 049a 1fbe 9a69 723e 11e5 4a3e b373 6f3c
000002c0: 6189 dbbd 893c 303c 4121 0c3c 4934 bc3e
000002d0: 970f 2bbe e2f8 3ebe 117c 2fbe f618 f8bd
000002e0: 9637 cd3e 9088 b0bc 9d12 7cbe 0f05 91be
000002f0: 1aba 86be df46 a8be 20d5 8dbd 116d 97be
00000300: 2558 723e 0353 84be 6433 6cbe 56fd f6bd
00000310: c4fa 2cbe 833a 0d3e 9bd1 c6be 28e8 443e
00000320: d3c6 c5be f552 35bd 5a0f 6f3d d29f 17be
00000330: 552b 603e faa3 3a3e fb46 84bc 2ac3 033e
00000340: cc88 413e bb51 ba3d 2dce 963c 43d8 2ebd
00000350: 4cf9 b63e 9e6c 87bd 713a c03d 98ab 893e
00000360: bdb2 27be d86b 823e f8a5 323e 7cd2 98be
00000370: 179a 2bbd d65e 25bf 7f71 003f e66b 253f
00000380: 3602 0bbf b85e 0e3f 8ac1 cd3e 5510 e23e
00000390: 860d 993e 6e26 fc3e e18c 01bf 27ab af3d
000003a0: ba20 ae3e 7ff0 eb3e e25a bd3e 0962 8e3e
000003b0: e43d 0fbf c17a 813e 0280 42be 15eb 263f
000003c0: b983 04be 6f07 1dbd ce35 f6bd 969d 90bd
000003d0: 781c 82bd a194 1abd 90d9 c13c 6da1 253e
000003e0: 562c d8bd dd07 66be e8ec 933d a830 283e
000003f0: 1b15 ae3e f299 99be 6e25 49be 07a2 0fbe
-0.09735258 -0.16811939 0.30192664 0.038376763 -0.4108488 0.024356494 0.40156907 0.035086416
-0.07287869 -0.011344404 -0.24109393 0.024268202 0.20993619 0.3474497 0.4173189 0.24357401
-0.34462705 0.4379636 -0.17033279 0.23533966 0.020094398 -0.40836266 0.12458042 0.37884995
-0.036616996 0.11690852 0.40217248 0.09566234 0.11794452 0.30778316 -0.3300971 -0.05365031
0.30994165 0.3160531 0.09166354 0.34600013 0.10376909 0.18943271 0.2811012 0.115337424
-0.23767583 -0.09083902 0.46574676 0.0005794757 -0.16560201 -0.09705876 0.4745811 -0.033380013
0.19796696 0.36774516 -0.4353198 0.22804174 0.11184388 -0.018998777 0.38164958 0.1762235
-0.26055866 0.058795195 -0.033810176 -0.15176067 -0.076332346 -0.11855601 0.1548217 0.07053988
0.1286333 0.16302256 0.3574645 -0.1001133 0.24357706 0.11007838 -0.26695165 -0.033448767
-0.09168868 -0.18249 -0.19505422 -0.13230278 -0.018943176 -0.08936622 -0.029178195 -0.16602057
-0.22499605 -0.6111642 0.3877933 0.40466508 0.141682 0.18258184 0.28073493 0.3781106
0.34975195 0.42431137 -0.536767 0.1473732 0.32629344 0.24480902 0.2212442 0.33336088
0.25445065 0.34351528 -0.35824764 0.33725122 -0.6804713 -0.107267015 0.23075506 -0.11646152
0.21005672 -0.50245345 0.038097966 -0.249241 0.31031615 0.46088508 -0.17928568 -0.00201416
-0.32927373 0.08463981 0.16874786 0.12736961 0.45182556 -0.21237227 -0.28568715 -0.19266391
-0.5646351 -0.0066996734 0.09480648 -0.23980492 -0.15428148 0.34075123 0.30557725 -0.16430627
-0.32965386 -0.16043961 -0.122925065 0.18414396 -0.3208755 -0.14724948 -0.0874061 -0.32438064
0.17312494 0.026690662 -0.113138705 -0.10326746 0.07228314 0.21746948 0.05943705 -0.007865921
-0.22751498 -0.031685963 0.335156 0.81354636 -0.17664452 -0.3175223 0.36937967 -0.15154615
0.28109404 -0.10486477 -0.07590705 -0.17992532 0.08586567 -0.087411344 0.23567326 0.44895077
-0.0903127 -0.10579009 0.17202385 0.30758446 0.16416946 -0.26429436 0.24202259 0.11183018
0.22867742 0.247336 -0.19727182 -0.024956245 -0.15586096 0.23673096 0.19813944 0.014614987
-0.10719562 0.01075662 0.00855285 0.3675864 -0.16705166 -0.18649629 -0.17137171 -0.12114136
0.4008147 -0.021549493 -0.24616475 -0.28324172 -0.2631386 -0.3286657 -0.06925416 -0.295754
0.23666437 -0.25844583 -0.23066479 -0.12060039 -0.16892534 0.13791852 -0.3883179 0.19229186
-0.38628253 -0.044268567 0.05836425 -0.1480706 0.2189153 0.18226615 -0.016147127 0.12867418
0.1889984 0.0909762 0.01840886 -0.042686712 0.35737073 -0.06612514 0.09386147 0.26888728
-0.16376777 0.25472903 0.17446125 -0.29848087 -0.041895 -0.64597833 0.5017318 0.64617765
-0.5430025 0.5561328 0.4018672 0.44153085 0.2989313 0.4924807 -0.5060559 0.085775666
0.34009343 0.4608192 0.369834 0.2780917 -0.5595381 0.25288966 -0.18994144 0.65202457
-0.12940873 -0.038337167 -0.12021981 -0.07061307 -0.06353086 -0.0377394 0.023663312 0.1617486
-0.105553314 -0.22463937 0.07222921 0.16424811 0.34000477 -0.30000263 -0.19643185 -0.14026652

qlstm.layers.0.0.forget_gate_params.bias f4 [20]
00000000: f181 76be a656 efbe 118e 8dbe a1b3 08be
00000010: 3f67 673e fc32 1dbe 3494 6a3d 81b7 043d
00000020: a9be 9cbd 950f 14be 5e28 91bd 85a9 d13c
00000030: 69f7 1bbe f11e 163d 6311 08bf 2cbc 753e
00000040: b56b ec3e 30d7 1a3d d078 093e e4c4 0a3d
-0.24073006 -0.46745795 -0.2764745 -0.13349773 0.22597979 -0.1535148 0.057270244 0.032401565
-0.07653553 -0.14459069 -0.070877776 0.025593529 -0.15231098 0.0366506 -0.5315153 0.23997563
0.46175924 0.037802875 0.13424993 0.033879176

qlstm.layers.0.0.forget_gate_params.input_weight.weight f4 [20, 10]
00000000: bfe2 54bd 1380 ea3e 8941 72bc d900 c33d
00000010: a283 13be 745f 2cbd 901e 19be 2ee6 b0be
00000020: ef3e 8e3d 9b6c c7bd 6762 60bc b537 53be
00000030: e5d6 2e3e 5fab 973c 64a2 0a3e d88a 4b3e
00000040: 2d41 bdbc 8f36 86be f2a6 af3d 0a29 34bc
00000050: 54e1 04be 9574 853e 18bb 51bd 7809 053d
00000060: bcb7 763e d996 4c3e c516 a93d d7ba 213f
00000070: 290d 8c3e fd61 de3e fc5f 83be 45a9 823e
00000080: 9ad9 843e c299 8cbe ca2b b1bd d1da 933d
00000090: d82c 913e 773c 8e3c 4ae1 e73e 819e 8a3d
000000a0: bfb3 d9bd 856e 00bf eefc 573d a328 ea3b
000000b0: 229b 683e ef74 27bd c764 e9be d121 bd3e
000000c0: d43b 253e dfce 323e 93af e2bd e0e2 6bbe
000000d0: 19da cabe b6f2 a7bd 3d13 76be edb8 5bbe
000000e0: 19c0 853e 6de1 fabe 4031 a53d 1da1 173e
000000f0: f335 ac3e 9d2c a6be 864c 7a3e e5c4 413e
00000100: b6ed 72be c4f1 13bc 8a71 efbe 664c 00bf
00000110: 36e4 19be 053d 1d3e d795 a53d 8c74 323e
00000120: a775 393d 773b 763e 3a97 5cbb ab0b c83d
00000130: e068 07bf 24c5 c6bd 4aee cf3d f3ed 2e3c
00000140: 4c87 5c3c 397e f33d 8e70 543e aa56 953d
00000150: d8ff 07be 8543 743e f095 793e 6137 bc3e
00000160: 85e1 7e3e c30b 273e b521 893e b3a9 c0be
00000170: e9cf 303e 2b30 babd ccbd da3e e9e2 9c3e
00000180: 8c1d b93d 4b15 923e 890b 723e eac3 553e
00000190: b209 363e c1c7 2abe ded1 febd 6c4c 2bbe
000001a0: 74a0 8e3d 588c 133e dd61 783b d980 3bbc
000001b0: 7807 423e 3538 d03d 8217 cb3c 6c3a 19be
000001c0: 05cf 303e 8a26 083e a703 56bf e689 8ebe
000001d0: bfb7 a13e a244 93be ffe6 e13d 3711 a1bd
000001e0: 938b bd3e ff8b 9d3e e7f8 dc3c 7506 92bd
000001f0: f1b7 aa3c c074 b63d 9819 14bf 9b49 afbd
00000200: 06a2 c13c b38f 24bd 0456 76bd 6285 2cbe
00000210: f200 80bc 0daa 9abd 5266 1ebe 68c9 813d
00000220: 2d1b 90be d1a4 5abe eb2f 033f 67ec 37bd
00000230: 516b 723e 4d55 80bd 4769 433e 79a3 60bb
00000240: 13b4 7a3e 955b 893e 4d0a 983e 9f6a f43e
00000250: 7f45 d83e 85ad 703e 3a6d 98bc 6701 60be
00000260: 40e5 9cbe 9d78 70bc 0596 0fbe a7f7 963d
00000270: 29a9 7a3f 8b9d 53bd cae0 9cbc a2b6 2e3d
00000280: 3d16 893e 1352 b1be 0fbc b1bd 3fcf 423d
00000290: 871b 21be 8a2a c1be ba3a 583e b886 61be
000002a0: c910 7db9 0a18 1a3d ceca d03d c3d7 b73e
000002b0: 6aa8 ffbd 7663 113d e286 b6bd 113e 7dbd
000002c0: 00a4 8bbe ee47 263e 8ac3 6f3d c71a dd3c
000002d0: c78f 09bf b1f5 f73d 8689 c93d 3c8d 2abe
000002e0: cb76 9f3d 8726 d43e 2c94 0dbe 0953 1bbe
000002f0: e178 993e fd4e f53d c924 a83e 6ef5 8cbe
00000300: 04ab 963e 8c34 af3d 25cd 033e 2e5d 19be
00000310: 00f6 d33d 6d19 9e3b 16e9 633e 02f9 063f
-0.051974054 0.45800838 -0.014786133 0.09521646 -0.14405683 -0.04208322 -0.14953065 -0.34550613
0.069455974 -0.09737512 -0.013695336 -0.2062672 0.17074163 0.018514333 0.1353851 0.19877183
-0.023102367 -0.262135 0.08576764 -0.010996113 -0.12976581 0.26065508 -0.051203817 0.032479733
0.24093527 0.19979419 0.08256296 0.6317572 0.2735379 0.43434134 -0.25659168 0.25519767
0.25947267 -0.27461058 -0.0865093 0.0721947 0.28354526 0.017362816 0.4528907 0.067685135
-0.10629987 -0.5016864 0.052731447 0.0071459576 0.22715428 -0.040883 -0.455847 0.36939862
0.16136104 0.17461728 -0.110686444 -0.23035765 -0.3961952 -0.0820059 -0.24030776 -0.21457262
0.2612312 -0.4900011 0.08066034 0.14807554 0.3363491 -0.32455912 0.24443254 0.18922766
-0.23723492 -0.009029809 -0.4676631 -0.50116575 -0.15028462 0.15355308 0.0808522 0.17427272
0.045278218 0.24046122 -0.0033659474 0.097678505 -0.528944 -0.0970557 0.10152872 0.010676849
0.013459992 0.118893094 0.20746061 0.072919205 -0.1328119 0.23853882 0.24373603 0.36761
0.24890716 0.1631308 0.2678353 -0.3762947 0.17266811 -0.090912186 0.4272293 0.3064187
0.09038839 0.2853187 0.23637213 0.20875517 0.17777136 -0.16677763 -0.12442373 -0.16728371
0.06964198 0.14409006 0.0037900128 -0.011444294 0.18948162 0.10166971 0.024791483 -0.14963692
0.17266472 0.13295951 -0.83599323 -0.27839583 0.315855 -0.287633 0.11030387 -0.078646116
0.3702055 0.3077087 0.026974155 -0.07130138 0.020839663 0.08908987 -0.5785155 -0.08558961
0.02363683 -0.040176105 -0.060140625 -0.16847757 -0.01562545 -0.07551966 -0.1546872 0.06337243
-0.28145733 -0.21351935 0.5124499 -0.044903185 0.2367375 -0.0626627 0.19083129 -0.0034277125
0.24482755 0.26827684 0.2969536 0.47737595 0.4224052 0.23503692 -0.01860677 -0.21875535
-0.30643654 -0.014677194 -0.14022072 0.07371455 0.9791437 -0.051663917 -0.019150157 0.04265464
0.2677478 -0.3463293 -0.086784475 0.047560927 -0.15733157 -0.37727767 0.21116152 -0.22024047
-0.00024134213 0.03762058 0.10194932 0.359068 -0.12483294 0.035495244 -0.089124456 -0.06182677
-0.2727356 0.16238376 0.05853609 0.026990307 -0.5373501 0.12107409 0.09840684 -0.16655439
0.0778633 0.41435644 -0.13826054 -0.15168394 0.29975036 0.119779564 0.32840565 -0.27530998
0.2942735 0.085549444 0.12871225 -0.14976951 0.10349655 0.0048248083 0.22256884 0.52723706

qlstm.layers.0.0.forget_gate_params.hidden_weight.weight f4 [20, 20]
00000000: f9b0 573e 5721 f1bd 88fa 1a3d 4f67 403e
00000010: c890 a3be acde 4b3e 4241 f53d 577c 5e3e
00000020: 0524 f5bd bbc7 463e fc58 44be a532 c6be
00000030: 578b 38be f555 3dbe aa31 ebbd befc 06be
00000040: 4ac6 f13d 84f9 3b3e 571f 803e 3320 2e3e
00000050: d298 0e3d 9707 763e c644 8c3d e612 01bf
00000060: 1ba2 a3be 1d4d d4bd 93b5 35be 06f1 b3bd
00000070: 6653 51be 6bab c5be 72d1 b73e 32a7 f6bc
00000080: 65ff 5dbe b182 bcbe 38d0 5cbe b0ec 24be
00000090: c7ab 9bbd 106a 963d 66ee 7fbe 10e0 f8bc
000000a0: 6408 dc3d 6089 37bd 48c2 1bbe 1324 73be
000000b0: 3028 59be dbd4 c9bd 288f 29be fd93 653e
000000c0: 019c 52bd 5f31 113e 650f b33d 602a 5a3e
000000d0: 8c80 d83c 38c9 1bbe 615c 00be 9e60 f83d
000000e0: d5e7 86be 678d f1bd 3513 d43d e518 b43e
000000f0: 8069 5b3d 80a7 5fbe e28f fe3d 7d7e 493e
00000100: 4d1c 1fbd 31ab bc3e bcd7 2abd 5e5b 0b3e
00000110: 4643 3d3e 9a8e 51be ad97 353e 9cdf dc3e
00000120: c537 02be e99e 543e 707f 633e 2e65 873e
00000130: 5084 46be db76 3f3e b66a 3cbe 29c1 0e3e
00000140: 101d 613e ab53 823e 3197 b23d 48a2 5bbe
00000150: 7639 8b3e fa0a 21be 9f43 393e 82cc 36be
00000160: 0881 83be 9402 b9bd e0a1 e0bd c1b5 16be
00000170: 14a5 3a3e e4e9 8abe 8489 05be 9e7b 87bd
00000180: 8095 c9bd 6eb6 7dbe 8cdd 363f d649 0c3e
00000190: 70f1 c1bd 0956 c0be 6952 ebbc e436 1b3e
000001a0: 2820 c13d 3543 a73e db45 533e 293d 133e
000001b0: 68d8 ef3d 4728 2a3b 0e1c ce3d ba80 603e
000001c0: 06c6 513e 869a 9f3d e299 8f3e 68da ccbd
000001d0: 36dc ad3e 57a2 cf3e dd2f 25bf 0a00 c9bd
000001e0: 26dc 82be 010b 513e 6f66 a03e b660 62be
000001f0: eb9a 93bc 2684 a33e 428e ba3e a392 c03e
00000200: b9e7 853c b43e 0f3e ef6e 25bd 35ec 953e
00000210: 807e 0b3e d329 ca3d ff76 a53e 9c30 fb3d
00000220: 4e0a f7bb 4cfe 183a 4768 493e e883 37be
00000230: 5327 e7bd e0b0 a1be d00d 68bd 2e47 b3bc
00000240: 6bbd 29be fc9f d4be 6114 96bc eec7 62bd
00000250: c295 05be b279 853e a975 80be e25d d8be
00000260: edaf 123e 62c0 b3bd 7592 69be 092b 14be
00000270: 72b2 49bf 649e 303e 53f0 6e3e 997f 2dbe
00000280: 49b9 d93d f46b a2bd 9908 74bd 7b34 c4bd
00000290: 1a42 2f3e 33ba 03bd 2760 593e 24a3 463e
000002a0: f23a 053c cb67 e5bd b278 07be b299 083e
000002b0: 44a7 8a3d 602d f7bc e99e b6bc 19b7 dd3d
000002c0: 7d78 1cbe 3df3 2c3e f730 653e 41f7 a13d
000002d0: 5e4e 96be 39f3 9d3d 80bd 443e bef1 30be
000002e0: 05bd 033e 4ec3 293d 2f68 843d f526 573d
000002f0: 8aa3 99bd 78eb a33d c00d d1bd ec25 043e
00000300: 37ba 163e 0af6 3ebd b214 41be 937b a8be
00000310: ef6b aabe 7074 273e be5a 9cbe 9afc f73d
00000320: e3d8 57ba 874e a83e 98b5 6d3c a24f f33d
00000330: 850b cbbd a26d e83d 0355 c33c d4a4 f23d
00000340: d912 763d bafb c2bc 4f6d e8bd 6d6c 963e
00000350: 0cef 7abe ac7a 93be 287c 0cbe af18 f3bd
00000360: e8a1 563d 7f81 a0bd e549 08bc 1312 4b3e
00000370: b16c 69bd 932e babc 370f 2c3b 2260 e83e
00000380: b9f2 dabd 13f1 03bf 0f91 9dbe 1ace edbe
00000390: 413e 5f3e 286b c83d f455 8d3b abd6 173e
000003a0: 24ea 93be ffb4 a63e d5c3 433e 19eb 843e
000003b0: 84fc 463e 1027 073e 0c46 efbe 295f a1bd
000003c0: 6587 ecbb eee8 fbbc 5dc6 603e 4767 003e
000003d0: 3af7 a9bd bb96 9bbd 527c 473e 80f2 dfbe
000003e0: d627 de3c 6a2e 213e 2b06 00be 684d be3e
000003f0: aeed 003e be73 3c3e e095 78be 0d8c 6bbe
0.21063603 -0.11773937 0.03783658 0.18789409 -0.31946397 0.19909161 0.119753376 0.2172712
-0.11969761 0.19412129 -0.1917457 -0.38710514 -0.18021904 -0.18489821 -0.11484082 -0.13182351
0.11805399 0.18356901 0.2502391 0.1700447 0.03481371 0.24026333 0.06849055 -0.5041946
-0.31959614 -0.10366271 -0.17745046 -0.08786206 -0.2044197 -0.38607344 0.35901982 -0.030109022
-0.21679457 -0.3681846 -0.21563804 -0.16105914 -0.07601123 0.073444486 -0.24993286 -0.030380279
0.10743788 -0.044808745 -0.15210831 -0.2374423 -0.21206737 -0.09855052 -0.16558516 0.22419734
-0.05141831 0.1417899 0.08743171 0.21305227 0.026428483 -0.15213478 -0.1253524 0.12127803
-0.2634875 -0.117945485 0.10355226 0.35175243 0.05356741 -0.2184124 0.12429787 0.19677158
-0.03884535 0.3684936 -0.041709647 0.13609073 0.18482694 -0.20464554 0.17733641 0.4313935
-0.12716587 0.20763744 0.22216582 0.2644438 -0.1938641 0.18697684 -0.18400082 0.13940872
0.21983743 0.2545446 0.08720244 -0.21448624 0.27192277 -0.15726843 0.18092202 -0.17851451
-0.2568438 -0.09033695 -0.10968375 -0.14717771 0.18227035 -0.2713157 -0.1304074 -0.06615375
-0.09842968 -0.24776623 0.71431804 0.13700041 -0.09469879 -0.3756564 -0.02872582 0.15157658
0.094299614 0.32668462 0.20632116 0.143788 0.11711198 0.0025963949 0.10063945 0.21924105
0.20485696 0.07793145 0.2804709 -0.10002595 0.3395707 0.40553543 -0.6452616 -0.098144606
-0.25558585 0.20414354 0.3132815 -0.22107205 -0.018018207 0.3193676 0.3643666 0.37611875
0.016345846 0.13988763 -0.040388998 0.29281774 0.13622475 0.098712586 0.3231735 0.12265131
-0.00753907 0.0005836233 0.19668685 -0.17921412 -0.112867974 -0.31580257 -0.056653798 -0.021884527
-0.16576163 -0.41528308 -0.018320264 -0.05536645 -0.1304541 0.2606941 -0.25089768 -0.42259127
0.14324923 -0.087769285 -0.22809775 -0.14469542 -0.7878791 0.17247921 0.23333864 -0.16943206
0.106310435 -0.07930747 -0.059578512 -0.09580322 0.1711506 -0.032159995 0.21228085 0.1939817
0.008131729 -0.112014376 -0.13229635 0.1333988 0.06770185 -0.030173004 -0.022292571 0.10825939
-0.15280338 0.16889663 0.2238196 0.07908488 -0.29356664 0.07712407 0.19212914 -0.17279717
0.12865074 0.041446023 0.06465184 0.052527387 -0.07501896 0.080038965 -0.10207701 0.12905091
0.14719473 -0.04662136 -0.18855551 -0.3290678 -0.33285472 0.16353011 -0.3053798 0.12108727
-0.0008233918 0.32872412 0.014508627 0.11880423 -0.099143066 0.11349036 0.023844248 0.11847845
0.06007657 -0.023801673 -0.11348974 0.29379597 -0.24505252 -0.2880453 -0.13719237 -0.118699424
0.0524005 -0.078371994 -0.008318399 0.19831114 -0.05698842 -0.022727286 0.0026254186 0.45385844
-0.10690827 -0.51539725 -0.30774733 -0.46446306 0.21801092 0.097860634 0.004313225 0.14827983
-0.28889573 0.32559964 0.19117673 0.25960615 0.19432265 0.13198495 -0.4673313 -0.078794785
-0.0072182887 -0.030750718 0.2195067 0.12539397 -0.08299108 -0.07597109 0.19481018 -0.437397
0.027118605 0.15740362 -0.12502353 0.3716843 0.12590668 0.18403527 -0.24275923 -0.23002644

qlstm.layers.0.0.cell_gate_params.bias f4 [20]
00000000: 9782 14be bb86 86bc 1dae 243e eaa9 c83f
00000010: 3dc0 ba3e be70 4c3f 8b9f 303d a21a 833e
00000020: 0472 ed3f a2b2 dcbd ad4b edbf e136 ed3d
00000030: ec10 babd 9f5f e9bd 4937 6a3f 8b65 e9be
00000040: b29f fa3e 8b31 3a3d fd5a 12be c51b a9bc
-0.14502941 -0.016421666 0.16082044 1.5676854 0.3647479 0.7985953 0.043120902 0.25606257
1.855042 -0.10776259 -1.853872 0.11582733 -0.09085259 -0.113951914 0.9149061 -0.45585284
0.48949963 0.045457404 -0.14292522 -0.020643124

qlstm.layers.0.0.cell_gate_params.input_weight.weight f4 [20, 10]
00000000: 3632 20bc 15e5 44be 947b bcbd 4eaa 993d
00000010: 3e84 a33e 1169 67bd 36e7 1abe acdc f5bd
00000020: aac5 0e3e e9ab 8b3e 4794 3c3e 8f4c f23d
00000030: d149 5ebe f77d 99be fe75 d8bd 36fc 58be
00000040: a268 21bf 05ed 77bd 1feb e2bd a924 be3e
00000050: d010 cd3c 993b 033f a7dc 393e 8ed4 733e
00000060: 0aa9 8d3e 58fe 88be d571 61be df2a 86be
00000070: c26a 053f 9bb0 35bd 6489 9d3e cbb4 303f
00000080: 3d00 d83d 88c9 433f 615a 053e 970f 913e
00000090: 942a 4e3e 240a be3e 9d13 933e 66d0 923e
000000a0: 50c3 bfbd 5d2b 37be fa8c a0bc 2bfe 96bd
000000b0: 8585 0d3d 8cc6 3c3c e2f1 ecbc 4719 6e3d
000000c0: 4ed4 02be 2052 17be 6068 813e 19cf 433f
000000d0: bf38 773e 5644 f13d 7e53 583e c59a ae3e
000000e0: 8d05 803d cd9e 0a3f 66ef e73d 9f52 953e
000000f0: faa9 013e 1cb1 433f 7602 01be 733c 4f3c
00000100: a943 90bd 760f 18be 9060 6abd a43b e73d
00000110: a306 7f3e 419d b43d 0d37 c23d f28c c63e
00000120: 37ff b53c 92b9 31bd 0712 0ebe d4e3 3abd
00000130: f7f2 24be b85a 993d 8570 ab3e c10a e8bc
00000140: d3fa 373e 8591 2d3f 784a a23e 2fcc 433f
00000150: 74bb 093e 32a6 033e 04e3 443d f271 18be
00000160: 05ee e93d fcb8 223e 22ac bbba 133a f13d
00000170: c1b7 233f 3995 6a3e 273b 28be 1134 aa3c
00000180: d75e a9be 1f3c 343e 6baf 0bbe 12a0 463d
00000190: 58d9 043e 0d1a 34bf cce6 fe3e 27be 43bf
000001a0: 38b9 86be c31d 45be 4987 d2be 1640 4fbd
000001b0: 0d76 aebe 108c 5abe 1661 42bd 622a 3c3e
000001c0: 5aad 38bd 3742 b2bd 8423 5ebe 3f64 64bb
000001d0: a245 61be 9edc 99be b1cd 283d 28f0 49bd
000001e0: 239c dabd f240 183b 2fa9 ac3d bc6c c3bd
000001f0: 3c40 b43e 05fa 683d f55e 1abe 44b9 833e
00000200: e7c1 e2bc bc2c 3cbd 462d ba3e c7e4 0d3f
00000210: bd45 eb3d e649 a53e 12d6 283e 9a52 e1bd
00000220: 85f4 e23e 6570 38be 7567 94be b4b7 02be
00000230: 875c c3bd 6fda 413f 9d1b a1bd f26c 5bbd
00000240: 0e44 633e f1eb 03be 5b40 333d 8824 893c
00000250: 5376 c63e f558 a9be c877 13be fab8 f9bd
00000260: ebd1 183e 963f b83e 6311 0cbe 684b ea3d
00000270: 6a87 233e b82a 88bd 75ce 2c3f c5bb 433e
00000280: be96 18be 03f6 993c 7d7a bc3e 0427 97be
00000290: 6be9 8dbd 2ff0 e0bc 3225 1bbe 5a88 04be
000002a0: 8683 073e 08a0 fe3d fa48 3f3d 6808 2fbe
000002b0: 62c6 703e fadb b23d fab3 26be 75c5 db3e
000002c0: da56 413f a315 763c ae68 bc3d 493e a43b
000002d0: ede0 99bc 1eca 0bbd 27e3 aebd a136 8a3e
000002e0: d32a 123d 0f5e 84bd 7a14 9abc 459c b53d
000002f0: 0ae9 e43d 150c 3ebd c6ce 3b3e 838d 3abe
00000300: 5183 cfbd 7e50 6a3d 99c4 793d d20c b13d
00000310: bb52 debd 73cc 39bd e172 333e a67d 3f3f
-0.009777596 -0.19228013 -0.09203258 0.07503186 0.3193683 -0.056496684 -0.15127262 -0.120049804
0.1394259 0.27279595 0.18415938 0.11831009 -0.21707846 -0.29978916 -0.1056938 -0.21189961
-0.6305028 -0.060528774 -0.11080002 0.37137344 0.02503243 0.51262814 0.18150578 0.23811552
0.2766803 -0.2675655 -0.2201608 -0.26204583 0.52116024 -0.044357877 0.30768883 0.6902587
0.105469204 0.7647939 0.13022758 0.28332207 0.2013343 0.37117112 0.287259 0.2867462
-0.09363425 -0.17887636 -0.019598473 -0.073726974 0.034551162 0.011521947 -0.028923932 0.058129575
-0.127763 -0.14777422 0.25274944 0.7648788 0.2414274 0.11780612 0.211256 0.34102455
0.06251059 0.5414856 0.113249585 0.29164597 0.12662497 0.7644212 -0.12598595 0.01264869
-0.07044155 -0.14849648 -0.057220995 0.112906724 0.24904875 0.08819056 0.09483156 0.38779408
0.022216422 -0.043389864 -0.13874064 -0.04562743 -0.16108309 0.07488006 0.33484283 -0.02832544
0.17966776 0.6780017 0.3169744 0.76483434 0.13450414 0.12856367 0.04806806 -0.14887217
0.11422352 0.15890878 -0.0014318267 0.11778655 0.6395226 0.22908486 -0.16428815 0.02077678
-0.3308017 0.1760106 -0.13641135 0.0484925 0.12973535 -0.7035225 0.4978546 -0.76462024
-0.26313186 -0.19249634 -0.4111884 -0.050598226 -0.3407444 -0.21342492 -0.04745587 0.18375543
-0.045087196 -0.08704036 -0.21693236 -0.003484979 -0.21999219 -0.3005113 0.041211788 -0.049301296
-0.10674312 0.002323207 0.08430707 -0.09542224 0.35205257 0.056879062 -0.15075286 0.25727284
-0.02768035 -0.0459411 0.36362666 0.5542721 0.11487911 0.32282943 0.16487911 -0.11002083
0.4432718 -0.18011625 -0.2898518 -0.1276539 -0.095391326 0.7572393 -0.07866595 -0.053570695
0.2219393 -0.12882973 0.043762546 0.016741052 0.3876215 -0.3307568 -0.14401162 -0.121934846
0.14923827 0.35986012 -0.13678508 0.11440164 0.15969625 -0.06648773 0.6750253 0.19114597
-0.14901254 0.018794065 0.368122 -0.29521954 -0.069292866 -0.027458278 -0.15150908 -0.12942639
0.13233766 0.12432867 0.046700455 -0.1709305 0.23513177 0.087333634 -0.16279593 0.42924085
0.7552315 0.015019807 0.091996536 0.005012308 -0.01878401 -0.0341283 -0.085394196 0.26994804
0.03568537 -0.06463253 -0.018808592 0.08867697 0.11177261 -0.04639824 0.18340597 -0.18218045
-0.101324685 0.05720567 0.060978506 0.086450234 -0.10855623 -0.045360994 0.17524292 0.748011

qlstm.layers.0.0.cell_gate_params.hidden_weight.weight f4 [20, 20]
00000000: 25ea 0fbf fe75 07bd 0292 e13e 3a82 373e
00000010: aabb f03d e8b6 42be afb6 c13e 05e0 3cbe
00000020: 354e 883d a3af 4e3e 86cb 68be 0759 b93e
00000030: 6cd6 aebe 4ce9 723e b2ca 37be 0593 e5bd
00000040: fc21 b53d 6360 d53d 5a2f e4be 8498 40be
00000050: f499 143c 5e5f 7cbe 8d38 b73e 6616 f83e
00000060: 52bb a83d 0bdd c7bd 1d6c 453e c80a 90bd
00000070: 2a2f 0f3f 10b6 a03e 893c f9bd 9e90 173e
00000080: 8cc9 11be f21a 1e3e c9db af3d 172f 3f3e
00000090: 89bb 433e 80da dbbb f1fa a23e fc61 9b3d
000000a0: 0890 a93d 55a6 dabe e554 233e 24ec a33e
000000b0: 5123 f4bd 87c0 603e 0e30 d63d c5cb 2abc
000000c0: 1d17 cd3e dde8 253c 9e47 b3bd c2c4 a9be
000000d0: 872e d83e fab1 563e f24a 19bd b305 77bc
000000e0: 51e0 aebe 1b31 a3bb 6b65 313e 637f cb3e
000000f0: 2d00 0fbe e4b3 b5bd 3038 10bf 2ec7 43bf
00000100: e686 fdbe 0cc0 72be 086c 123e fa12 87be
00000110: 36be 43bf bf5b da3e 2336 283f 46be b43d
00000120: 68de c13e 408d 0a3e ad9d 1bbf e3e5 943e
00000130: e423 43bf ee3f 873c 5e30 25be 291f 273c
00000140: d837 5abe 05d6 2dbe f1a8 b83e ead4 4e3e
00000150: 4822 cd3e 8aad d43e 040c b03e e95c 013d
00000160: 62c7 273f 8141 f63d 0352 01bf 5ec8 973d
00000170: 28ba 1b3e 16d7 113f e0aa e93e 9080 ce3e
00000180: b84f e43e 69d2 043f 749a edbe 3859 6a3d
00000190: 62ec a1be 51ea febe 542c e7bd 68c1 0fbf
000001a0: ba30 32bf bba4 20be 5165 1b3e 2714 e5bd
000001b0: 13be 0abf a714 8e3d 0561 c73e 6c0a a73b
000001c0: 9645 f03e 0216 2a3f 6af1 92bd a9cb 1b3f
000001d0: 4a7a f8be 9364 cd3e d1a8 81be 6fb5 a6bd
000001e0: 4161 6fbe 0b13 8dba 762a 8fbe cf52 72bd
000001f0: b976 8ebe bf9a 353e 3bd5 d8bd eb3e 2c3e
00000200: 2fe5 2d3e c6b3 06be 5c89 78be 6c82 d4bc
00000210: 06d9 413e 764d 9a3e fc2a 98bd 7987 8a3e
00000220: c642 36be 8f43 03be 71b3 433e 111d f7bd
00000230: e00d 823e 0220 3cbe 7041 5bbe fc8e af3d
00000240: beea e3be fcb2 fbbe e1bb 1c3e 8cb1 7abd
00000250: 5929 9dbe 88a9 8bbd 35c4 85bd 794c 21be
00000260: 1c0c 56be 3f92 92bd 072e 60be cdc3 fc3c
00000270: dce6 43bf c126 c03d f692 053f 0023 6a3e
00000280: c634 ff3d a4ce 743d b0e7 9e3e 3f65 a53d
00000290: 69a1 873e 65c1 21b7 9fdb 3a3e 79fa db3d
000002a0: 0a15 dcbd 889f 7e3e 1d2a 003e 6cba f6bd
000002b0: 130d 57bd 195b 73bb 48b1 453d 69aa c9bc
000002c0: 4e76 38be 1cae 7a3e 9240 d33d 75b8 243e
000002d0: eb5b abbe 81c5 223e 6f74 31be a4ce 9abe
000002e0: e2dc 2b3d 86e7 02bf 9110 d93d a58c afbe
000002f0: 5adf 4bbe 163f 0bbe 3b1e 8dbd 2f42 b13e
00000300: 081e 6dbe 518d 96be 2f08 04be b07b c53c
00000310: 570d 30be 00c8 4ebe 8a8d eabd 3860 bbbe
00000320: 72dd a8be 7975 5dbe 5426 423e 75c7 07be
00000330: 6663 c7bd 72d1 5e3e 807c e63d ef7f 60be
00000340: 4757 163d 2117 bdbd 2885 d7bd 5b36 c5be
00000350: 5c0b e53e a1b9 db3c d466 8c3e 174d 90bd
00000360: b9d8 a4be d78d 103e 9656 0e3e a441 e3be
00000370: 6e7b 95b9 2993 453d 5fef eabd 40a6 68be
00000380: 71dd 97be a177 05be cce1 0d3f b7e0 ebbc
00000390: 95c2 c3bd a634 853e be1e 87be 8063 b53d
000003a0: 6de0 8cbd e48d e3bd 3f31 19be e4a9 5b3e
000003b0: 2b05 88be ce38 b93d a6b6 63bd 874a 123e
000003c0: 6339 eabd e2ec 8a3e 7023 87be 591f c7bd
000003d0: 469d 1a3d fae2 2ebe f121 d23c 99ad 03bf
000003e0: 1682 99be 8958 cebd e812 14be d284 233e
000003f0: ad42 b5be dd51 393e ab40 d3bc 5a25 8bbe
-0.5621665 -0.03307151 0.44056708 0.17920771 0.11754544 -0.19015086 0.3783469 -0.18444832
0.06655542 0.20184188 -0.22733888 0.36200735 -0.34147966 0.23721808 -0.17948416 -0.112096824
0.08844373 0.10418775 -0.44567376 -0.1880818 0.009069908 -0.24645755 0.35785332 0.4845459
0.082388535 -0.097589575 0.19279523 -0.07033306 0.5593134 0.31388903 -0.12169749 0.14801261
-0.1423704 0.15439966 0.085868426 0.18670307 0.19114508 -0.006709397 0.31832078 0.075870484
0.08279425 -0.42705026 0.15950353 0.32016098 -0.119207986 0.21948443 0.104583845 -0.010424559
0.40056697 0.01012632 -0.08753894 -0.33157927 0.42222998 0.2096633 -0.03742499 -0.015077042
-0.34155515 -0.004980219 0.17323844 0.39745626 -0.13964911 -0.08872202 -0.56335735 -0.764758
-0.49516982 -0.23706073 0.14299023 -0.26381665 -0.76462114 0.42648122 0.65707606 0.08825354
0.37864995 0.13530445 -0.6078747 0.2908164 -0.7622664 0.016509976 -0.16131732 0.0102003
-0.21310365 -0.16976173 0.36066392 0.20198408 0.40065217 0.4153865 0.34384167 0.031582747
0.6553861 0.12024213 -0.50515765 0.07411264 0.15207732 0.5696882 0.4563818 0.4033246
0.4459207 0.5188356 -0.464069 0.057213992 -0.31625658 -0.49788144 -0.11287752 -0.5615449
-0.696056 -0.1568784 0.15175368 -0.111854844 -0.5419628 0.06937533 0.38941208 0.005097678
0.4692809 0.6643983 -0.07174952 0.60857636 -0.485308 0.40115795 -0.2532411 -0.081400745
-0.23376943 -0.0010763122 -0.27962083 -0.059161004 -0.27824953 0.17734812 -0.105875455 0.16820876
0.16981958 -0.13154516 -0.24271148 -0.025941096 0.18930444 0.30137223 -0.074300736 0.27056482
-0.1779891 -0.1281874 0.1911142 -0.12066091 0.2540121 -0.18371585 -0.21411681 0.08572194
-0.44515032 -0.49159992 0.15306045 -0.06120448 -0.30695608 -0.06819445 -0.06531564 -0.15751828
-0.20903057 -0.071568005 -0.21892558 0.030855084 -0.7652414 0.09382392 0.5217737 0.22864914
0.124612376 0.05976738 0.3103614 0.08075952 0.26490334 -9.641376e-06 0.18247841 0.10741133
-0.107462004 0.24865544 0.12516065 -0.12047276 -0.052502703 -0.0037133156 0.04826477 -0.02461739
-0.1801388 0.2448048 0.1031505 0.1608599 -0.33468565 0.15895654 -0.17329572 -0.3023578
0.041958697 -0.51134527 0.10598863 -0.3428699 -0.1990942 -0.13598284 -0.06890532 0.34620807
-0.23155987 -0.2940469 -0.12893747 0.02410683 -0.17192589 -0.20193481 -0.11452778 -0.36596847
-0.3298145 -0.21626844 0.18959934 -0.1325968 -0.097357556 0.21759585 0.11254215 -0.21923803
0.036704328 -0.09232927 -0.105234444 -0.38518032 0.4473523 0.026821913 0.27422202 -0.07045954
-0.32196596 0.14116608 0.13900217 -0.44386017 -0.00028511457 0.048236046 -0.11471438 -0.2271967
-0.29661134 -0.13033916 0.55422664 -0.028793676 -0.09558598 0.2601673 -0.26390642 0.08856869
-0.06878743 -0.11111048 -0.14960192 0.21451527 -0.26566443 0.09044038 -0.05559411 0.14286242
-0.11436727 0.27133852 -0.26394224 -0.09722776 0.037747644 -0.17078772 0.02565095 -0.51436764
-0.2998206 -0.100754805 -0.14460337 0.15968636 -0.35402432 0.18097635 -0.025787672 -0.27176934

qlstm.layers.0.0.output_gate_params.bias f4 [20]
00000000: 3b6c 4a3d fd26 9d3e 3e93 c3bd a189 f23f
00000010: 3acf 6cbe 7659 583e 0a4f 523e 96bb 063b
00000020: c691 de3d 9e69 003e 6293 913e 545f 883e
00000030: aa58 b73d 52a8 2b3e bb54 153e d1b2 f6bd
00000040: 6df0 ca3e d172 61bd fae9 1f3d 86b0 aabd
0.049419623 0.30693808 -0.095495686 1.8948251 -0.23125926 0.21127877 0.20537964 0.0020558587
0.10867648 0.1254029 0.28432757 0.2663523 0.08952458 0.16763428 0.14583103 -0.12045825
0.39636555 -0.055041138 0.039041497 -0.083344504

qlstm.layers.0.0.output_gate_params.input_weight.weight f4 [20, 10]
00000000: 0e37 34bd c826 fabd c1ca c43c 31e2 843e
00000010: 052f 88be 1e92 b13e f40f 8c39 f240 f4bc
00000020: 0efa 8e3e c12e 023c 3a47 a4be 68c7 9c3e
00000030: afc4 083e 0174 153e 832d 4ebe 054c c83d
00000040: e836 c83e 5fc1 85bd 31bf 873d f51a 663e
00000050: 7b12 1a3e 8184 a03e 57cd 4a3e 1316 5a3d
00000060: eb2d 01be 5a45 40bc ecbd dabe 6d8c 99be
00000070: 6819 2bbe 753a fdbd 27a7 153e d0b2 7c3f
00000080: 974f 2f3e a804 983f 32f9 173f c654 c83e
00000090: e4b0 863e b4f1 b03e 98d6 f53e d95f 733e
000000a0: 86c9 553e c9c1 a03d 7954 463e 29a0 65bd
000000b0: f5d7 5c3e dd0c f33e f6e5 38be 9cb1 0abe
000000c0: a489 b43d 3ce4 0fbe 6d67 2a3e 245b 10be
000000d0: bfd5 9abd 6230 dabe f991 053f 657e 103c
000000e0: 1641 74be 2982 053e d415 2a3e 9d85 383e
000000f0: 8763 923e ccc4 ab3e a61c 82bd e2d6 1b3e
00000100: f7b8 143d 1961 613e 6d19 03bf 6025 0a3d
00000110: c69f 96be 90cb b93d c4e3 6e3e fdef 2ebc
00000120: e73f cc3d 90ea cabc a35b 9e3e e412 873d
00000130: f7f7 7d3f ef00 223f 4196 a33d 00bb 9fbd
00000140: a583 8bbe 576a 5f3e 2579 c73d 72b6 ca3c
00000150: eb52 96be e622 e0be abfd 2bbe 25ca 09be
00000160: 77a6 17be 7482 a5bd 1c49 e63d 0054 863e
00000170: 0e44 803e 06c6 6d3e 7936 bfbe 1a61 2a3e
00000180: dab5 d33e ea38 7e3d ca8f dbbd 435e cb3c
00000190: ec05 07bc ff14 753e b33d 9f3d a36a 8c3e
000001a0: b495 bfbd 4b2c 673d 1d58 29be b7d4 9b3b
000001b0: 8799 0cbf c11d 02be fcfa 083f 7865 643e
000001c0: 761f eb3d 84fc 8cbe c3d7 003e 03cf 5b3e
000001d0: 9faa d0be 12e1 cd3e a4df 463f 1556 143f
000001e0: abd9 fa3d 549f acbe 1f24 e43e 3eab 983e
000001f0: d077 443e 0762 973d d701 d83e 0b3c 763d
00000200: 7510 0a3f 817b 5e3e 177b 483e 4957 463e
00000210: 6b83 1a3f 39b6 e63d 95e3 12be a01b 89bd
00000220: 68e6 203d b275 be3c f024 8fbc 6012 dd39
00000230: 0deb 813d 4c23 a33e 0f60 c93c f81f 63be
00000240: 8b0f f4bd 58b3 a9be 7b37 86bd d3e3 5b3e
00000250: 94d2 763d 5f1a bebe 4e33 e53d 22c6 023f
00000260: 49d8 8f3e ab9f b53d af37 54be 2da5 e43d
00000270: db30 08bd e857 663e 48d6 433e 3268 513d
00000280: 679d 9c3e 53ed f2bd 3bab fe3e e9b5 49be
00000290: f69c 8f3f dd5b 473e 9cc8 0ebe a67d 243e
000002a0: 46db 66be 2cec 29be 3a79 a2bb 1408 24be
000002b0: 5e22 7ebd bab9 323e 2aa5 39be d0c1 80be
000002c0: 3394 ac3f 4d12 f8bc ad7a e83d df66 a03e
000002d0: dfc8 4b3d a11f 253e 3f75 b53d 9c81 993d
000002e0: 885e 303e 3ef8 843e 2281 b03e 4f8b 1b3f
000002f0: ec13 92bd 63a8 a93e e2ea 593e d2b1 99bd
00000300: 1a7c b9bd b32f 32bd 4d11 3d3e 670b 01bd
00000310: d1f7 ee3e 432f 4a3f cfae 813c a9ea abbd
-0.043997817 -0.12214428 0.024022462 0.2595382 -0.26598373 0.3468179 0.00026714767 -0.029816125
0.27925152 0.007945717 -0.32085592 0.30620885 0.13356279 0.14595033 -0.20134549 0.097801246
0.3910439 -0.06531023 0.06628264 0.22471221 0.15046112 0.31351092 0.19804893 0.053243708
-0.12615173 -0.011735285 -0.42723024 -0.2998995 -0.1670891 -0.123646654 0.14614545 0.98710346
0.17120205 1.1876421 0.59364617 0.39127177 0.26306832 0.34559405 0.48015285 0.23767032
0.20877656 0.078494616 0.19368161 -0.056060944 0.21566756 0.4747075 -0.18056473 -0.13544315
0.08815315 -0.14051908 0.16641016 -0.14097267 -0.075603 -0.42615038 0.5217586 0.008819197
-0.23852953 0.13037933 0.1660989 0.1801972 0.28591558 0.33548582 -0.063531205 0.1521869
0.03630921 0.22009696 -0.5121067 0.03372705 -0.29418772 0.090720296 0.23329073 -0.010677335
0.09973126 -0.024770051 0.30929288 0.065954 0.9920649 0.63282675 0.07987643 -0.07799339
-0.27248874 0.21817909 0.09739903 0.0247452 -0.29360136 -0.43776625 -0.16795985 -0.13456018
-0.14809595 -0.080815226 0.11244413 0.26235962 0.25051922 0.23220071 -0.37346247 0.16638604
0.4134968 0.062065996 -0.10720785 0.02482522 -0.008241158 0.2393379 0.0777544 0.27425107
-0.093547255 0.056438725 -0.16537519 0.004755582 -0.54921764 -0.12706663 0.5350797 0.22304332
0.1148061 -0.27536404 0.12582307 0.21465687 -0.40755174 0.40210778 0.77685 0.5794385
0.12248548 -0.33715308 0.44558808 0.29818147 0.1918633 0.07391744 0.42188904 0.060115855
0.5393136 0.217268 0.19578205 0.19369234 0.6035678 0.11265225 -0.14344628 -0.06694722
0.039282233 0.02324948 -0.017473668 0.00042166095 0.063436605 0.31862867 0.024581937 -0.22180164
-0.11917027 -0.3314464 -0.06553551 0.21473627 0.060259417 -0.37129495 0.11191426 0.51083577
0.280947 0.08868345 -0.20724367 0.11164317 -0.033249717 0.22494471 0.1912471 0.05112476
0.30588838 -0.11861672 0.49740013 -0.196983 1.1219776 0.19468637 -0.13943714 0.16063556
-0.22544584 -0.16593999 -0.004958299 -0.16018707 -0.062044494 0.17453662 -0.18129411 -0.25147867
1.3482727 -0.030282164 0.113515235 0.31328484 0.049752112 0.16125347 0.088602535 0.07495424
0.17223561 0.25970644 0.3447352 0.60759443 -0.07132706 0.3313628 0.21281007 -0.0750462
-0.090568736 -0.04350252 0.18463631 -0.031505015 0.46673444 0.78978366 0.015830426 -0.08394367

qlstm.layers.0.0.output_gate_params.hidden_weight.weight f4 [20, 20]
00000000: 4e46 bd3d 9a73 69be 44d2 123f cff2 ae3e
00000010: 7f2a 87bd 523e 0abc d4fe a63d 4232 2e3c
00000020: 842e 473f d61a 983e dcfa bebe eadb 513d
00000030: b930 a03e 7154 b93e 96ed 043f c41a c63e
00000040: beee c1be 59e4 9a3e dd4f 503e 7fdf 983d
00000050: d21d f9bd 9858 5ebe 1145 be3e 7192 603e
00000060: 5064 a73e afac 59be eb2a 673e fe2c 5fbe
00000070: 79df 8e3d 72ae 9e3e 8a17 b5be 4b48 8e3e
00000080: 8eb9 0e3d 19cb 79bc a945 853e 0b40 3a3e
00000090: 554c d23e 9dbd 03be 506e 65be a5b4 c0be
000000a0: cf54 abbd 37bb 10bc 916e 93bd 4523 14be
000000b0: 5642 bbbe 5514 efbd d36c 7f3e 2a26 f9bd
000000c0: ccd6 fcbd 6ff8 d13e 4540 e3be fbd0 b63d
000000d0: abe6 123e 1f02 843e d67a 1e3d 7bc9 843e
000000e0: 2f08 bbbe 95d7 093d b88c 90bd 479b 72bd
000000f0: ab53 323e 1d2b 36be 60bc 4c3d 0ffb 8c3e
00000100: 6c84 9dbe faa2 d93e 4e0e 063f 7cda 2b3e
00000110: ac08 6a3e 3873 8a3e 6ae1 79be f375 883d
00000120: c9d6 a23e 019b d13e f6c0 7a3e 6450 713d
00000130: b663 8bbe 5420 073e 9d3c 17be 9ad0 483e
00000140: 398e a73d 44bf 8cbe b6e3 113f 7799 573f
00000150: 6086 bbbe 82ef 153f df7d 2c3f 4f79 1c3f
00000160: 64d8 043f 683c 853b 9725 b3be 6000 69bd
00000170: 49a7 0f3f 9751 313f 1e67 e33e 5ed9 193f
00000180: ada6 383e 4d4f c83e 1c34 ecbe 319f 1d3f
00000190: 444a bfbe c73b 1fbe c6e7 123f 66a0 c13d
000001a0: 23b9 f83d 86ee 3cbe fc19 153e 7438 6f3d
000001b0: 979c ca3e 1d78 7e3e 5479 06bf 5aa5 c93d
000001c0: 2cdd 8bbc 7e6c 88bd 9736 eb3d fde2 9c3d
000001d0: 137d 39be 6f1f d3bd c559 c7be 5bae 22be
000001e0: d0f7 603e b6a1 88be 27b6 b83d 5629 783d
000001f0: 6ea8 8abe 0e3c 1f3f 6965 b53e 6099 5ebe
00000200: 3517 4c3d e131 ae3e 4d43 aabe 6858 023f
00000210: 779c 6d3e 0cf0 853e 4899 8e3b 3e23 59be
00000220: 6047 8abe 3461 363e 719e 6abe 88cb 093f
00000230: 35f1 18bf 528c 723c 0559 94bd 40ce 403e
00000240: 4e88 583e 4a8d b6be 04ac 77be 0b05 b13d
00000250: 7f30 813e 081a 9bbd 974b 433e 5d24 e43d
00000260: c22f b9bd 7016 be3e 415a 353c 97c8 4ebe
00000270: 4fa3 6fbd d213 c0bb a754 39be 0f8f afbe
00000280: c934 023e aae4 d83d 7705 533e 379a bc3e
00000290: 5cc3 46bc 04b3 ad3c 7866 00be 2c1b ab3e
000002a0: bfc8 e93e 903a b43d 868e c93d 50ab be3e
000002b0: dad8 17be 91c1 433e 3393 813e 171a 163e
000002c0: 2cca 0a3f 73e3 fabd 29f2 0dbe 3ebc 97bd
000002d0: 1fbb a23e 117f 04bc 91df 2dbe 3aac f43d
000002e0: ce74 1ebf c3f0 543e 2d9d 8f3e fe03 ba3e
000002f0: 1d97 81be cace 82bd ebf8 e53d 474d acbd
00000300: 0f9f 74bc 39c4 663e c7e8 c0bd 7388 4b3e
00000310: 5d46 1c3d 15a6 913e 6c39 d33d 32e1 743e
00000320: 85b7 1ebe 5f69 8bbe 99db 29be 0404 6ebd
00000330: 3523 c5bd 6ceb d1bd 4334 103d 3477 073e
00000340: e98f 9fbd 65bc 933d 6b93 13bd bd1f 0cbe
00000350: e5ec 833e a24a 433c e6b9 2dbd 5262 863e
00000360: f9ea 39be cb04 0f3e bcb7 483e 0bc2 3cbe
00000370: 2593 cdbe 7c92 c7be 74ed a93e e7a2 5f3e
00000380: 9ea8 eabe 4d1f d63e d987 133f 616b ec3e
00000390: 46c4 a63d 95db 3c3f 982a 25bf 6fa8 e23c
000003a0: 7f55 333f 27ba 053f 05c2 2c3f 9d7e 2d3f
000003b0: 2721 fcbe b569 153f f53f a4bd 8af9 b13e
000003c0: db4f e63d 2650 063e 0226 533e c4de fbbd
000003d0: 09d2 a4be 9f3b 0dbe 0e6e 113f 6d40 15be
000003e0: e29f 633d 6b5f 293f a2ea e13d 3caf 973e
000003f0: 4d6b 21bd 654e 5d3e 88b7 9b3d 6b3c a6be
0.09241925 -0.22798005 0.5735209 0.34169623 -0.06599902 -0.00843771 0.08154073 0.0106321
0.7780535 0.29707974 -0.37300766 0.051235117 0.31287172 0.36197236 0.5192503 0.38692296
-0.37877458 0.3025234 0.20342965 0.074645035 -0.12163891 -0.21713483 0.37162068 0.21930863
0.3269372 -0.2125728 0.22574966 -0.21794507 0.06976218 0.30992466 -0.3536952 0.2778953
0.034844927 -0.015246176 0.2602971 0.18188493 0.41073862 -0.128653 -0.22405362 -0.3763782
-0.08365785 -0.008833698 -0.07198823 -0.1446658 -0.36574048 -0.116738 0.24943857 -0.12165482
-0.12345657 0.41009852 -0.4438497 0.089265786 0.14345805 0.25782868 0.038691364 0.25934967
-0.3652968 0.03365286 -0.0705809 -0.059230115 0.1741473 -0.17789884 0.049984336 0.27535293
-0.30765092 0.42507154 0.5236558 0.16782564 0.2285487 0.2704103 -0.24402395 0.06663122
0.31804493 0.4093857 0.24487671 0.058914557 -0.2722451 0.13195926 -0.14769216 0.19610825
0.08181424 -0.27489674 0.56988084 0.84218544 -0.36625957 0.58568585 0.67379564 0.611226
0.51892686 0.004066039 -0.34989616 -0.056885123 0.5611463 0.6926512 0.4441461 0.600973
0.18032332 0.39123002 -0.46133506 0.6157103 -0.37361348 -0.15550147 0.5738491 0.09454422
0.12144687 -0.18450364 0.14560694 0.058403447 0.39572594 0.24850507 -0.5252888 0.098459914
-0.017073236 -0.06661318 0.114850216 0.07660482 -0.18114118 -0.1030873 -0.38935676 -0.15886824
0.21969533 -0.26685876 0.09019118 0.060586296 -0.27081627 0.6220101 0.35428932 -0.21738195
0.04982682 0.3402243 -0.3325447 0.5091615 0.23204218 0.26159704 0.0043517686 -0.2120485
-0.2700758 0.17810518 -0.22912003 0.5382619 -0.5974305 0.014803963 -0.07243542 0.18828678
0.21145746 -0.3565467 -0.24186713 0.0864354 0.25232312 -0.075733244 0.19071804 0.11139748
-0.09042312 0.37126493 0.0110688815 -0.20193706 -0.058505353 -0.0058617378 -0.18098699 -0.34288833
0.12715448 0.10590489 0.20607553 0.36836407 -0.012131538 0.021203525 -0.12539089 0.33419168
0.4566097 0.088002324 0.09841637 0.37240076 -0.14828816 0.19116808 0.25307617 0.1465839
0.5421474 -0.12250414 -0.13861908 -0.07408951 0.31783387 -0.008086936 -0.16979815 0.11946912
-0.6189698 0.20794968 0.28049603 0.3633117 -0.25310603 -0.06387098 0.11229118 -0.08413177
-0.014930501 0.2253579 -0.09419399 0.1987627 0.03815304 0.28447023 0.10313687 0.2391403
-0.15499695 -0.2722883 -0.16587676 -0.0581093 -0.09625856 -0.10249981 0.03520609 0.13229066
-0.077911206 0.07213668 -0.03602926 -0.13683982 0.25766674 0.011919649 -0.042413615 0.26246887
-0.18156041 0.13966672 0.19601339 -0.18433397 -0.40151325 -0.38978946 0.33188975 0.21839486
-0.4583177 0.41820756 0.5762916 0.46175674 0.08142905 0.73772556 -0.6451812 0.027668206
0.7005233 0.5223717 0.6748355 0.6777132 -0.49244043 0.5836442 -0.08020011 0.34760696
0.112457 0.13116512 0.20619968 -0.122983485 -0.32191494 -0.13792275 0.56808555 -0.14575358
0.055572398 0.6616122 0.11031081 0.2962588 -0.03940897 0.21611936 0.07603365 -0.3246797
