models/qcnn_lstm_real_c0.5/subcnn_debug/subcnn_finn_streamlined12.onnx (onnx, 34942 bytes, 7 tensors)

Add_1_param0 f4 [1, 32, 1, 1]
00000000: ba7d 8537 c598 7436 670b 8c38 5747 0338
00000010: c184 b937 db08 e535 ccd3 8337 60bb 9336
00000020: 4fca 4735 85b6 28b6 5b57 5bb5 614f f037
00000030: 8309 8737 a66f be36 abe7 0437 cd61 56b5
00000040: d55c dd36 5755 8d35 ad86 1535 2014 3e35
00000050: 8759 42b6 ef36 cf36 9df0 6bb3 daeb f7b5
00000060: 88ed 2f35 b626 8236 d445 98b6 523f edb4
00000070: 6fc0 e5b6 2ce8 d336 ae8e 24b6 22dd 0ab5
1.5913382e-05 3.6447757e-06 6.677844e-05 3.1299274e-05 2.2115537e-05 1.7064407e-06 1.5715043e-05 4.4027547e-06
7.4427675e-07 -2.5140191e-06 -8.1710976e-07 2.8647193e-05 1.6097683e-05 5.675439e-06 7.9217525e-06 -7.986353e-07
6.5971203e-06 1.0530156e-06 5.5702805e-07 7.08098e-07 -2.8960364e-06 6.175476e-06 -5.4934038e-08 -1.8471576e-06
6.5538234e-07 3.8788085e-06 -4.538082e-06 -4.4190762e-07 -6.847134e-06 6.3153184e-06 -2.4520955e-06 -5.1730797e-07

Conv_0_param0 f4 [32, 1, 3, 1]
00000000: 0000 e0c0 0000 a040 0000 0040 0000 e0c0
00000010: 0000 8040 0000 a040 0000 a040 0000 0000
00000020: 0000 a0c0 0000 80c0 0000 40c0 0000 e040
00000030: 0000 8040 0000 0000 0000 80c0 0000 e040
00000040: 0000 8040 0000 e0c0 0000 a040 0000 0040
00000050: 0000 c0c0 0000 e0c0 0000 a040 0000 8040
00000060: 0000 a0c0 0000 80bf 0000 0040 0000 0000
00000070: 0000 c0c0 0000 8040 0000 40c0 0000 4040
00000080: 0000 c040 0000 e0c0 0000 803f 0000 c040
00000090: 0000 803f 0000 a040 0000 e0c0 0000 4040
000000a0: 0000 803f 0000 e0c0 0000 e0c0 0000 0000
000000b0: 0000 a040 0000 80bf 0000 803f 0000 e0c0
000000c0: 0000 803f 0000 e0c0 0000 8040 0000 80bf
000000d0: 0000 c040 0000 40c0 0000 e040 0000 0000
000000e0: 0000 40c0 0000 00c0 0000 4040 0000 4040
000000f0: 0000 e040 0000 00c0 0000 40c0 0000 8040
00000100: 0000 e040 0000 e0c0 0000 a0c0 0000 e040
00000110: 0000 a0c0 0000 c040 0000 c0c0 0000 4040
00000120: 0000 e0c0 0000 a040 0000 8040 0000 c040
00000130: 0000 0040 0000 c0c0 0000 00c0 0000 e040
00000140: 0000 e0c0 0000 0040 0000 80bf 0000 e040
00000150: 0000 00c0 0000 e0c0 0000 c040 0000 4040
00000160: 0000 e0c0 0000 803f 0000 40c0 0000 803f
00000170: 0000 c040 0000 8040 0000 80bf 0000 c0c0
-7.0 5.0 2.0 -7.0 4.0 5.0 5.0 0.0
-5.0 -4.0 -3.0 7.0 4.0 0.0 -4.0 7.0
4.0 -7.0 5.0 2.0 -6.0 -7.0 5.0 4.0
-5.0 -1.0 2.0 0.0 -6.0 4.0 -3.0 3.0
6.0 -7.0 1.0 6.0 1.0 5.0 -7.0 3.0
1.0 -7.0 -7.0 0.0 5.0 -1.0 1.0 -7.0
1.0 -7.0 4.0 -1.0 6.0 -3.0 7.0 0.0
-3.0 -2.0 3.0 3.0 7.0 -2.0 -3.0 4.0
7.0 -7.0 -5.0 7.0 -5.0 6.0 -6.0 3.0
-7.0 5.0 4.0 6.0 2.0 -6.0 -2.0 7.0
-7.0 2.0 -1.0 7.0 -2.0 -7.0 6.0 3.0
-7.0 1.0 -3.0 1.0 6.0 4.0 -1.0 -6.0

Conv_1_param0 f4 [64, 32, 3, 1]
00000000: 0000 0000 0000 0040 0000 00c0 0000 80bf
00000010: 0000 80bf 0000 80bf 0000 00c0 0000 00c0
00000020: 0000 40c0 0000 8040 0000 80bf 0000 00c0
00000030: 0000 0000 0000 0040 0000 0000 0000 00c0
00000040: 0000 803f 0000 a040 0000 00c0 0000 80bf
00000050: 0000 00c0 0000 8040 0000 0000 0000 80bf
00000060: 0000 80bf 0000 80c0 0000 00c0 0000 803f
00000070: 0000 0040 0000 00c0 0000 0040 0000 80bf
00000080: 0000 00c0 0000 803f 0000 0000 0000 00c0
00000090: 0000 803f 0000 00c0 0000 00c0 0000 803f
000000a0: 0000 00c0 0000 80c0 0000 80c0 0000 80bf
000000b0: 0000 0000 0000 0000 0000 80bf 0000 40c0
000000c0: 0000 40c0 0000 80c0 0000 00c0 0000 4040
000000d0: 0000 a040 0000 80bf 0000 0040 0000 0040
000000e0: 0000 a040 0000 4040 0000 4040 0000 0000
000000f0: 0000 80bf 0000 0040 0000 c040 0000 0000
00000100: 0000 a040 0000 8040 0000 00c0 0000 80bf
00000110: 0000 00c0 0000 0040 0000 803f 0000 0040
00000120: 0000 0000 0000 0000 0000 0000 0000 40c0
00000130: 0000 8040 0000 a040 0000 80c0 0000 80c0
00000140: 0000 0000 0000 8040 0000 0040 0000 0000
00000150: 0000 80bf 0000 0040 0000 803f 0000 4040
00000160: 0000 803f 0000 40c0 0000 0040 0000 0000
00000170: 0000 00c0 0000 803f 0000 0000 0000 80bf
00000180: 0000 0000 0000 80bf 0000 803f 0000 803f
00000190: 0000 8040 0000 40c0 0000 80c0 0000 4040
000001a0: 0000 8040 0000 0000 0000 e040 0000 40c0
000001b0: 0000 00c0 0000 0040 0000 4040 0000 0000
000001c0: 0000 0000 0000 0000 0000 0000 0000 0000
000001d0: 0000 c040 0000 803f 0000 0040 0000 40c0
000001e0: 0000 803f 0000 803f 0000 80bf 0000 803f
000001f0: 0000 80bf 0000 0040 0000 0000 0000 4040
00000200: 0000 803f 0000 0000 0000 00c0 0000 e040
00000210: 0000 00c0 0000 a040 0000 80bf 0000 8040
00000220: 0000 0040 0000 80bf 0000 803f 0000 0000
00000230: 0000 80bf 0000 803f 0000 803f 0000 0040
00000240: 0000 0040 0000 0000 0000 0000 0000 803f
00000250: 0000 0000 0000 0000 0000 00c0 0000 803f
00000260: 0000 803f 0000 803f 0000 0000 0000 803f
00000270: 0000 80bf 0000 80bf 0000 803f 0000 0040
00000280: 0000 80bf 0000 4040 0000 80bf 0000 80bf
00000290: 0000 80bf 0000 0000 0000 0000 0000 80bf
000002a0: 0000 0040 0000 0040 0000 00c0 0000 0000
000002b0: 0000 00c0 0000 80bf 0000 803f 0000 803f
000002c0: 0000 80bf 0000 803f 0000 0000 0000 803f
000002d0: 0000 0000 0000 0000 0000 803f 0000 80bf
000002e0: 0000 80bf 0000 803f 0000 4040 0000 0000
000002f0: 0000 803f 0000 4040 0000 803f 0000 803f
00000300: 0000 0040 0000 0000 0000 40c0 0000 0040
00000310: 0000 803f 0000 0000 0000 80bf 0000 8040
00000320: 0000 0000 0000 80bf 0000 80bf 0000 00c0
00000330: 0000 803f 0000 0040 0000 80bf 0000 0040
00000340: 0000 e040 0000 8040 0000 00c0 0000 00c0
00000350: 0000 803f 0000 0040 0000 0000 0000 00c0
00000360: 0000 a0c0 0000 a0c0 0000 40c0 0000 80bf
00000370: 0000 00c0 0000 0000 0000 0000 0000 0000
00000380: 0000 0000 0000 0000 0000 803f 0000 00c0
00000390: 0000 0000 0000 803f 0000 00c0 0000 00c0
000003a0: 0000 00c0 0000 40c0 0000 0040 0000 0000
000003b0: 0000 80bf 0000 0000 0000 40c0 0000 0000
000003c0: 0000 0000 0000 80c0 0000 00c0 0000 0040
000003d0: 0000 803f 0000 0040 0000 4040 0000 8040
000003e0: 0000 8040 0000 0000 0000 80bf 0000 80bf
000003f0: 0000 4040 0000 4040 0000 c040 0000 0000
0.0 2.0 -2.0 -1.0 -1.0 -1.0 -2.0 -2.0
-3.0 4.0 -1.0 -2.0 0.0 2.0 0.0 -2.0
1.0 5.0 -2.0 -1.0 -2.0 4.0 0.0 -1.0
-1.0 -4.0 -2.0 1.0 2.0 -2.0 2.0 -1.0
-2.0 1.0 0.0 -2.0 1.0 -2.0 -2.0 1.0
-2.0 -4.0 -4.0 -1.0 0.0 0.0 -1.0 -3.0
-3.0 -4.0 -2.0 3.0 5.0 -1.0 2.0 2.0
5.0 3.0 3.0 0.0 -1.0 2.0 6.0 0.0
5.0 4.0 -2.0 -1.0 -2.0 2.0 1.0 2.0
0.0 0.0 0.0 -3.0 4.0 5.0 -4.0 -4.0
0.0 4.0 2.0 0.0 -1.0 2.0 1.0 3.0
1.0 -3.0 2.0 0.0 -2.0 1.0 0.0 -1.0
0.0 -1.0 1.0 1.0 4.0 -3.0 -4.0 3.0
4.0 0.0 7.0 -3.0 -2.0 2.0 3.0 0.0
0.0 0.0 0.0 0.0 6.0 1.0 2.0 -3.0
1.0 1.0 -1.0 1.0 -1.0 2.0 0.0 3.0
1.0 0.0 -2.0 7.0 -2.0 5.0 -1.0 4.0
2.0 -1.0 1.0 0.0 -1.0 1.0 1.0 2.0
2.0 0.0 0.0 1.0 0.0 0.0 -2.0 1.0
1.0 1.0 0.0 1.0 -1.0 -1.0 1.0 2.0
-1.0 3.0 -1.0 -1.0 -1.0 0.0 0.0 -1.0
2.0 2.0 -2.0 0.0 -2.0 -1.0 1.0 1.0
-1.0 1.0 0.0 1.0 0.0 0.0 1.0 -1.0
-1.0 1.0 3.0 0.0 1.0 3.0 1.0 1.0
2.0 0.0 -3.0 2.0 1.0 0.0 -1.0 4.0
0.0 -1.0 -1.0 -2.0 1.0 2.0 -1.0 2.0
7.0 4.0 -2.0 -2.0 1.0 2.0 0.0 -2.0
-5.0 -5.0 -3.0 -1.0 -2.0 0.0 0.0 0.0
0.0 0.0 1.0 -2.0 0.0 1.0 -2.0 -2.0
-2.0 -3.0 2.0 0.0 -1.0 0.0 -3.0 0.0
0.0 -4.0 -2.0 2.0 1.0 2.0 3.0 4.0
4.0 0.0 -1.0 -1.0 3.0 3.0 6.0 0.0

MultiThreshold_0_param0 f4 [1, 255]
00000000: e39a 29bf 5946 28bf cef1 26bf 449d 25bf
00000010: ba48 24bf 2ff4 22bf a59f 21bf 1b4b 20bf
00000020: 90f6 1ebf 06a2 1dbf 7c4d 1cbf f1f8 1abf
00000030: 67a4 19bf dd4f 18bf 53fb 16bf c8a6 15bf
00000040: 3e52 14bf b4fd 12bf 29a9 11bf 9f54 10bf
00000050: 1500 0fbf 8aab 0dbf 0057 0cbf 7602 0bbf
00000060: ebad 09bf 6159 08bf d704 07bf 4cb0 05bf
00000070: c25b 04bf 3807 03bf adb2 01bf 235e 00bf
00000080: 3213 febe 1d6a fbbe 08c1 f8be f417 f6be
00000090: df6e f3be cac5 f0be b61c eebe a173 ebbe
000000a0: 8cca e8be 7821 e6be 6378 e3be 4ecf e0be
000000b0: 3a26 debe 257d dbbe 11d4 d8be fc2a d6be
000000c0: e781 d3be d3d8 d0be be2f cebe a986 cbbe
000000d0: 95dd c8be 8034 c6be 6b8b c3be 57e2 c0be
000000e0: 4239 bebe 2d90 bbbe 19e7 b8be 043e b6be
000000f0: f094 b3be dbeb b0be c642 aebe b299 abbe
00000100: 9df0 a8be 8847 a6be 749e a3be 5ff5 a0be
00000110: 4a4c 9ebe 36a3 9bbe 21fa 98be 0d51 96be
00000120: f8a7 93be e3fe 90be cf55 8ebe baac 8bbe
00000130: a503 89be 915a 86be 7cb1 83be 6708 81be
00000140: a6be 7cbe 7c6c 77be 531a 72be 2ac8 6cbe
00000150: 0076 67be d723 62be aed1 5cbe 857f 57be
00000160: 5b2d 52be 32db 4cbe 0989 47be df36 42be
00000170: b6e4 3cbe 8d92 37be 6440 32be 3aee 2cbe
00000180: 119c 27be e849 22be bef7 1cbe 95a5 17be
00000190: 6c53 12be 4301 0dbe 19af 07be f05c 02be
000001a0: 8e15 fabd 3b71 efbd e8cc e4bd 9628 dabd
000001b0: 4384 cfbd f1df c4bd 9e3b babd 4c97 afbd
000001c0: f9f2 a4bd a64e 9abd 54aa 8fbd 0106 85bd
000001d0: 5ec3 74bd b87a 5fbd 1332 4abd 6ee9 34bd
000001e0: c9a0 1fbd 2458 0abd fe1e eabc b38d bfbc
000001f0: 69fc 94bc 3ed6 54bc 5267 ffbb 5244 2abb
00000200: 0046 2a3b 2968 ff3b a9d6 543c 9ffc 943c
00000210: e98d bf3c 331f ea3c 3f58 0a3d e4a0 1f3d
00000220: 89e9 343d 2e32 4a3d d37a 5f3d 78c3 743d
00000230: 0f06 853d 61aa 8f3d b44e 9a3d 06f3 a43d
00000240: 5997 af3d ac3b ba3d fedf c43d 5184 cf3d
00000250: a328 da3d f6cc e43d 4871 ef3d 9b15 fa3d
00000260: f75c 023e 20af 073e 4901 0d3e 7353 123e
00000270: 9ca5 173e c5f7 1c3e ee49 223e 189c 273e
00000280: 41ee 2c3e 6a40 323e 9492 373e bde4 3c3e
00000290: e636 423e 0f89 473e 39db 4c3e 622d 523e
000002a0: 8b7f 573e b5d1 5c3e de23 623e 0776 673e
000002b0: 30c8 6c3e 5a1a 723e 836c 773e acbe 7c3e
000002c0: 6b08 813e 7fb1 833e 945a 863e a903 893e
000002d0: bdac 8b3e d255 8e3e e7fe 903e fba7 933e
000002e0: 1051 963e 25fa 983e 39a3 9b3e 4e4c 9e3e
000002f0: 62f5 a03e 779e a33e 8c47 a63e a0f0 a83e
00000300: b599 ab3e ca42 ae3e deeb b03e f394 b33e
00000310: 083e b63e 1ce7 b83e 3190 bb3e 4539 be3e
00000320: 5ae2 c03e 6f8b c33e 8334 c63e 98dd c83e
00000330: ad86 cb3e c12f ce3e d6d8 d03e eb81 d33e
00000340: ff2a d63e 14d4 d83e 297d db3e 3d26 de3e
00000350: 52cf e03e 6678 e33e 7b21 e63e 90ca e83e
00000360: a473 eb3e b91c ee3e cec5 f03e e26e f33e
00000370: f717 f63e 0cc1 f83e 206a fb3e 3513 fe3e
00000380: 255e 003f afb2 013f 3907 033f c45b 043f
00000390: 4eb0 053f d804 073f 6359 083f edad 093f
000003a0: 7702 0b3f 0257 0c3f 8cab 0d3f 1600 0f3f
000003b0: a154 103f 2ba9 113f b5fd 123f 4052 143f
000003c0: caa6 153f 54fb 163f df4f 183f 69a4 193f
000003d0: f3f8 1a3f 7d4d 1c3f 08a2 1d3f 92f6 1e3f
000003e0: 1c4b 203f a79f 213f 31f4 223f bb48 243f
000003f0: 469d 253f d0f1 263f 5a46 283f
-0.66251963 -0.6573234 -0.65212715 -0.64693093 -0.6417347 -0.63653845 -0.63134223 -0.626146
-0.62094975 -0.61575353 -0.6105573 -0.60536104 -0.60016483 -0.5949686 -0.5897724 -0.58457613
-0.5793799 -0.5741837 -0.5689874 -0.5637912 -0.558595 -0.5533987 -0.5482025 -0.5430063
-0.53781 -0.5326138 -0.5274176 -0.5222213 -0.5170251 -0.5118289 -0.5066326 -0.5014364
-0.4962402 -0.49104396 -0.4858477 -0.4806515 -0.47545525 -0.470259 -0.4650628 -0.45986655
-0.4546703 -0.4494741 -0.44427785 -0.4390816 -0.4338854 -0.42868915 -0.42349294 -0.4182967
-0.41310045 -0.40790424 -0.402708 -0.39751175 -0.39231554 -0.3871193 -0.38192305 -0.37672684
-0.3715306 -0.36633435 -0.36113814 -0.3559419 -0.35074568 -0.34554943 -0.3403532 -0.33515698
-0.32996073 -0.3247645 -0.31956828 -0.31437203 -0.3091758 -0.30397958 -0.29878333 -0.29358712
-0.28839087 -0.28319463 -0.27799842 -0.27280217 -0.26760593 -0.26240972 -0.25721347 -0.25201723
-0.24682102 -0.24162477 -0.23642854 -0.23123232 -0.22603607 -0.22083984 -0.21564361 -0.21044739
-0.20525114 -0.20005491 -0.19485869 -0.18966244 -0.18446621 -0.17926998 -0.17407376 -0.16887751
-0.16368128 -0.15848505 -0.15328881 -0.14809258 -0.14289635 -0.13770013 -0.13250388 -0.12730765
-0.122111425 -0.11691519 -0.11171895 -0.106522724 -0.10132649 -0.09613026 -0.09093402 -0.085737795
-0.08054156 -0.07534532 -0.070149094 -0.06495286 -0.05975663 -0.054560393 -0.04936416 -0.04416793
-0.038971696 -0.033775464 -0.028579231 -0.023382997 -0.018186765 -0.012990532 -0.007794299 -0.0025980663
0.0025981665 0.0077943993 0.012990632 0.018186865 0.023383098 0.02857933 0.033775564 0.038971797
0.04416803 0.04936426 0.054560494 0.059756726 0.06495296 0.07014919 0.07534543 0.080541655
0.08573789 0.09093413 0.096130356 0.10132659 0.10652282 0.11171906 0.116915286 0.12211152
0.12730776 0.13250399 0.13770021 0.14289646 0.14809269 0.15328892 0.15848514 0.16368139
0.16887762 0.17407385 0.17927009 0.18446632 0.18966255 0.19485877 0.20005502 0.20525125
0.21044748 0.21564372 0.22083995 0.22603618 0.2312324 0.23642865 0.24162488 0.2468211
0.25201735 0.25721356 0.2624098 0.26760605 0.27280226 0.2779985 0.28319475 0.28839096
0.2935872 0.29878345 0.30397967 0.3091759 0.31437212 0.31956837 0.3247646 0.32996082
0.33515707 0.3403533 0.34554952 0.35074577 0.355942 0.36113822 0.36633447 0.37153068
0.37672693 0.38192317 0.38711938 0.39231563 0.39751187 0.40270808 0.40790433 0.41310057
0.41829678 0.42349303 0.42868927 0.43388548 0.43908173 0.44427794 0.4494742 0.45467043
0.45986664 0.4650629 0.47025913 0.47545534 0.4806516 0.48584783 0.49104404 0.4962403
0.50143653 0.50663275 0.51182896 0.51702523 0.52222145 0.52741766 0.53261393 0.53781015
0.54300636 0.54820263 0.55339885 0.55859506 0.56379133 0.56898755 0.57418376 0.57938004
0.58457625 0.58977246 0.59496874 0.60016495 0.60536116 0.6105574 0.61575365 0.62094986
0.6261461 0.63134235 0.63653857 0.6417348 0.64693105 0.65212727 0.6573235

Add_0_param0 f4 [1, 32, 1, 1]
00000000: 0000 0000 0000 80c3 0000 0000 0000 0000
00000010: 0000 0000 0000 00c4 0000 00c3 0000 80c3
00000020: 0000 0044 0000 8043 0000 40c4 0000 0000
00000030: 0000 0043 0000 c043 0000 8043 0000 6044
00000040: 0000 8043 0000 80c3 0000 00c4 0000 00c4
00000050: 0000 80c3 0000 00c4 0000 c043 0000 c0c3
00000060: 0000 80c3 0000 80c3 0000 8043 0000 80c4
00000070: 0000 c043 0000 c043 0000 00c4 0000 c043
0.0 -256.0 0.0 0.0 0.0 -512.0 -128.0 -256.0
512.0 256.0 -768.0 0.0 128.0 384.0 256.0 896.0
256.0 -256.0 -512.0 -512.0 -256.0 -512.0 384.0 -384.0
-256.0 -256.0 256.0 -1024.0 384.0 384.0 -512.0 384.0

MultiThreshold_1_param0 f4 [32, 15]
00000000: 66a8 db3c 8d4c fc3c 5b78 0e3d 6eca 1e3d
00000010: 821c 2f3d 966e 3f3d aac0 4f3d bd12 603d
00000020: d264 703d 735b 803d 7d84 883d 87ad 903d
00000030: 91d6 983d 9bff a03d a528 a93d 1cbe 133d
00000040: 2f28 353d 4392 563d 55fc 773d 34b3 8c3d
00000050: 3d68 9d3d 471d ae3d 50d2 be3d 5b87 cf3d
00000060: 643c e03d 6df1 f03d 3bd3 003e c02d 093e
00000070: 4588 113e c9e2 193e 8df7 c83c 07ed e43c
00000080: 4071 003d fd6b 0e3d bb66 1c3d 7861 2a3d
00000090: 355c 383d f256 463d af51 543d 6c4c 623d
000000a0: 2947 703d e641 7e3d 511e 863d b01b 8d3d
000000b0: 0e19 943d 3140 d93c a2bf fa3c 8a1f 0e3d
000000c0: 43df 1e3d fc9e 2f3d b55e 403d 6d1e 513d
000000d0: 26de 613d df9d 723d ccae 813d a80e 8a3d
000000e0: 846e 923d 61ce 9a3d 3d2e a33d 1a8e ab3d
000000f0: b484 b23c 9db0 ce3c 87dc ea3c 3884 033d
00000100: 2c9a 113d 21b0 1f3d 15c6 2d3d 0adc 3b3d
00000110: fef1 493d f307 583d e71d 663d dc33 743d
00000120: e824 813d e22f 883d dc3a 8f3d 7fd9 023d
00000130: c0be 3b3d 01a4 743d a1c4 963d 4137 b33d
00000140: e2a9 cf3d 831c ec3d 9247 043e e280 123e
00000150: 32ba 203e 82f3 2e3e d22c 3d3e 2366 4b3e
00000160: 739f 593e c4d8 673e 305d 283d b807 3f3d
00000170: 40b2 553d c85c 6c3d a883 813d ecd8 8c3d
00000180: 302e 983d 7483 a33d b9d8 ae3d fd2d ba3d
00000190: 4183 c53d 85d8 d03d c92d dc3d 0d83 e73d
000001a0: 51d8 f23d 35de 203d dc65 453d 83ed 693d
000001b0: 953a 873d 6a7e 993d 3dc2 ab3d 1106 be3d
000001c0: e449 d03d b88d e23d 8bd1 f43d b08a 033e
000001d0: 99ac 0c3e 83ce 153e 6df0 1e3e 5712 283e
000001e0: 7cb2 34ba 4d26 833c 17f9 053d 075f 4a3d
000001f0: 7c62 873d 7495 a93d 6cc8 cb3d 64fb ed3d
00000200: 2e17 083e aa30 193e 264a 2a3e a263 3b3e
00000210: 1e7d 4c3e 9a96 5d3e 16b0 6e3e 9670 733b
00000220: 75c6 3c3c 6158 9e3c 884d de3c 5821 0f3d
00000230: ec1b 2f3d 7f16 4f3d 1311 6f3d d485 873d
00000240: 1e83 973d 6780 a73d b17d b73d fb7a c73d
00000250: 4578 d73d 8e75 e73d 670c 883d a5b2 bc3d
00000260: e358 f13d 90ff 123e b052 2d3e cfa5 473e
00000270: eef8 613e 0d4c 7c3e 964f 8b3e 2579 983e
00000280: b5a2 a53e 44cc b23e d3f5 bf3e 631f cd3e
00000290: f348 da3e 3618 033d f293 153d ad0f 283d
000002a0: 688b 3a3d 2407 4d3d df82 5f3d 9afe 713d
000002b0: 2b3d 823d 097b 8b3d e6b8 943d c4f6 9d3d
000002c0: a234 a73d 7f72 b03d 5db0 b93d 3aee c23d
000002d0: 8bad aa3c 6b20 d63c a6c9 003d 1683 163d
000002e0: 863c 2c3d f6f5 413d 66af 573d d668 6d3d
000002f0: 2491 813d dc6d 8c3d 944a 973d 4c27 a23d
00000300: 0404 ad3d bce0 b73d 74bd c23d 13fa ff3c
00000310: 8b75 353d 0eee 6a3d 4833 903d 89ef aa3d
00000320: caab c53d 0b68 e03d 4c24 fb3d 47f0 0a3e
00000330: 684e 183e 88ac 253e a90a 333e c968 403e
00000340: eac6 4d3e 0a25 5b3e 7484 133c 3303 8b3c
00000350: 2c44 cc3c 93c2 063d 0f63 273d 8c03 483d
00000360: 08a4 683d 42a2 843d 81f2 943d c042 a53d
00000370: fe92 b53d 3ce3 c53d 7a33 d63d b883 e63d
00000380: f6d3 f63d 9e6e 8c3c 63cf 403d bbb3 9d3d
00000390: c4ff da3d e825 0c3e edcb 2a3e f171 493e
000003a0: f617 683e fd5e 833e 00b2 923e 0205 a23e
000003b0: 0458 b13e 07ab c03e 09fe cf3e 0c51 df3e
000003c0: ad6f c4bb 113b 163b 5f55 2d3c fb8d 9a3c
000003d0: 4a71 de3c 4c2a 113d f21b 333d 980d 553d
000003e0: 40ff 763d 7378 8c3d 4671 9d3d 196a ae3d
000003f0: ed62 bf3d c05b d03d 9354 e13d 1095 1a3c
0.026813697 0.030798221 0.03478275 0.03876727 0.042751797 0.046736322 0.05072085 0.05470537
0.0586899 0.062674426 0.06665895 0.07064348 0.074628 0.07861253 0.082597055 0.036069974
0.044227775 0.05238558 0.060543377 0.06870118 0.076858975 0.08501678 0.09317458 0.10133239
0.109490186 0.11764798 0.12580578 0.13396358 0.14212139 0.15027918 0.024532104 0.027945055
0.031358004 0.034770954 0.03818391 0.04159686 0.04500981 0.04842276 0.051835712 0.055248663
0.058661614 0.062074564 0.06548751 0.068900466 0.07231341 0.026519867 0.030608956 0.034698047
0.038787138 0.04287623 0.04696532 0.051054407 0.055143498 0.05923259 0.06332168 0.06741077
0.071499854 0.07558895 0.079678036 0.08376713 0.021791793 0.0252307 0.028669609 0.032108516
0.03554742 0.03898633 0.042425234 0.045864142 0.049303047 0.052741956 0.05618086 0.05961977
0.063058674 0.06649758 0.069936484 0.0319457 0.04583621 0.05972672 0.07361723 0.08750773
0.101398245 0.11528876 0.12917927 0.14306977 0.15696028 0.17085078 0.18474129 0.19863181
0.21252231 0.22641283 0.041104496 0.04663822 0.052171946 0.05770567 0.063239396 0.06877312
0.074306846 0.07984057 0.0853743 0.09090803 0.09644175 0.10197548 0.1075092 0.11304293
0.11857665 0.039274413 0.048192844 0.057111274 0.066029705 0.07494815 0.083866574 0.09278501
0.101703435 0.11062187 0.1195403 0.12845874 0.13737716 0.14629559 0.15521403 0.16413246
-0.00068930513 0.016009474 0.032708254 0.04940703 0.06610581 0.08280459 0.09950337 0.116202146
0.13290092 0.1495997 0.16629848 0.18299726 0.19969603 0.21639481 0.23309359 0.0037145964
0.011521925 0.019329252 0.02713658 0.03494391 0.042751238 0.050558563 0.058365893 0.066173226
0.073980555 0.08178788 0.089595206 0.097402535 0.105209865 0.11301719 0.066429906 0.09213761
0.11784532 0.14355302 0.16926074 0.19496845 0.22067615 0.24638386 0.27209157 0.29779926
0.32350698 0.34921467 0.37492236 0.4006301 0.4263378 0.03200551 0.036518045 0.041030575
0.045543104 0.050055638 0.054568168 0.059080698 0.06359323 0.068105765 0.07261829 0.077130824
0.08164336 0.086155884 0.09066842 0.09518094 0.020834705 0.026138505 0.031442307 0.036746107
0.042049907 0.047353707 0.052657507 0.057961307 0.063265115 0.068568915 0.073872715 0.079176515
0.084480315 0.089784116 0.095087916 0.031247174 0.04430155 0.057355933 0.07041031 0.08346469
0.09651907 0.109573446 0.122627825 0.13568221 0.1487366 0.16179097 0.17484535 0.18789972
0.20095411 0.21400848 0.009003747 0.016969299 0.02493485 0.032900404 0.040865954 0.048831508
0.056797057 0.06476261 0.072728164 0.08069372 0.08865927 0.09662482 0.10459037 0.11255592
0.12052147 0.01714259 0.04707278 0.077002965 0.10693315 0.13686335 0.16679354 0.19672371
0.2266539 0.25658408 0.28651428 0.31644446 0.34637463 0.37630484 0.406235 0.4361652
-0.005994758 0.002292339 0.010579436 0.01886653 0.02715363 0.035440728 0.043727823 0.052014917
0.06030202 0.06858911 0.07687621 0.0851633 0.093450405 0.1017375 0.110024594 0.009434953

MultiThreshold_2_param0 f4 [64, 15]
00000000: 9f8e 6040 14df 9c41 2bd6 0e42 ca3c 4f42
00000010: b5d1 8742 0605 a842 5738 c842 a56b e842
00000020: 7b4f 0443 2369 1443 cb82 2443 739c 3443
00000030: 1bb6 4443 c4cf 5443 6be9 6443 e690 0043
00000040: 02ba 0643 1ee3 0c43 3b0c 1343 5735 1943
00000050: 735e 1f43 8f87 2543 aab0 2b43 c7d9 3143
00000060: e202 3843 ff2b 3e43 1b55 4443 367e 4a43
00000070: 53a7 5043 6ed0 5643 02b0 9840 b2ff b041
00000080: b2e9 1d42 8a53 6342 b25e 9442 9e13 b742
00000090: 8bc8 d942 777d fc42 3299 0f43 a8f3 2043
000000a0: 1e4e 3243 94a8 4343 0b03 5543 815d 6643
000000b0: f7b7 7743 b0e9 6940 5feb 2c41 29ae 8f41
000000c0: a2e6 c841 8e0f 0142 caab 1d42 0748 3a42
000000d0: 43e4 5642 8080 7342 5f0e 8842 7c5c 9642
000000e0: 9baa a442 baf8 b242 d846 c142 f694 cf42
000000f0: b0ff 0c43 a79e 1443 9f3d 1c43 96dc 2343
00000100: 8e7b 2b43 851a 3343 7db9 3a43 7458 4243
00000110: 6af7 4943 6396 5143 5935 5943 51d4 6043
00000120: 4873 6843 3f12 7043 37b1 7743 bacc ce43
00000130: a8f0 d643 9614 df43 8438 e743 725c ef43
00000140: 6080 f743 4da4 ff43 1ee4 0344 15f6 0744
00000150: 0c08 0c44 031a 1044 f92b 1444 f13d 1844
00000160: e84f 1c44 df61 2044 6755 a640 c308 4e41
00000170: 6a73 a441 70e2 e141 bda8 0f42 3f60 2e42
00000180: c417 4d42 48cf 6b42 6643 8542 289f 9442
00000190: e9fa a342 ac56 b342 6eb2 c242 300e d242
000001a0: f169 e142 b4aa b140 0183 6541 5518 b941
000001b0: 286f ff41 fee2 2242 670e 4642 d239 6942
000001c0: 9d32 8642 52c8 9742 075e a942 bbf3 ba42
000001d0: 7189 cc42 261f de42 dbb4 ef42 48a5 0043
000001e0: c31b 0142 19c6 2742 6f70 4e42 c51a 7542
000001f0: 8ee2 8d42 b837 a142 e38c b442 0ee2 c742
00000200: 3a37 db42 658c ee42 c7f0 0043 5d9b 0a43
00000210: f345 1443 88f0 1d43 1d9b 2743 a189 dd42
00000220: 5657 f642 8592 0743 60f9 1343 3a60 2043
00000230: 15c7 2c43 f02d 3943 c994 4543 a5fb 5143
00000240: 7e62 5e43 59c9 6a43 3430 7743 87cb 8143
00000250: f5fe 8743 6132 8e43 11db 4742 85ca 5c42
00000260: f8b9 7142 b654 8342 70cc 8d42 2a44 9842
00000270: e5bb a242 9d33 ad42 59ab b742 1223 c242
00000280: cc9a cc42 8612 d742 408a e142 fa01 ec42
00000290: b379 f642 fe17 c23f fc62 8c41 3c52 0642
000002a0: fa72 4642 dc49 8342 3b5a a342 9a6a c342
000002b0: f97a e342 acc5 0143 dccd 1143 0bd6 2143
000002c0: 3bde 3143 6ae6 4143 9aee 5143 c9f6 6143
000002d0: 45ac 81c3 a355 78c3 bc52 6dc3 d64f 62c3
000002e0: ef4c 57c3 094a 4cc3 2247 41c3 3d44 36c3
000002f0: 5541 2bc3 6f3e 20c3 893b 15c3 a338 0ac3
00000300: 796b fec2 ac65 e8c2 e05f d2c2 8839 e6c2
00000310: 5af8 d4c2 2cb7 c3c2 fe75 b2c2 d034 a1c2
00000320: a2f3 8fc2 e764 7dc2 8be2 5ac2 2e60 38c2
00000330: d1dd 15c2 edb6 e6c1 33b2 a1c1 f35a 39c1
00000340: fc45 3dc0 d86f b540 2629 3d43 1a87 4743
00000350: 0de5 5143 0043 5c43 f4a0 6643 e7fe 7043
00000360: db5c 7b43 67dd 8243 600c 8843 5b3b 8d43
00000370: 546a 9243 4d99 9743 47c8 9c43 40f7 a143
00000380: 3b26 a743 d331 37c3 4372 2cc3 b2b2 21c3
00000390: 21f3 16c3 9133 0cc3 0074 01c3 df68 edc2
000003a0: bfe9 d7c2 9d6a c2c2 7ceb acc2 5c6c 97c2
000003b0: 3aed 81c2 32dc 58c2 efdd 2dc2 afdf 02c2
000003c0: 7d47 3f43 2e65 4843 de82 5143 8ea0 5a43
000003d0: 3fbe 6343 efdb 6c43 9ff9 7543 4e17 7f43
000003e0: 801a 8443 57a9 8843 3038 8d43 08c7 9143
000003f0: df55 9643 b8e4 9a43 9073 9f43 3240 9742
3.508705 19.608925 35.70915 51.809364 67.909584 84.00981 100.11004 116.21024
132.31047 148.41069 164.51091 180.61113 196.71135 212.81158 228.91179 128.56601
134.7266 140.88718 147.04778 153.20836 159.36894 165.52953 171.6901 177.8507
184.01126 190.17186 196.33244 202.49301 208.65361 214.81418 4.7714853 22.124851
39.478218 56.83158 74.18495 91.538315 108.891685 126.24505 143.59842 160.95178
178.30515 195.65851 213.01189 230.36525 247.71861 3.6548882 10.807464 17.96004
25.112614 32.26519 39.417763 46.57034 53.72291 60.87549 68.02807 75.18063
82.33321 89.485794 96.63837 103.79094 140.99878 148.61974 156.2407 163.86166
171.48264 179.10359 186.72456 194.34552 201.96646 209.58745 217.20839 224.82936
232.45032 240.07127 247.69225 413.59943 429.88013 446.16083 462.44153 478.72223
495.00293 511.2836 527.56433 543.84503 560.12573 576.40643 592.6871 608.96783
625.24854 641.52924 5.197925 12.877139 20.556355 28.235565 35.914783 43.59399
51.27321 58.952423 66.63164 74.31085 81.99006 89.66928 97.348495 105.02771
112.70692 5.552088 14.344483 23.13688 31.929276 40.721672 49.514065 58.306465
67.098854 75.89125 84.68365 93.476036 102.26844 111.06084 119.85323 128.64563
32.27711 41.943455 51.6098 61.276142 70.94249 80.608826 90.27517 99.94151
109.607864 119.27421 128.94054 138.60689 148.27324 157.93958 167.60591 110.76881
123.17058 135.57234 147.97412 160.37589 172.77766 185.17944 197.58119 209.98299
222.38474 234.78651 247.1883 259.59006 271.99185 284.3936 49.963932 55.197773
60.43161 65.66545 70.89929 76.13313 81.36698 86.60081 91.83466 97.0685
102.30234 107.53618 112.77002 118.00386 123.23769 1.5163572 17.548332 33.580307
49.61228 65.64426 81.67623 97.708206 113.74018 129.77216 145.80414 161.8361
177.86809 193.90005 209.93204 225.964 -259.34586 -248.33452 -237.32318 -226.31186
-215.30052 -204.2892 -193.27786 -182.26656 -171.2552 -160.24388 -149.23256 -138.22124
-127.20991 -116.19858 -105.187256 -115.112366 -106.48506 -97.85776 -89.23045 -80.60315
-71.975845 -63.348537 -54.721233 -46.093925 -37.466618 -28.83932 -20.212011 -11.584704
-2.9573965 5.669903 189.16074 199.52774 209.89473 220.26172 230.62872 240.99571
251.36272 261.7297 272.09668 282.4637 292.8307 303.19766 313.56467 323.93164
334.29868 -183.19463 -172.44633 -161.69803 -150.94972 -140.20143 -129.45312 -118.70483
-107.956535 -97.20823 -86.45993 -75.71164 -64.96333 -54.215034 -43.466732 -32.71844
191.27925 200.39523 209.5112 218.62717 227.74315 236.85912 245.97508 255.09103
264.20703 273.32297 282.43896 291.55493 300.67087 309.78687 318.90283 75.62538
