models/qcnn_lstm_real_c0.5/subcnn_debug/subcnn_finn_streamlined13.onnx (onnx, 34614 bytes, 6 tensors)

Conv_0_param0 f4 [32, 1, 3, 1]
0	0xc0e00000	-7.0
1	0x40a00000	5.0
2	0x40000000	2.0
3	0xc0e00000	-7.0
4	0x40800000	4.0
5	0x40a00000	5.0
6	0x40a00000	5.0
7	0x00000000	0.0
8	0xc0a00000	-5.0
9	0xc0800000	-4.0
10	0xc0400000	-3.0
11	0x40e00000	7.0
12	0x40800000	4.0
13	0x00000000	0.0
14	0xc0800000	-4.0
15	0x40e00000	7.0
16	0x40800000	4.0
17	0xc0e00000	-7.0
18	0x40a00000	5.0
19	0x40000000	2.0
20	0xc0c00000	-6.0
21	0xc0e00000	-7.0
22	0x40a00000	5.0
23	0x40800000	4.0
24	0xc0a00000	-5.0
25	0xbf800000	-1.0
26	0x40000000	2.0
27	0x00000000	0.0
28	0xc0c00000	-6.0
29	0x40800000	4.0
30	0xc0400000	-3.0
31	0x40400000	3.0
32	0x40c00000	6.0
33	0xc0e00000	-7.0
34	0x3f800000	1.0
35	0x40c00000	6.0
36	0x3f800000	1.0
37	0x40a00000	5.0
38	0xc0e00000	-7.0
39	0x40400000	3.0
40	0x3f800000	1.0
41	0xc0e00000	-7.0
42	0xc0e00000	-7.0
43	0x00000000	0.0
44	0x40a00000	5.0
45	0xbf800000	-1.0
46	0x3f800000	1.0
47	0xc0e00000	-7.0
48	0x3f800000	1.0
49	0xc0e00000	-7.0
50	0x40800000	4.0
51	0xbf800000	-1.0
52	0x40c00000	6.0
53	0xc0400000	-3.0
54	0x40e00000	7.0
55	0x00000000	0.0
56	0xc0400000	-3.0
57	0xc0000000	-2.0
58	0x40400000	3.0
59	0x40400000	3.0
60	0x40e00000	7.0
61	0xc0000000	-2.0
62	0xc0400000	-3.0
63	0x40800000	4.0
64	0x40e00000	7.0
65	0xc0e00000	-7.0
66	0xc0a00000	-5.0
67	0x40e00000	7.0
68	0xc0a00000	-5.0
69	0x40c00000	6.0
70	0xc0c00000	-6.0
71	0x40400000	3.0
72	0xc0e00000	-7.0
73	0x40a00000	5.0
74	0x40800000	4.0
75	0x40c00000	6.0
76	0x40000000	2.0
77	0xc0c00000	-6.0
78	0xc0000000	-2.0
79	0x40e00000	7.0
80	0xc0e00000	-7.0
81	0x40000000	2.0
82	0xbf800000	-1.0
83	0x40e00000	7.0
84	0xc0000000	-2.0
85	0xc0e00000	-7.0
86	0x40c00000	6.0
87	0x40400000	3.0
88	0xc0e00000	-7.0
89	0x3f800000	1.0
90	0xc0400000	-3.0
91	0x3f800000	1.0
92	0x40c00000	6.0
93	0x40800000	4.0
94	0xbf800000	-1.0
95	0xc0c00000	-6.0

Conv_1_param0 f4 [64, 32, 3, 1]
0	0x00000000	0.0
1	0x40000000	2.0
2	0xc0000000	-2.0
3	0xbf800000	-1.0
4	0xbf800000	-1.0
5	0xbf800000	-1.0
6	0xc0000000	-2.0
7	0xc0000000	-2.0
8	0xc0400000	-3.0
9	0x40800000	4.0
10	0xbf800000	-1.0
11	0xc0000000	-2.0
12	0x00000000	0.0
13	0x40000000	2.0
14	0x00000000	0.0
15	0xc0000000	-2.0
16	0x3f800000	1.0
17	0x40a00000	5.0
18	0xc0000000	-2.0
19	0xbf800000	-1.0
20	0xc0000000	-2.0
21	0x40800000	4.0
22	0x00000000	0.0
23	0xbf800000	-1.0
24	0xbf800000	-1.0
25	0xc0800000	-4.0
26	0xc0000000	-2.0
27	0x3f800000	1.0
28	0x40000000	2.0
29	0xc0000000	-2.0
30	0x40000000	2.0
31	0xbf800000	-1.0
32	0xc0000000	-2.0
33	0x3f800000	1.0
34	0x00000000	0.0
35	0xc0000000	-2.0
36	0x3f800000	1.0
37	0xc0000000	-2.0
38	0xc0000000	-2.0
39	0x3f800000	1.0
40	0xc0000000	-2.0
41	0xc0800000	-4.0
42	0xc0800000	-4.0
43	0xbf800000	-1.0
44	0x00000000	0.0
45	0x00000000	0.0
46	0xbf800000	-1.0
47	0xc0400000	-3.0
48	0xc0400000	-3.0
49	0xc0800000	-4.0
50	0xc0000000	-2.0
51	0x40400000	3.0
52	0x40a00000	5.0
53	0xbf800000	-1.0
54	0x40000000	2.0
55	0x40000000	2.0
56	0x40a00000	5.0
57	0x40400000	3.0
58	0x40400000	3.0
59	0x00000000	0.0
60	0xbf800000	-1.0
61	0x40000000	2.0
62	0x40c00000	6.0
63	0x00000000	0.0
64	0x40a00000	5.0
65	0x40800000	4.0
66	0xc0000000	-2.0
67	0xbf800000	-1.0
68	0xc0000000	-2.0
69	0x40000000	2.0
70	0x3f800000	1.0
71	0x40000000	2.0
72	0x00000000	0.0
73	0x00000000	0.0
74	0x00000000	0.0
75	0xc0400000	-3.0
76	0x40800000	4.0
77	0x40a00000	5.0
78	0xc0800000	-4.0
79	0xc0800000	-4.0
80	0x00000000	0.0
81	0x40800000	4.0
82	0x40000000	2.0
83	0x00000000	0.0
84	0xbf800000	-1.0
85	0x40000000	2.0
86	0x3f800000	1.0
87	0x40400000	3.0
88	0x3f800000	1.0
89	0xc0400000	-3.0
90	0x40000000	2.0
91	0x00000000	0.0
92	0xc0000000	-2.0
93	0x3f800000	1.0
94	0x00000000	0.0
95	0xbf800000	-1.0
96	0x00000000	0.0
97	0xbf800000	-1.0
98	0x3f800000	1.0
99	0x3f800000	1.0
100	0x40800000	4.0
101	0xc0400000	-3.0
102	0xc0800000	-4.0
103	0x40400000	3.0
104	0x40800000	4.0
105	0x00000000	0.0
106	0x40e00000	7.0
107	0xc0400000	-3.0
108	0xc0000000	-2.0
109	0x40000000	2.0
110	0x40400000	3.0
111	0x00000000	0.0
112	0x00000000	0.0
113	0x00000000	0.0
114	0x00000000	0.0
115	0x00000000	0.0
116	0x40c00000	6.0
117	0x3f800000	1.0
118	0x40000000	2.0
119	0xc0400000	-3.0
120	0x3f800000	1.0
121	0x3f800000	1.0
122	0xbf800000	-1.0
123	0x3f800000	1.0
124	0xbf800000	-1.0
125	0x40000000	2.0
126	0x00000000	0.0
127	0x40400000	3.0
128	0x3f800000	1.0
129	0x00000000	0.0
130	0xc0000000	-2.0
131	0x40e00000	7.0
132	0xc0000000	-2.0
133	0x40a00000	5.0
134	0xbf800000	-1.0
135	0x40800000	4.0
136	0x40000000	2.0
137	0xbf800000	-1.0
138	0x3f800000	1.0
139	0x00000000	0.0
140	0xbf800000	-1.0
141	0x3f800000	1.0
142	0x3f800000	1.0
143	0x40000000	2.0
144	0x40000000	2.0
145	0x00000000	0.0
146	0x00000000	0.0
147	0x3f800000	1.0
148	0x00000000	0.0
149	0x00000000	0.0
150	0xc0000000	-2.0
151	0x3f800000	1.0
152	0x3f800000	1.0
153	0x3f800000	1.0
154	0x00000000	0.0
155	0x3f800000	1.0
156	0xbf800000	-1.0
157	0xbf800000	-1.0
158	0x3f800000	1.0
159	0x40000000	2.0
160	0xbf800000	-1.0
161	0x40400000	3.0
162	0xbf800000	-1.0
163	0xbf800000	-1.0
164	0xbf800000	-1.0
165	0x00000000	0.0
166	0x00000000	0.0
167	0xbf800000	-1.0
168	0x40000000	2.0
169	0x40000000	2.0
170	0xc0000000	-2.0
171	0x00000000	0.0
172	0xc0000000	-2.0
173	0xbf800000	-1.0
174	0x3f800000	1.0
175	0x3f800000	1.0
176	0xbf800000	-1.0
177	0x3f800000	1.0
178	0x00000000	0.0
179	0x3f800000	1.0
180	0x00000000	0.0
181	0x00000000	0.0
182	0x3f800000	1.0
183	0xbf800000	-1.0
184	0xbf800000	-1.0
185	0x3f800000	1.0
186	0x40400000	3.0
187	0x00000000	0.0
188	0x3f800000	1.0
189	0x40400000	3.0
190	0x3f800000	1.0
191	0x3f800000	1.0
192	0x40000000	2.0
193	0x00000000	0.0
194	0xc0400000	-3.0
195	0x40000000	2.0
196	0x3f800000	1.0
197	0x00000000	0.0
198	0xbf800000	-1.0
199	0x40800000	4.0
200	0x00000000	0.0
201	0xbf800000	-1.0
202	0xbf800000	-1.0
203	0xc0000000	-2.0
204	0x3f800000	1.0
205	0x40000000	2.0
206	0xbf800000	-1.0
207	0x40000000	2.0
208	0x40e00000	7.0
209	0x40800000	4.0
210	0xc0000000	-2.0
211	0xc0000000	-2.0
212	0x3f800000	1.0
213	0x40000000	2.0
214	0x00000000	0.0
215	0xc0000000	-2.0
216	0xc0a00000	-5.0
217	0xc0a00000	-5.0
218	0xc0400000	-3.0
219	0xbf800000	-1.0
220	0xc0000000	-2.0
221	0x00000000	0.0
222	0x00000000	0.0
223	0x00000000	0.0
224	0x00000000	0.0
225	0x00000000	0.0
226	0x3f800000	1.0
227	0xc0000000	-2.0
228	0x00000000	0.0
229	0x3f800000	1.0
230	0xc0000000	-2.0
231	0xc0000000	-2.0
232	0xc0000000	-2.0
233	0xc0400000	-3.0
234	0x40000000	2.0
235	0x00000000	0.0
236	0xbf800000	-1.0
237	0x00000000	0.0
238	0xc0400000	-3.0
239	0x00000000	0.0
240	0x00000000	0.0
241	0xc0800000	-4.0
242	0xc0000000	-2.0
243	0x40000000	2.0
244	0x3f800000	1.0
245	0x40000000	2.0
246	0x40400000	3.0
247	0x40800000	4.0
248	0x40800000	4.0
249	0x00000000	0.0
250	0xbf800000	-1.0
251	0xbf800000	-1.0
252	0x40400000	3.0
253	0x40400000	3.0
254	0x40c00000	6.0
255	0x00000000	0.0

MultiThreshold_0_param0 f4 [1, 255]
0	0xbf299ae3	-0.66251963
1	0xbf284659	-0.6573234
2	0xbf26f1ce	-0.65212715
3	0xbf259d44	-0.64693093
4	0xbf2448ba	-0.6417347
5	0xbf22f42f	-0.63653845
6	0xbf219fa5	-0.63134223
7	0xbf204b1b	-0.626146
8	0xbf1ef690	-0.62094975
9	0xbf1da206	-0.61575353
10	0xbf1c4d7c	-0.6105573
11	0xbf1af8f1	-0.60536104
12	0xbf19a467	-0.60016483
13	0xbf184fdd	-0.5949686
14	0xbf16fb53	-0.5897724
15	0xbf15a6c8	-0.58457613
16	0xbf14523e	-0.5793799
17	0xbf12fdb4	-0.5741837
18	0xbf11a929	-0.5689874
19	0xbf10549f	-0.5637912
20	0xbf0f0015	-0.558595
21	0xbf0dab8a	-0.5533987
22	0xbf0c5700	-0.5482025
23	0xbf0b0276	-0.5430063
24	0xbf09adeb	-0.53781
25	0xbf085961	-0.5326138
26	0xbf0704d7	-0.5274176
27	0xbf05b04c	-0.5222213
28	0xbf045bc2	-0.5170251
29	0xbf030738	-0.5118289
30	0xbf01b2ad	-0.5066326
31	0xbf005e23	-0.5014364
32	0xbefe1332	-0.4962402
33	0xbefb6a1d	-0.49104396
34	0xbef8c108	-0.4858477
35	0xbef617f4	-0.4806515
36	0xbef36edf	-0.47545525
37	0xbef0c5ca	-0.470259
38	0xbeee1cb6	-0.4650628
39	0xbeeb73a1	-0.45986655
40	0xbee8ca8c	-0.4546703
41	0xbee62178	-0.4494741
42	0xbee37863	-0.44427785
43	0xbee0cf4e	-0.4390816
44	0xbede263a	-0.4338854
45	0xbedb7d25	-0.42868915
46	0xbed8d411	-0.42349294
47	0xbed62afc	-0.4182967
48	0xbed381e7	-0.41310045
49	0xbed0d8d3	-0.40790424
50	0xbece2fbe	-0.402708
51	0xbecb86a9	-0.39751175
52	0xbec8dd95	-0.39231554
53	0xbec63480	-0.3871193
54	0xbec38b6b	-0.38192305
55	0xbec0e257	-0.37672684
56	0xbebe3942	-0.3715306
57	0xbebb902d	-0.36633435
58	0xbeb8e719	-0.36113814
59	0xbeb63e04	-0.3559419
60	0xbeb394f0	-0.35074568
61	0xbeb0ebdb	-0.34554943
62	0xbeae42c6	-0.3403532
63	0xbeab99b2	-0.33515698
64	0xbea8f09d	-0.32996073
65	0xbea64788	-0.3247645
66	0xbea39e74	-0.31956828
67	0xbea0f55f	-0.31437203
68	0xbe9e4c4a	-0.3091758
69	0xbe9ba336	-0.30397958
70	0xbe98fa21	-0.29878333
71	0xbe96510d	-0.29358712
72	0xbe93a7f8	-0.28839087
73	0xbe90fee3	-0.28319463
74	0xbe8e55cf	-0.27799842
75	0xbe8bacba	-0.27280217
76	0xbe8903a5	-0.26760593
77	0xbe865a91	-0.26240972
78	0xbe83b17c	-0.25721347
79	0xbe810867	-0.25201723
80	0xbe7cbea6	-0.24682102
81	0xbe776c7c	-0.24162477
82	0xbe721a53	-0.23642854
83	0xbe6cc82a	-0.23123232
84	0xbe677600	-0.22603607
85	0xbe6223d7	-0.22083984
86	0xbe5cd1ae	-0.21564361
87	0xbe577f85	-0.21044739
88	0xbe522d5b	-0.20525114
89	0xbe4cdb32	-0.20005491
90	0xbe478909	-0.19485869
91	0xbe4236df	-0.18966244
92	0xbe3ce4b6	-0.18446621
93	0xbe37928d	-0.17926998
94	0xbe324064	-0.17407376
95	0xbe2cee3a	-0.16887751
96	0xbe279c11	-0.16368128
97	0xbe2249e8	-0.15848505
98	0xbe1cf7be	-0.15328881
99	0xbe17a595	-0.14809258
100	0xbe12536c	-0.14289635
101	0xbe0d0143	-0.13770013
102	0xbe07af19	-0.13250388
103	0xbe025cf0	-0.12730765
104	0xbdfa158e	-0.122111425
105	0xbdef713b	-0.11691519
106	0xbde4cce8	-0.11171895
107	0xbdda2896	-0.106522724
108	0xbdcf8443	-0.10132649
109	0xbdc4dff1	-0.09613026
110	0xbdba3b9e	-0.09093402
111	0xbdaf974c	-0.085737795
112	0xbda4f2f9	-0.08054156
113	0xbd9a4ea6	-0.07534532
114	0xbd8faa54	-0.070149094
115	0xbd850601	-0.06495286
116	0xbd74c35e	-0.05975663
117	0xbd5f7ab8	-0.054560393
118	0xbd4a3213	-0.04936416
119	0xbd34e96e	-0.04416793
120	0xbd1fa0c9	-0.038971696
121	0xbd0a5824	-0.033775464
122	0xbcea1efe	-0.028579231
123	0xbcbf8db3	-0.023382997
124	0xbc94fc69	-0.018186765
125	0xbc54d63e	-0.012990532
126	0xbbff6752	-0.007794299
127	0xbb2a4452	-0.0025980663
128	0x3b2a4600	0.0025981665
129	0x3bff6829	0.0077943993
130	0x3c54d6a9	0.012990632
131	0x3c94fc9f	0.018186865
132	0x3cbf8de9	0.023383098
133	0x3cea1f33	0.02857933
134	0x3d0a583f	0.033775564
135	0x3d1fa0e4	0.038971797
136	0x3d34e989	0.04416803
137	0x3d4a322e	0.04936426
138	0x3d5f7ad3	0.054560494
139	0x3d74c378	0.059756726
140	0x3d85060f	0.06495296
141	0x3d8faa61	0.07014919
142	0x3d9a4eb4	0.07534543
143	0x3da4f306	0.080541655
144	0x3daf9759	0.08573789
145	0x3dba3bac	0.09093413
146	0x3dc4dffe	0.096130356
147	0x3dcf8451	0.10132659
148	0x3dda28a3	0.10652282
149	0x3de4ccf6	0.11171906
150	0x3def7148	0.116915286
151	0x3dfa159b	0.12211152
152	0x3e025cf7	0.12730776
153	0x3e07af20	0.13250399
154	0x3e0d0149	0.13770021
155	0x3e125373	0.14289646
156	0x3e17a59c	0.14809269
157	0x3e1cf7c5	0.15328892
158	0x3e2249ee	0.15848514
159	0x3e279c18	0.16368139
160	0x3e2cee41	0.16887762
161	0x3e32406a	0.17407385
162	0x3e379294	0.17927009
163	0x3e3ce4bd	0.18446632
164	0x3e4236e6	0.18966255
165	0x3e47890f	0.19485877
166	0x3e4cdb39	0.20005502
167	0x3e522d62	0.20525125
168	0x3e577f8b	0.21044748
169	0x3e5cd1b5	0.21564372
170	0x3e6223de	0.22083995
171	0x3e677607	0.22603618
172	0x3e6cc830	0.2312324
173	0x3e721a5a	0.23642865
174	0x3e776c83	0.24162488
175	0x3e7cbeac	0.2468211
176	0x3e81086b	0.25201735
177	0x3e83b17f	0.25721356
178	0x3e865a94	0.2624098
179	0x3e8903a9	0.26760605
180	0x3e8bacbd	0.27280226
181	0x3e8e55d2	0.2779985
182	0x3e90fee7	0.28319475
183	0x3e93a7fb	0.28839096
184	0x3e965110	0.2935872
185	0x3e98fa25	0.29878345
186	0x3e9ba339	0.30397967
187	0x3e9e4c4e	0.3091759
188	0x3ea0f562	0.31437212
189	0x3ea39e77	0.31956837
190	0x3ea6478c	0.3247646
191	0x3ea8f0a0	0.32996082
192	0x3eab99b5	0.33515707
193	0x3eae42ca	0.3403533
194	0x3eb0ebde	0.34554952
195	0x3eb394f3	0.35074577
196	0x3eb63e08	0.355942
197	0x3eb8e71c	0.36113822
198	0x3ebb9031	0.36633447
199	0x3ebe3945	0.37153068
200	0x3ec0e25a	0.37672693
201	0x3ec38b6f	0.38192317
202	0x3ec63483	0.38711938
203	0x3ec8dd98	0.39231563
204	0x3ecb86ad	0.39751187
205	0x3ece2fc1	0.40270808
206	0x3ed0d8d6	0.40790433
207	0x3ed381eb	0.41310057
208	0x3ed62aff	0.41829678
209	0x3ed8d414	0.42349303
210	0x3edb7d29	0.42868927
211	0x3ede263d	0.43388548
212	0x3ee0cf52	0.43908173
213	0x3ee37866	0.44427794
214	0x3ee6217b	0.4494742
215	0x3ee8ca90	0.45467043
216	0x3eeb73a4	0.45986664
217	0x3eee1cb9	0.4650629
218	0x3ef0c5ce	0.47025913
219	0x3ef36ee2	0.47545534
220	0x3ef617f7	0.4806516
221	0x3ef8c10c	0.48584783
222	0x3efb6a20	0.49104404
223	0x3efe1335	0.4962403
224	0x3f005e25	0.50143653
225	0x3f01b2af	0.50663275
226	0x3f030739	0.51182896
227	0x3f045bc4	0.51702523
228	0x3f05b04e	0.52222145
229	0x3f0704d8	0.52741766
230	0x3f085963	0.53261393
231	0x3f09aded	0.53781015
232	0x3f0b0277	0.54300636
233	0x3f0c5702	0.54820263
234	0x3f0dab8c	0.55339885
235	0x3f0f0016	0.55859506
236	0x3f1054a1	0.56379133
237	0x3f11a92b	0.56898755
238	0x3f12fdb5	0.57418376
239	0x3f145240	0.57938004
240	0x3f15a6ca	0.58457625
241	0x3f16fb54	0.58977246
242	0x3f184fdf	0.59496874
243	0x3f19a469	0.60016495
244	0x3f1af8f3	0.60536116
245	0x3f1c4d7d	0.6105574
246	0x3f1da208	0.61575365
247	0x3f1ef692	0.62094986
248	0x3f204b1c	0.6261461
249	0x3f219fa7	0.63134235
250	0x3f22f431	0.63653857
251	0x3f2448bb	0.6417348
252	0x3f259d46	0.64693105
253	0x3f26f1d0	0.65212727
254	0x3f28465a	0.6573235

Add_0_param0 f4 [1, 32, 1, 1]
0	0x00000000	0.0
1	0xc3800000	-256.0
2	0x00000000	0.0
3	0x00000000	0.0
4	0x00000000	0.0
5	0xc4000000	-512.0
6	0xc3000000	-128.0
7	0xc3800000	-256.0
8	0x44000000	512.0
9	0x43800000	256.0
10	0xc4400000	-768.0
11	0x00000000	0.0
12	0x43000000	128.0
13	0x43c00000	384.0
14	0x43800000	256.0
15	0x44600000	896.0
16	0x43800000	256.0
17	0xc3800000	-256.0
18	0xc4000000	-512.0
19	0xc4000000	-512.0
20	0xc3800000	-256.0
21	0xc4000000	-512.0
22	0x43c00000	384.0
23	0xc3c00000	-384.0
24	0xc3800000	-256.0
25	0xc3800000	-256.0
26	0x43800000	256.0
27	0xc4800000	-1024.0
28	0x43c00000	384.0
29	0x43c00000	384.0
30	0xc4000000	-512.0
31	0x43c00000	384.0

MultiThreshold_2_param0 f4 [64, 15]
0	0x40608e9f	3.508705
1	0x419cdf14	19.608925
2	0x420ed62b	35.70915
3	0x424f3cca	51.809364
4	0x4287d1b5	67.909584
5	0x42a80506	84.00981
6	0x42c83857	100.11004
7	0x42e86ba5	116.21024
8	0x43044f7b	132.31047
9	0x43146923	148.41069
10	0x432482cb	164.51091
11	0x43349c73	180.61113
12	0x4344b61b	196.71135
13	0x4354cfc4	212.81158
14	0x4364e96b	228.91179
15	0x430090e6	128.56601
16	0x4306ba02	134.7266
17	0x430ce31e	140.88718
18	0x43130c3b	147.04778
19	0x43193557	153.20836
20	0x431f5e73	159.36894
21	0x4325878f	165.52953
22	0x432bb0aa	171.6901
23	0x4331d9c7	177.8507
24	0x433802e2	184.01126
25	0x433e2bff	190.17186
26	0x4344551b	196.33244
27	0x434a7e36	202.49301
28	0x4350a753	208.65361
29	0x4356d06e	214.81418
30	0x4098b002	4.7714853
31	0x41b0ffb2	22.124851
32	0x421de9b2	39.478218
33	0x4263538a	56.83158
34	0x42945eb2	74.18495
35	0x42b7139e	91.538315
36	0x42d9c88b	108.891685
37	0x42fc7d77	126.24505
38	0x430f9932	143.59842
39	0x4320f3a8	160.95178
40	0x43324e1e	178.30515
41	0x4343a894	195.65851
42	0x4355030b	213.01189
43	0x43665d81	230.36525
44	0x4377b7f7	247.71861
45	0x4069e9b0	3.6548882
46	0x412ceb5f	10.807464
47	0x418fae29	17.96004
48	0x41c8e6a2	25.112614
49	0x42010f8e	32.26519
50	0x421dabca	39.417763
51	0x423a4807	46.57034
52	0x4256e443	53.72291
53	0x42738080	60.87549
54	0x42880e5f	68.02807
55	0x42965c7c	75.18063
56	0x42a4aa9b	82.33321
57	0x42b2f8ba	89.485794
58	0x42c146d8	96.63837
59	0x42cf94f6	103.79094
60	0x430cffb0	140.99878
61	0x43149ea7	148.61974
62	0x431c3d9f	156.2407
63	0x4323dc96	163.86166
64	0x432b7b8e	171.48264
65	0x43331a85	179.10359
66	0x433ab97d	186.72456
67	0x43425874	194.34552
68	0x4349f76a	201.96646
69	0x43519663	209.58745
70	0x43593559	217.20839
71	0x4360d451	224.82936
72	0x43687348	232.45032
73	0x4370123f	240.07127
74	0x4377b137	247.69225
75	0x43ceccba	413.59943
76	0x43d6f0a8	429.88013
77	0x43df1496	446.16083
78	0x43e73884	462.44153
79	0x43ef5c72	478.72223
80	0x43f78060	495.00293
81	0x43ffa44d	511.2836
82	0x4403e41e	527.56433
83	0x4407f615	543.84503
84	0x440c080c	560.12573
85	0x44101a03	576.40643
86	0x44142bf9	592.6871
87	0x44183df1	608.96783
88	0x441c4fe8	625.24854
89	0x442061df	641.52924
90	0x40a65567	5.197925
91	0x414e08c3	12.877139
92	0x41a4736a	20.556355
93	0x41e1e270	28.235565
94	0x420fa8bd	35.914783
95	0x422e603f	43.59399
96	0x424d17c4	51.27321
97	0x426bcf48	58.952423
98	0x42854366	66.63164
99	0x42949f28	74.31085
100	0x42a3fae9	81.99006
101	0x42b356ac	89.66928
102	0x42c2b26e	97.348495
103	0x42d20e30	105.02771
104	0x42e169f1	112.70692
105	0x40b1aab4	5.552088
106	0x41658301	14.344483
107	0x41b91855	23.13688
108	0x41ff6f28	31.929276
109	0x4222e2fe	40.721672
110	0x42460e67	49.514065
111	0x426939d2	58.306465
112	0x4286329d	67.098854
113	0x4297c852	75.89125
114	0x42a95e07	84.68365
115	0x42baf3bb	93.476036
116	0x42cc8971	102.26844
117	0x42de1f26	111.06084
118	0x42efb4db	119.85323
119	0x4300a548	128.64563
120	0x42011bc3	32.27711
121	0x4227c619	41.943455
122	0x424e706f	51.6098
123	0x42751ac5	61.276142
124	0x428de28e	70.94249
125	0x42a137b8	80.608826
126	0x42b48ce3	90.27517
127	0x42c7e20e	99.94151
128	0x42db373a	109.607864
129	0x42ee8c65	119.27421
130	0x4300f0c7	128.94054
131	0x430a9b5d	138.60689
132	0x431445f3	148.27324
133	0x431df088	157.93958
134	0x43279b1d	167.60591
135	0x42dd89a1	110.76881
136	0x42f65756	123.17058
137	0x43079285	135.57234
138	0x4313f960	147.97412
139	0x4320603a	160.37589
140	0x432cc715	172.77766
141	0x43392df0	185.17944
142	0x434594c9	197.58119
143	0x4351fba5	209.98299
144	0x435e627e	222.38474
145	0x436ac959	234.78651
146	0x43773034	247.1883
147	0x4381cb87	259.59006
148	0x4387fef5	271.99185
149	0x438e3261	284.3936
150	0x4247db11	49.963932
151	0x425cca85	55.197773
152	0x4271b9f8	60.43161
153	0x428354b6	65.66545
154	0x428dcc70	70.89929
155	0x4298442a	76.13313
156	0x42a2bbe5	81.36698
157	0x42ad339d	86.60081
158	0x42b7ab59	91.83466
159	0x42c22312	97.0685
160	0x42cc9acc	102.30234
161	0x42d71286	107.53618
162	0x42e18a40	112.77002
163	0x42ec01fa	118.00386
164	0x42f679b3	123.23769
165	0x3fc217fe	1.5163572
166	0x418c62fc	17.548332
167	0x4206523c	33.580307
168	0x424672fa	49.61228
169	0x428349dc	65.64426
170	0x42a35a3b	81.67623
171	0x42c36a9a	97.708206
172	0x42e37af9	113.74018
173	0x4301c5ac	129.77216
174	0x4311cddc	145.80414
175	0x4321d60b	161.8361
176	0x4331de3b	177.86809
177	0x4341e66a	193.90005
178	0x4351ee9a	209.93204
179	0x4361f6c9	225.964
180	0xc381ac45	-259.34586
181	0xc37855a3	-248.33452
182	0xc36d52bc	-237.32318
183	0xc3624fd6	-226.31186
184	0xc3574cef	-215.30052
185	0xc34c4a09	-204.2892
186	0xc3414722	-193.27786
187	0xc336443d	-182.26656
188	0xc32b4155	-171.2552
189	0xc3203e6f	-160.24388
190	0xc3153b89	-149.23256
191	0xc30a38a3	-138.22124
192	0xc2fe6b79	-127.20991
193	0xc2e865ac	-116.19858
194	0xc2d25fe0	-105.187256
195	0xc2e63988	-115.112366
196	0xc2d4f85a	-106.48506
197	0xc2c3b72c	-97.85776
198	0xc2b275fe	-89.23045
199	0xc2a134d0	-80.60315
200	0xc28ff3a2	-71.975845
201	0xc27d64e7	-63.348537
202	0xc25ae28b	-54.721233
203	0xc238602e	-46.093925
204	0xc215ddd1	-37.466618
205	0xc1e6b6ed	-28.83932
206	0xc1a1b233	-20.212011
207	0xc1395af3	-11.584704
208	0xc03d45fc	-2.9573965
209	0x40b56fd8	5.669903
210	0x433d2926	189.16074
211	0x4347871a	199.52774
212	0x4351e50d	209.89473
213	0x435c4300	220.26172
214	0x4366a0f4	230.62872
215	0x4370fee7	240.99571
216	0x437b5cdb	251.36272
217	0x4382dd67	261.7297
218	0x43880c60	272.09668
219	0x438d3b5b	282.4637
220	0x43926a54	292.8307
221	0x4397994d	303.19766
222	0x439cc847	313.56467
223	0x43a1f740	323.93164
224	0x43a7263b	334.29868
225	0xc33731d3	-183.19463
226	0xc32c7243	-172.44633
227	0xc321b2b2	-161.69803
228	0xc316f321	-150.94972
229	0xc30c3391	-140.20143
230	0xc3017400	-129.45312
231	0xc2ed68df	-118.70483
232	0xc2d7e9bf	-107.956535
233	0xc2c26a9d	-97.20823
234	0xc2aceb7c	-86.45993
235	0xc2976c5c	-75.71164
236	0xc281ed3a	-64.96333
237	0xc258dc32	-54.215034
238	0xc22dddef	-43.466732
239	0xc202dfaf	-32.71844
240	0x433f477d	191.27925
241	0x4348652e	200.39523
242	0x435182de	209.5112
243	0x435aa08e	218.62717
244	0x4363be3f	227.74315
245	0x436cdbef	236.85912
246	0x4375f99f	245.97508
247	0x437f174e	255.09103
248	0x43841a80	264.20703
249	0x4388a957	273.32297
250	0x438d3830	282.43896
251	0x4391c708	291.55493
252	0x439655df	300.67087
253	0x439ae4b8	309.78687
254	0x439f7390	318.90283
255	0x42974032	75.62538

MultiThreshold_1_param0 f4 [32, 15]
0	0x3cdb8707	0.026797784
1	0x3cfc2b2e	0.030782308
2	0x3d0e67ab	0.034766834
3	0x3d1eb9be	0.038751356
4	0x3d2f0bd2	0.042735882
5	0x3d3f5de6	0.046720408
6	0x3d4faffa	0.050704934
7	0x3d60020d	0.054689456
8	0x3d705422	0.058673985
9	0x3d80531b	0.06265851
10	0x3d887c25	0.06664304
11	0x3d90a52f	0.07062756
12	0x3d98ce39	0.07461209
13	0x3da0f743	0.078596614
14	0x3da9204d	0.08258114
15	0x3d13ba4a	0.03606633
16	0x3d35245d	0.04422413
17	0x3d568e71	0.052381936
18	0x3d77f883	0.060539734
19	0x3d8cb14b	0.068697535
20	0x3d9d6654	0.07685533
21	0x3dae1b5e	0.085013136
22	0x3dbed067	0.09317093
23	0x3dcf8572	0.101328745
24	0x3de03a7b	0.10948654
25	0x3df0ef84	0.11764434
26	0x3e00d246	0.12580213
27	0x3e092ccb	0.13395993
28	0x3e118750	0.14211774
29	0x3e19e1d4	0.15027553
30	0x3cc86b82	0.024465326
31	0x3ce460fc	0.027878277
32	0x3d002b3a	0.031291224
33	0x3d0e25f7	0.034704175
34	0x3d1c20b5	0.03811713
35	0x3d2a1b72	0.04153008
36	0x3d38162f	0.04494303
37	0x3d4610ec	0.04835598
38	0x3d540ba9	0.051768932
39	0x3d620666	0.055181883
40	0x3d700123	0.058594834
41	0x3d7dfbe0	0.062007785
42	0x3d85fb4e	0.06542073
43	0x3d8cf8ad	0.06883369
44	0x3d93f60b	0.07224663
45	0x3cd8fe8d	0.026488567
46	0x3cfa7dfe	0.030577656
47	0x3d0dfeb8	0.034666747
48	0x3d1ebe71	0.038755838
49	0x3d2f7e2a	0.04284493
50	0x3d403de3	0.04693402
51	0x3d50fd9b	0.051023107
52	0x3d61bd54	0.055112198
53	0x3d727d0d	0.05920129
54	0x3d819e63	0.06329038
55	0x3d89fe3f	0.06737947
56	0x3d925e1b	0.071468554
57	0x3d9abdf8	0.07555765
58	0x3da31dd4	0.07964674
59	0x3dab7db1	0.08373583
60	0x3cb25653	0.021769678
61	0x3cce823c	0.025208585
62	0x3ceaae26	0.028647494
63	0x3d036d07	0.0320864
64	0x3d1182fb	0.035525303
65	0x3d1f98f0	0.038964212
66	0x3d2daee4	0.042403117
67	0x3d3bc4d9	0.045842025
68	0x3d49dacd	0.04928093
69	0x3d57f0c2	0.05271984
70	0x3d6606b6	0.056158744
71	0x3d741cab	0.059597652
72	0x3d811950	0.06303656
73	0x3d88244a	0.066475466
74	0x3d8f2f44	0.06991437
75	0x3d02d7b5	0.031943996
76	0x3d3bbcf6	0.045834504
77	0x3d74a237	0.059725013
78	0x3d96c3bc	0.07361552
79	0x3db3365c	0.087506026
80	0x3dcfa8fd	0.10139654
81	0x3dec1b9e	0.11528705
82	0x3e04471f	0.12917756
83	0x3e12806f	0.14306806
84	0x3e20b9bf	0.15695857
85	0x3e2ef30f	0.17084907
86	0x3e3d2c5f	0.18473957
87	0x3e4b65b0	0.1986301
88	0x3e599f00	0.2125206
89	0x3e67d851	0.22641112
90	0x3d284cb6	0.041088782
91	0x3d3ef73e	0.046622507
92	0x3d55a1c6	0.052156232
93	0x3d6c4c4e	0.057689957
94	0x3d817b6b	0.06322368
95	0x3d8cd0af	0.06875741
96	0x3d9825f3	0.07429113
97	0x3da37b37	0.07982486
98	0x3daed07c	0.08535859
99	0x3dba25c0	0.090892315
100	0x3dc57b04	0.09642604
101	0x3dd0d048	0.101959765
102	0x3ddc258c	0.10749349
103	0x3de77ad0	0.113027215
104	0x3df2d014	0.11856094
105	0x3d20d997	0.03927001
106	0x3d45613e	0.04818844
107	0x3d69e8e5	0.05710687
108	0x3d873846	0.0660253
109	0x3d997c1b	0.07494374
110	0x3dabbfee	0.08386217
111	0x3dbe03c2	0.092780605
112	0x3dd04795	0.10169903
113	0x3de28b69	0.110617466
114	0x3df4cf3c	0.11953589
115	0x3e038989	0.12845434
116	0x3e0cab72	0.13737276
117	0x3e15cd5c	0.1462912
118	0x3e1eef46	0.15520963
119	0x3e281130	0.16412807
120	0xba34e46f	-0.00069004943
121	0x3c8324bd	0.01600873
122	0x3d05f84f	0.03270751
123	0x3d4a5e3f	0.049406286
124	0x3d876218	0.06610507
125	0x3da99510	0.082803845
126	0x3dcbc808	0.09950262
127	0x3dedfb00	0.1162014
128	0x3e0816fc	0.13290018
129	0x3e193078	0.14959896
130	0x3e2a49f4	0.16629773
131	0x3e3b6370	0.18299651
132	0x3e4c7cec	0.19969529
133	0x3e5d9668	0.21639407
134	0x3e6eafe4	0.23309284
135	0x3b739ac4	0.0037171105
136	0x3c3cd100	0.011524439
137	0x3c9e5da7	0.019331766
138	0x3cde52ce	0.027139094
139	0x3d0f23fb	0.034946423
140	0x3d2f1e8f	0.042753752
141	0x3d4f1922	0.050561078
142	0x3d6f13b6	0.058368407
143	0x3d878725	0.06617574
144	0x3d97846f	0.073983066
145	0x3da781b8	0.08179039
146	0x3db77f02	0.08959772
147	0x3dc77c4c	0.097405046
148	0x3dd77996	0.105212376
149	0x3de776df	0.1130197
150	0x3d880cd5	0.066430725
151	0x3dbcb313	0.09213843
152	0x3df15951	0.11784614
153	0x3e12ffc7	0.14355384
154	0x3e2d52e7	0.16926156
155	0x3e47a606	0.19496927
156	0x3e61f925	0.22067697
157	0x3e7c4c44	0.24638468
158	0x3e8b4fb1	0.27209237
159	0x3e987940	0.29780006
160	0x3ea5a2d0	0.3235078
161	0x3eb2cc5f	0.34921548
162	0x3ebff5ee	0.37492317
163	0x3ecd1f7e	0.4006309
164	0x3eda490e	0.4263386
165	0x3d02fa2c	0.031976864
166	0x3d1575e8	0.036489397
167	0x3d27f1a3	0.041001927
168	0x3d3a6d5e	0.045514457
169	0x3d4ce91a	0.05002699
170	0x3d5f64d5	0.05453952
171	0x3d71e090	0.05905205
172	0x3d822e26	0.06356458
173	0x3d8b6c04	0.06807712
174	0x3d94a9e1	0.07258964
175	0x3d9de7bf	0.07710218
176	0x3da7259d	0.08161471
177	0x3db0637a	0.08612724
178	0x3db9a158	0.09063977
179	0x3dc2df35	0.095152296
180	0x3caa8bc9	0.020818608
181	0x3cd5fea9	0.026122408
182	0x3d00b8c5	0.03142621
183	0x3d167235	0.03673001
184	0x3d2c2ba5	0.04203381
185	0x3d41e515	0.04733761
186	0x3d579e85	0.05264141
187	0x3d6d57f5	0.05794521
188	0x3d8188b3	0.063249014
189	0x3d8c656b	0.068552814
190	0x3d974223	0.073856615
191	0x3da21edb	0.079160415
192	0x3dacfb93	0.084464215
193	0x3db7d84b	0.089768015
194	0x3dc2b503	0.095071815
195	0x3cffee2c	0.031241499
196	0x3d356f98	0.044295877
197	0x3d6ae81b	0.05735026
198	0x3d90304e	0.070404634
199	0x3daaec8f	0.08345901
200	0x3dc5a8d0	0.09651339
201	0x3de06511	0.10956777
202	0x3dfb2152	0.12262215
203	0x3e0aeeca	0.13567653
204	0x3e184ceb	0.14873092
205	0x3e25ab0b	0.16178529
206	0x3e33092c	0.17483968
207	0x3e40674c	0.18789405
208	0x3e4dc56d	0.20094843
209	0x3e5b238d	0.2140028
210	0x3c13633a	0.008995825
211	0x3c8af296	0.016961377
212	0x3ccc338f	0.024926929
213	0x3d06ba45	0.032892484
214	0x3d275ac1	0.040858034
215	0x3d47fb3e	0.048823588
216	0x3d689bba	0.056789137
217	0x3d849e1b	0.06475469
218	0x3d94ee5a	0.072720245
219	0x3da53e99	0.0806858
220	0x3db58ed7	0.08865135
221	0x3dc5df15	0.0966169
222	0x3dd62f53	0.10458245
223	0x3de67f91	0.112548
224	0x3df6cfcf	0.12051355
225	0x3c8c704b	0.01714339
226	0x3d40d039	0.047073577
227	0x3d9db426	0.07700376
228	0x3ddb002f	0.106933944
229	0x3e0c261e	0.13686416
230	0x3e2acc23	0.16679434
231	0x3e497227	0.19672452
232	0x3e68182c	0.22665471
233	0x3e835f18	0.25658488
234	0x3e92b21b	0.2865151
235	0x3ea2051d	0.31644526
236	0x3eb1581f	0.34637544
237	0x3ec0ab22	0.37630564
238	0x3ecffe24	0.4062358
239	0x3edf5127	0.43616602
240	0xbbc4a704	-0.006001355
241	0x3b15cc63	0.002285742
242	0x3c2d39b3	0.010572839
243	0x3c9a8025	0.018859932
244	0x3cde6374	0.027147032
245	0x3d112361	0.03543413
246	0x3d331507	0.043721225
247	0x3d5506ad	0.05200832
248	0x3d76f855	0.06029542
249	0x3d8c74fe	0.06858252
250	0x3d9d6dd1	0.076869614
251	0x3dae66a4	0.08515671
252	0x3dbf5f78	0.09344381
253	0x3dd0584b	0.101730905
254	0x3de1511e	0.110018
255	0x3c1a90a5	0.0094339
