models/qcnn_lstm_real_c0.5/subcnn_debug/subcnn_finn_streamlined11.onnx (onnx, 35768 bytes, 9 tensors)

Add_1_param0 f4 [1, 32, 1, 1]
00000000: ba7d 8537 c598 7436 670b 8c38 5747 0338
00000010: c184 b937 db08 e535 ccd3 8337 60bb 9336
00000020: 4fca 4735 85b6 28b6 5b57 5bb5 614f f037
00000030: 8309 8737 a66f be36 abe7 0437 cd61 56b5
00000040: d55c dd36 5755 8d35 ad86 1535 2014 3e35
00000050: 8759 42b6 ef36 cf36 9df0 6bb3 daeb f7b5
00000060: 88ed 2f35 b626 8236 d445 98b6 523f edb4
00000070: 6fc0 e5b6 2ce8 d336 ae8e 24b6 22dd 0ab5
1.5913382e-05 3.6447757e-06 6.677844e-05 3.1299274e-05 2.2115537e-05 1.7064407e-06 1.5715043e-05 4.4027547e-06
7.4427675e-07 -2.5140191e-06 -8.1710976e-07 2.8647193e-05 1.6097683e-05 5.675439e-06 7.9217525e-06 -7.986353e-07
6.5971203e-06 1.0530156e-06 5.5702805e-07 7.08098e-07 -2.8960364e-06 6.175476e-06 -5.4934038e-08 -1.8471576e-06
6.5538234e-07 3.8788085e-06 -4.538082e-06 -4.4190762e-07 -6.847134e-06 6.3153184e-06 -2.4520955e-06 -5.1730797e-07

Conv_0_param0 f4 [32, 1, 3, 1]
00000000: 0000 e0c0 0000 a040 0000 0040 0000 e0c0
00000010: 0000 8040 0000 a040 0000 a040 0000 0000
00000020: 0000 a0c0 0000 80c0 0000 40c0 0000 e040
00000030: 0000 8040 0000 0000 0000 80c0 0000 e040
00000040: 0000 8040 0000 e0c0 0000 a040 0000 0040
00000050: 0000 c0c0 0000 e0c0 0000 a040 0000 8040
00000060: 0000 a0c0 0000 80bf 0000 0040 0000 0000
00000070: 0000 c0c0 0000 8040 0000 40c0 0000 4040
00000080: 0000 c040 0000 e0c0 0000 803f 0000 c040
00000090: 0000 803f 0000 a040 0000 e0c0 0000 4040
000000a0: 0000 803f 0000 e0c0 0000 e0c0 0000 0000
000000b0: 0000 a040 0000 80bf 0000 803f 0000 e0c0
000000c0: 0000 803f 0000 e0c0 0000 8040 0000 80bf
000000d0: 0000 c040 0000 40c0 0000 e040 0000 0000
000000e0: 0000 40c0 0000 00c0 0000 4040 0000 4040
000000f0: 0000 e040 0000 00c0 0000 40c0 0000 8040
00000100: 0000 e040 0000 e0c0 0000 a0c0 0000 e040
00000110: 0000 a0c0 0000 c040 0000 c0c0 0000 4040
00000120: 0000 e0c0 0000 a040 0000 8040 0000 c040
00000130: 0000 0040 0000 c0c0 0000 00c0 0000 e040
00000140: 0000 e0c0 0000 0040 0000 80bf 0000 e040
00000150: 0000 00c0 0000 e0c0 0000 c040 0000 4040
00000160: 0000 e0c0 0000 803f 0000 40c0 0000 803f
00000170: 0000 c040 0000 8040 0000 80bf 0000 c0c0
-7.0 5.0 2.0 -7.0 4.0 5.0 5.0 0.0
-5.0 -4.0 -3.0 7.0 4.0 0.0 -4.0 7.0
4.0 -7.0 5.0 2.0 -6.0 -7.0 5.0 4.0
-5.0 -1.0 2.0 0.0 -6.0 4.0 -3.0 3.0
6.0 -7.0 1.0 6.0 1.0 5.0 -7.0 3.0
1.0 -7.0 -7.0 0.0 5.0 -1.0 1.0 -7.0
1.0 -7.0 4.0 -1.0 6.0 -3.0 7.0 0.0
-3.0 -2.0 3.0 3.0 7.0 -2.0 -3.0 4.0
7.0 -7.0 -5.0 7.0 -5.0 6.0 -6.0 3.0
-7.0 5.0 4.0 6.0 2.0 -6.0 -2.0 7.0
-7.0 2.0 -1.0 7.0 -2.0 -7.0 6.0 3.0
-7.0 1.0 -3.0 1.0 6.0 4.0 -1.0 -6.0

Conv_1_param0 f4 [64, 32, 3, 1]
00000000: 0000 0000 0000 0040 0000 00c0 0000 80bf
00000010: 0000 80bf 0000 80bf 0000 00c0 0000 00c0
00000020: 0000 40c0 0000 8040 0000 80bf 0000 00c0
00000030: 0000 0000 0000 0040 0000 0000 0000 00c0
00000040: 0000 803f 0000 a040 0000 00c0 0000 80bf
00000050: 0000 00c0 0000 8040 0000 0000 0000 80bf
00000060: 0000 80bf 0000 80c0 0000 00c0 0000 803f
00000070: 0000 0040 0000 00c0 0000 0040 0000 80bf
00000080: 0000 00c0 0000 803f 0000 0000 0000 00c0
00000090: 0000 803f 0000 00c0 0000 00c0 0000 803f
000000a0: 0000 00c0 0000 80c0 0000 80c0 0000 80bf
000000b0: 0000 0000 0000 0000 0000 80bf 0000 40c0
000000c0: 0000 40c0 0000 80c0 0000 00c0 0000 4040
000000d0: 0000 a040 0000 80bf 0000 0040 0000 0040
000000e0: 0000 a040 0000 4040 0000 4040 0000 0000
000000f0: 0000 80bf 0000 0040 0000 c040 0000 0000
00000100: 0000 a040 0000 8040 0000 00c0 0000 80bf
00000110: 0000 00c0 0000 0040 0000 803f 0000 0040
00000120: 0000 0000 0000 0000 0000 0000 0000 40c0
00000130: 0000 8040 0000 a040 0000 80c0 0000 80c0
00000140: 0000 0000 0000 8040 0000 0040 0000 0000
00000150: 0000 80bf 0000 0040 0000 803f 0000 4040
00000160: 0000 803f 0000 40c0 0000 0040 0000 0000
00000170: 0000 00c0 0000 803f 0000 0000 0000 80bf
00000180: 0000 0000 0000 80bf 0000 803f 0000 803f
00000190: 0000 8040 0000 40c0 0000 80c0 0000 4040
000001a0: 0000 8040 0000 0000 0000 e040 0000 40c0
000001b0: 0000 00c0 0000 0040 0000 4040 0000 0000
000001c0: 0000 0000 0000 0000 0000 0000 0000 0000
000001d0: 0000 c040 0000 803f 0000 0040 0000 40c0
000001e0: 0000 803f 0000 803f 0000 80bf 0000 803f
000001f0: 0000 80bf 0000 0040 0000 0000 0000 4040
00000200: 0000 803f 0000 0000 0000 00c0 0000 e040
00000210: 0000 00c0 0000 a040 0000 80bf 0000 8040
00000220: 0000 0040 0000 80bf 0000 803f 0000 0000
00000230: 0000 80bf 0000 803f 0000 803f 0000 0040
00000240: 0000 0040 0000 0000 0000 0000 0000 803f
00000250: 0000 0000 0000 0000 0000 00c0 0000 803f
00000260: 0000 803f 0000 803f 0000 0000 0000 803f
00000270: 0000 80bf 0000 80bf 0000 803f 0000 0040
00000280: 0000 80bf 0000 4040 0000 80bf 0000 80bf
00000290: 0000 80bf 0000 0000 0000 0000 0000 80bf
000002a0: 0000 0040 0000 0040 0000 00c0 0000 0000
000002b0: 0000 00c0 0000 80bf 0000 803f 0000 803f
000002c0: 0000 80bf 0000 803f 0000 0000 0000 803f
000002d0: 0000 0000 0000 0000 0000 803f 0000 80bf
000002e0: 0000 80bf 0000 803f 0000 4040 0000 0000
000002f0: 0000 803f 0000 4040 0000 803f 0000 803f
00000300: 0000 0040 0000 0000 0000 40c0 0000 0040
00000310: 0000 803f 0000 0000 0000 80bf 0000 8040
00000320: 0000 0000 0000 80bf 0000 80bf 0000 00c0
00000330: 0000 803f 0000 0040 0000 80bf 0000 0040
00000340: 0000 e040 0000 8040 0000 00c0 0000 00c0
00000350: 0000 803f 0000 0040 0000 0000 0000 00c0
00000360: 0000 a0c0 0000 a0c0 0000 40c0 0000 80bf
00000370: 0000 00c0 0000 0000 0000 0000 0000 0000
00000380: 0000 0000 0000 0000 0000 803f 0000 00c0
00000390: 0000 0000 0000 803f 0000 00c0 0000 00c0
000003a0: 0000 00c0 0000 40c0 0000 0040 0000 0000
000003b0: 0000 80bf 0000 0000 0000 40c0 0000 0000
000003c0: 0000 0000 0000 80c0 0000 00c0 0000 0040
000003d0: 0000 803f 0000 0040 0000 4040 0000 8040
000003e0: 0000 8040 0000 0000 0000 80bf 0000 80bf
000003f0: 0000 4040 0000 4040 0000 c040 0000 0000
0.0 2.0 -2.0 -1.0 -1.0 -1.0 -2.0 -2.0
-3.0 4.0 -1.0 -2.0 0.0 2.0 0.0 -2.0
1.0 5.0 -2.0 -1.0 -2.0 4.0 0.0 -1.0
-1.0 -4.0 -2.0 1.0 2.0 -2.0 2.0 -1.0
-2.0 1.0 0.0 -2.0 1.0 -2.0 -2.0 1.0
-2.0 -4.0 -4.0 -1.0 0.0 0.0 -1.0 -3.0
-3.0 -4.0 -2.0 3.0 5.0 -1.0 2.0 2.0
5.0 3.0 3.0 0.0 -1.0 2.0 6.0 0.0
5.0 4.0 -2.0 -1.0 -2.0 2.0 1.0 2.0
0.0 0.0 0.0 -3.0 4.0 5.0 -4.0 -4.0
0.0 4.0 2.0 0.0 -1.0 2.0 1.0 3.0
1.0 -3.0 2.0 0.0 -2.0 1.0 0.0 -1.0
0.0 -1.0 1.0 1.0 4.0 -3.0 -4.0 3.0
4.0 0.0 7.0 -3.0 -2.0 2.0 3.0 0.0
0.0 0.0 0.0 0.0 6.0 1.0 2.0 -3.0
1.0 1.0 -1.0 1.0 -1.0 2.0 0.0 3.0
1.0 0.0 -2.0 7.0 -2.0 5.0 -1.0 4.0
2.0 -1.0 1.0 0.0 -1.0 1.0 1.0 2.0
2.0 0.0 0.0 1.0 0.0 0.0 -2.0 1.0
1.0 1.0 0.0 1.0 -1.0 -1.0 1.0 2.0
-1.0 3.0 -1.0 -1.0 -1.0 0.0 0.0 -1.0
2.0 2.0 -2.0 0.0 -2.0 -1.0 1.0 1.0
-1.0 1.0 0.0 1.0 0.0 0.0 1.0 -1.0
-1.0 1.0 3.0 0.0 1.0 3.0 1.0 1.0
2.0 0.0 -3.0 2.0 1.0 0.0 -1.0 4.0
0.0 -1.0 -1.0 -2.0 1.0 2.0 -1.0 2.0
7.0 4.0 -2.0 -2.0 1.0 2.0 0.0 -2.0
-5.0 -5.0 -3.0 -1.0 -2.0 0.0 0.0 0.0
0.0 0.0 1.0 -2.0 0.0 1.0 -2.0 -2.0
-2.0 -3.0 2.0 0.0 -1.0 0.0 -3.0 0.0
0.0 -4.0 -2.0 2.0 1.0 2.0 3.0 4.0
4.0 0.0 -1.0 -1.0 3.0 3.0 6.0 0.0

MultiThreshold_0_param0 f4 [1, 255]
00000000: e39a 29bf 5946 28bf cef1 26bf 449d 25bf
00000010: ba48 24bf 2ff4 22bf a59f 21bf 1b4b 20bf
00000020: 90f6 1ebf 06a2 1dbf 7c4d 1cbf f1f8 1abf
00000030: 67a4 19bf dd4f 18bf 53fb 16bf c8a6 15bf
00000040: 3e52 14bf b4fd 12bf 29a9 11bf 9f54 10bf
00000050: 1500 0fbf 8aab 0dbf 0057 0cbf 7602 0bbf
00000060: ebad 09bf 6159 08bf d704 07bf 4cb0 05bf
00000070: c25b 04bf 3807 03bf adb2 01bf 235e 00bf
00000080: 3213 febe 1d6a fbbe 08c1 f8be f417 f6be
00000090: df6e f3be cac5 f0be b61c eebe a173 ebbe
000000a0: 8cca e8be 7821 e6be 6378 e3be 4ecf e0be
000000b0: 3a26 debe 257d dbbe 11d4 d8be fc2a d6be
000000c0: e781 d3be d3d8 d0be be2f cebe a986 cbbe
000000d0: 95dd c8be 8034 c6be 6b8b c3be 57e2 c0be
000000e0: 4239 bebe 2d90 bbbe 19e7 b8be 043e b6be
000000f0: f094 b3be dbeb b0be c642 aebe b299 abbe
00000100: 9df0 a8be 8847 a6be 749e a3be 5ff5 a0be
00000110: 4a4c 9ebe 36a3 9bbe 21fa 98be 0d51 96be
00000120: f8a7 93be e3fe 90be cf55 8ebe baac 8bbe
00000130: a503 89be 915a 86be 7cb1 83be 6708 81be
00000140: a6be 7cbe 7c6c 77be 531a 72be 2ac8 6cbe
00000150: 0076 67be d723 62be aed1 5cbe 857f 57be
00000160: 5b2d 52be 32db 4cbe 0989 47be df36 42be
00000170: b6e4 3cbe 8d92 37be 6440 32be 3aee 2cbe
00000180: 119c 27be e849 22be bef7 1cbe 95a5 17be
00000190: 6c53 12be 4301 0dbe 19af 07be f05c 02be
000001a0: 8e15 fabd 3b71 efbd e8cc e4bd 9628 dabd
000001b0: 4384 cfbd f1df c4bd 9e3b babd 4c97 afbd
000001c0: f9f2 a4bd a64e 9abd 54aa 8fbd 0106 85bd
000001d0: 5ec3 74bd b87a 5fbd 1332 4abd 6ee9 34bd
000001e0: c9a0 1fbd 2458 0abd fe1e eabc b38d bfbc
000001f0: 69fc 94bc 3ed6 54bc 5267 ffbb 5244 2abb
00000200: 0046 2a3b 2968 ff3b a9d6 543c 9ffc 943c
00000210: e98d bf3c 331f ea3c 3f58 0a3d e4a0 1f3d
00000220: 89e9 343d 2e32 4a3d d37a 5f3d 78c3 743d
00000230: 0f06 853d 61aa 8f3d b44e 9a3d 06f3 a43d
00000240: 5997 af3d ac3b ba3d fedf c43d 5184 cf3d
00000250: a328 da3d f6cc e43d 4871 ef3d 9b15 fa3d
00000260: f75c 023e 20af 073e 4901 0d3e 7353 123e
00000270: 9ca5 173e c5f7 1c3e ee49 223e 189c 273e
00000280: 41ee 2c3e 6a40 323e 9492 373e bde4 3c3e
00000290: e636 423e 0f89 473e 39db 4c3e 622d 523e
000002a0: 8b7f 573e b5d1 5c3e de23 623e 0776 673e
000002b0: 30c8 6c3e 5a1a 723e 836c 773e acbe 7c3e
000002c0: 6b08 813e 7fb1 833e 945a 863e a903 893e
000002d0: bdac 8b3e d255 8e3e e7fe 903e fba7 933e
000002e0: 1051 963e 25fa 983e 39a3 9b3e 4e4c 9e3e
000002f0: 62f5 a03e 779e a33e 8c47 a63e a0f0 a83e
00000300: b599 ab3e ca42 ae3e deeb b03e f394 b33e
00000310: 083e b63e 1ce7 b83e 3190 bb3e 4539 be3e
00000320: 5ae2 c03e 6f8b c33e 8334 c63e 98dd c83e
00000330: ad86 cb3e c12f ce3e d6d8 d03e eb81 d33e
00000340: ff2a d63e 14d4 d83e 297d db3e 3d26 de3e
00000350: 52cf e03e 6678 e33e 7b21 e63e 90ca e83e
00000360: a473 eb3e b91c ee3e cec5 f03e e26e f33e
00000370: f717 f63e 0cc1 f83e 206a fb3e 3513 fe3e
00000380: 255e 003f afb2 013f 3907 033f c45b 043f
00000390: 4eb0 053f d804 073f 6359 083f edad 093f
000003a0: 7702 0b3f 0257 0c3f 8cab 0d3f 1600 0f3f
000003b0: a154 103f 2ba9 113f b5fd 123f 4052 143f
000003c0: caa6 153f 54fb 163f df4f 183f 69a4 193f
000003d0: f3f8 1a3f 7d4d 1c3f 08a2 1d3f 92f6 1e3f
000003e0: 1c4b 203f a79f 213f 31f4 223f bb48 243f
000003f0: 469d 253f d0f1 263f 5a46 283f
-0.66251963 -0.6573234 -0.65212715 -0.64693093 -0.6417347 -0.63653845 -0.63134223 -0.626146
-0.62094975 -0.61575353 -0.6105573 -0.60536104 -0.60016483 -0.5949686 -0.5897724 -0.58457613
-0.5793799 -0.5741837 -0.5689874 -0.5637912 -0.558595 -0.5533987 -0.5482025 -0.5430063
-0.53781 -0.5326138 -0.5274176 -0.5222213 -0.5170251 -0.5118289 -0.5066326 -0.5014364
-0.4962402 -0.49104396 -0.4858477 -0.4806515 -0.47545525 -0.470259 -0.4650628 -0.45986655
-0.4546703 -0.4494741 -0.44427785 -0.4390816 -0.4338854 -0.42868915 -0.42349294 -0.4182967
-0.41310045 -0.40790424 -0.402708 -0.39751175 -0.39231554 -0.3871193 -0.38192305 -0.37672684
-0.3715306 -0.36633435 -0.36113814 -0.3559419 -0.35074568 -0.34554943 -0.3403532 -0.33515698
-0.32996073 -0.3247645 -0.31956828 -0.31437203 -0.3091758 -0.30397958 -0.29878333 -0.29358712
-0.28839087 -0.28319463 -0.27799842 -0.27280217 -0.26760593 -0.26240972 -0.25721347 -0.25201723
-0.24682102 -0.24162477 -0.23642854 -0.23123232 -0.22603607 -0.22083984 -0.21564361 -0.21044739
-0.20525114 -0.20005491 -0.19485869 -0.18966244 -0.18446621 -0.17926998 -0.17407376 -0.16887751
-0.16368128 -0.15848505 -0.15328881 -0.14809258 -0.14289635 -0.13770013 -0.13250388 -0.12730765
-0.122111425 -0.11691519 -0.11171895 -0.106522724 -0.10132649 -0.09613026 -0.09093402 -0.085737795
-0.08054156 -0.07534532 -0.070149094 -0.06495286 -0.05975663 -0.054560393 -0.04936416 -0.04416793
-0.038971696 -0.033775464 -0.028579231 -0.023382997 -0.018186765 -0.012990532 -0.007794299 -0.0025980663
0.0025981665 0.0077943993 0.012990632 0.018186865 0.023383098 0.02857933 0.033775564 0.038971797
0.04416803 0.04936426 0.054560494 0.059756726 0.06495296 0.07014919 0.07534543 0.080541655
0.08573789 0.09093413 0.096130356 0.10132659 0.10652282 0.11171906 0.116915286 0.12211152
0.12730776 0.13250399 0.13770021 0.14289646 0.14809269 0.15328892 0.15848514 0.16368139
0.16887762 0.17407385 0.17927009 0.18446632 0.18966255 0.19485877 0.20005502 0.20525125
0.21044748 0.21564372 0.22083995 0.22603618 0.2312324 0.23642865 0.24162488 0.2468211
0.25201735 0.25721356 0.2624098 0.26760605 0.27280226 0.2779985 0.28319475 0.28839096
0.2935872 0.29878345 0.30397967 0.3091759 0.31437212 0.31956837 0.3247646 0.32996082
0.33515707 0.3403533 0.34554952 0.35074577 0.355942 0.36113822 0.36633447 0.37153068
0.37672693 0.38192317 0.38711938 0.39231563 0.39751187 0.40270808 0.40790433 0.41310057
0.41829678 0.42349303 0.42868927 0.43388548 0.43908173 0.44427794 0.4494742 0.45467043
0.45986664 0.4650629 0.47025913 0.47545534 0.4806516 0.48584783 0.49104404 0.4962403
0.50143653 0.50663275 0.51182896 0.51702523 0.52222145 0.52741766 0.53261393 0.53781015
0.54300636 0.54820263 0.55339885 0.55859506 0.56379133 0.56898755 0.57418376 0.57938004
0.58457625 0.58977246 0.59496874 0.60016495 0.60536116 0.6105574 0.61575365 0.62094986
0.6261461 0.63134235 0.63653857 0.6417348 0.64693105 0.65212727 0.6573235

Add_0_param0 f4 [1, 32, 1, 1]
00000000: 0000 0000 0000 80c3 0000 0000 0000 0000
00000010: 0000 0000 0000 00c4 0000 00c3 0000 80c3
00000020: 0000 0044 0000 8043 0000 40c4 0000 0000
00000030: 0000 0043 0000 c043 0000 8043 0000 6044
00000040: 0000 8043 0000 80c3 0000 00c4 0000 00c4
00000050: 0000 80c3 0000 00c4 0000 c043 0000 c0c3
00000060: 0000 80c3 0000 80c3 0000 8043 0000 80c4
00000070: 0000 c043 0000 c043 0000 00c4 0000 c043
0.0 -256.0 0.0 0.0 0.0 -512.0 -128.0 -256.0
512.0 256.0 -768.0 0.0 128.0 384.0 256.0 896.0
256.0 -256.0 -512.0 -512.0 -256.0 -512.0 384.0 -384.0
-256.0 -256.0 256.0 -1024.0 384.0 384.0 -512.0 384.0

Mul_1_param0 f4 [1, 32, 1, 1]
00000000: d1e5 f941 a21d 7441 d4df 1142 e681 f341
00000010: f7c5 1042 155e 0f41 f5ef b341 b44b 5f41
00000020: a083 ee40 fc12 7f41 15ee 9a40 52a8 dc41
00000030: e0bc bb41 d78c 1841 eb01 7a41 a612 8540
00000040: 9a4e 7041 9155 5441 13f4 d040 66bc c640
00000050: 0b83 5c41 639d 0441 419d 2541 a8ab 1241
00000060: 5121 4f41 900c 6a41 3668 8041 f437 3f40
00000070: af04 3641 e614 3241 f1d8 e940 c7c3 1441
31.237215 15.257235 36.468582 30.438427 36.193325 8.960469 22.492167 13.955982
7.4535675 15.942135 4.8415627 27.582188 23.467224 9.534385 15.625468 4.1585264
15.01919 13.27089 6.529794 6.210498 13.781993 8.2884245 10.350892 9.166908
12.945634 14.628067 16.050884 2.98779 11.376143 11.130102 7.307732 9.297797

Mul_2_param0 f4 [1, 64, 1, 1]
00000000: 8882 883b 1061 323c d94d 7d3b c5a3 193c
00000010: 6e32 103c 22ff 863b 681a 0f3c 71f8 f93b
00000020: cc5e e33b 4438 b13b dcf6 513c 4b17 893b
00000030: 1999 c73b fdc0 fe3b e800 d43b 877b cc3b
00000040: 0419 f13b 0259 9b3b c087 153c d0fb 0f3c
00000050: 712d d03b 35b2 163c a6b6 903b 4631 753c
00000060: 0a8e 2c3c 117f 123c 1c33 173c 177c 163c
00000070: 525b ab3b 0774 b23b cb84 093c 4e24 8a3b
00000080: 10f7 383c e07a e83b ee20 043c 1c90 263c
00000090: d8d5 183c e864 873b dfb9 3e3c 024d 973b
000000a0: fa02 2f3c 2232 163c 63c9 0c3c 3560 243c
000000b0: e8af d33b c4c0 163c 1eea 0d3c 0404 073c
000000c0: 2e78 6c3c 0dac fb3b f1f6 db3b ea31 a23b
000000d0: 597c 363c 8a8e f63b 676c 283c 55aa bc3b
000000e0: dc54 9e3b 9268 043c 1f6e d53b c6db 943c
000000f0: 6911 fa3b 8829 173c abb2 8c3b 0175 133c
0.004165951 0.010887399 0.0038651137 0.009377425 0.008801086 0.0041197697 0.008734323 0.0076284935
0.006938791 0.0054083187 0.0128152035 0.004183685 0.0060912487 0.007774471 0.0064698346 0.0062403115
0.0073577184 0.004740835 0.009126604 0.008788064 0.0063530733 0.009197761 0.0044163046 0.014965361
0.010531912 0.008941428 0.009228494 0.009184859 0.005229392 0.0054459604 0.008393477 0.0042157536
0.011289373 0.007094726 0.008064492 0.010166194 0.009328328 0.004131902 0.011640995 0.0046173343
0.010681862 0.009167226 0.008592936 0.010032703 0.0064601786 0.009201232 0.008661775 0.0082407035
0.01443295 0.007680422 0.0067127873 0.004949798 0.011138045 0.007524316 0.010279751 0.00575761
0.0048318934 0.008081572 0.0065133716 0.018171202 0.00763147 0.00922621 0.00429376 0.009000064

MultiThreshold_1_param0 f4 [32, 15]
00000000: fc6b 563f f448 763f f612 8b3f 7201 9b3f
00000010: eeef aa3f 6ade ba3f e6cc ca3f 62bb da3f
00000020: dfa9 ea3f 5b98 fa3f 6c43 0540 aa3a 0d40
00000030: e831 1540 2629 1d40 6420 2540 4de2 0c3f
00000040: 45bf 2c3f 3e9c 4c3f 3679 6c3f 172b 863f
00000050: 9319 963f 0f08 a63f 8bf6 b53f 08e5 c53f
00000060: 84d3 d53f 00c2 e53f 7cb0 f53f 7ccf 0240
00000070: bac6 0a40 f8bd 1240 da07 653f 6972 823f
00000080: e560 923f 614f a23f de3d b23f 5a2c c23f
00000090: d61a d23f 5209 e23f cef7 f13f 25f3 0040
000000a0: 63ea 0840 a1e1 1040 dfd8 1840 1dd0 2040
000000b0: 5bc7 2840 2ba6 4e3f 2383 6e3f 0e30 873f
000000c0: 8a1e 973f 060d a73f 82fb b63f fee9 c63f
000000d0: 7ad8 d63f f6c6 e63f 72b5 f63f f751 0340
000000e0: 3549 0b40 7340 1340 b137 1b40 ef2e 2340
000000f0: 63e9 493f 5bc6 693f aad1 843f 26c0 943f
00000100: a2ae a43f 1e9d b43f 9a8b c43f 167a d43f
00000110: 9268 e43f 0e57 f43f c522 0240 031a 0a40
00000120: 4111 1240 7f08 1a40 bdff 2140 298f 923e
00000130: 1949 d23e 8501 093f 7dde 283f 75bb 483f
00000140: 6d98 683f b33a 843f 2f29 943f ab17 a43f
00000150: 2706 b43f a3f4 c33f 1fe3 d33f 9bd1 e33f
00000160: 17c0 f33f 4ad7 0140 f1ad 6c3f 7545 863f
00000170: f133 963f 6d22 a63f e910 b63f 65ff c53f
00000180: e1ed d53f 5ddc e53f daca f53f abdc 0240
00000190: e9d3 0a40 27cb 1240 65c2 1a40 a3b9 2240
000001a0: e1b0 2a40 2251 0c3f 1a2e 2c3f 120b 4c3f
000001b0: 0ae8 6b3f 82e2 853f fed0 953f 7abf a53f
000001c0: f6ad b53f 729c c53f ee8a d53f 6a79 e53f
000001d0: e667 f53f 31ab 0240 6fa2 0a40 ad99 1240
000001e0: d85a a8bb 1462 f43d eba4 793e 668c bc3e
000001f0: 5646 fc3e 2300 1e3f 1bdd 3d3f 13ba 5d3f
00000200: 0c97 7d3f 02ba 8e3f 7ea8 9e3f fa96 ae3f
00000210: 7685 be3f f273 ce3f 6e62 de3f 338f 723d
00000220: ae17 3c3e c7c5 9d3e b77f dd3e d49c 0e3f
00000230: cc79 2e3f c456 4e3f bc33 6e3f 5b08 873f
00000240: d7f6 963f 53e5 a63f cfd3 b63f 4bc2 c63f
00000250: c7b0 d63f 439f e63f f9ab a43e ea65 e43e
00000260: ed0f 123f e5ec 313f dec9 513f d6a6 713f
00000270: e7c1 883f 63b0 983f df9e a83f 5b8d b83f
00000280: d77b c83f 536a d83f cf58 e83f 4b47 f83f
00000290: e41a 0440 01fe 613f 7ded 803f f9db 903f
000002a0: 75ca a03f f1b8 b03f 6da7 c03f e995 d03f
000002b0: 6584 e03f e272 f03f af30 0040 ed27 0840
000002c0: 2b1f 1040 6916 1840 a70d 2040 e504 2840
000002d0: 6255 fa3e a907 1d3f a2e4 3c3f 9ac1 5c3f
000002e0: 929e 7c3f c53d 8e3f 412c 9e3f bd1a ae3f
000002f0: 3a09 be3f b6f7 cd3f 32e6 dd3f aed4 ed3f
00000300: 2ac3 fd3f d3d8 0640 11d0 0e40 4f89 983e
00000310: 3f43 d83e 98fe 0b3f 90db 2b3f 88b8 4b3f
00000320: 8095 6b3f 3cb9 853f b8a7 953f 3596 a53f
00000330: b184 b53f 2d73 c53f a961 d53f 2550 e53f
00000340: a13e f53f 8e96 0240 7410 103e 2ac2 873e
00000350: 1b7c c73e 069b 033f fe77 233f f654 433f
00000360: ee31 633f 7387 813f f075 913f 6c64 a13f
00000370: e852 b13f 6441 c13f e02f d13f 5c1e e13f
00000380: d80c f13f 66ff 913d 9473 483e baf3 a33e
00000390: aaad e33e ceb3 113f c690 313f be6d 513f
000003a0: b64a 713f d793 883f 5382 983f cf70 a83f
000003b0: 4b5f b83f c74d c83f 433c d83f bf2a e83f
000003c0: 0265 b8bd 8005 0d3d 41b5 223e 9014 913e
000003d0: 82ce d03e 3944 083f 3121 283f 29fe 473f
000003e0: 22db 673f 0ddc 833f 89ca 933f 05b9 a33f
000003f0: 81a7 b33f fd95 c33f 7984 d33f 1c37 003e
0.8375852 0.9620507 1.0865161 1.2109816 1.3354471 1.4599125 1.584378 1.7088435
1.833309 1.9577745 2.08224 2.2067056 2.331171 2.4556365 2.580102 0.5503281
0.67479354 0.79925907 0.92372453 1.04819 1.1726555 1.2971209 1.4215864 1.546052
1.6705174 1.7949829 1.9194484 2.0439138 2.1683793 2.2928448 0.89465106 1.0191165
1.143582 1.2680475 1.392513 1.5169785 1.641444 1.7659094 1.8903749 2.0148404
2.1393058 2.2637713 2.3882368 2.5127022 2.6371677 0.807223 0.9316885 1.056154
1.1806195 1.305085 1.4295504 1.5540159 1.6784813 1.8029468 1.9274123 2.0518777
2.1763432 2.3008087 2.4252741 2.5497396 0.78871745 0.9131829 1.0376484 1.1621139
1.2865794 1.4110448 1.5355103 1.6599758 1.7844412 1.9089067 2.0333722 2.1578376
2.282303 2.4067686 2.531234 0.28624848 0.41071394 0.53517944 0.6596449 0.78411037
0.90857583 1.0330414 1.1575068 1.2819723 1.4064378 1.5309032 1.6553687 1.7798342
1.9042996 2.0287652 0.92452914 1.0489947 1.1734601 1.2979256 1.422391 1.5468565
1.671322 1.7957875 1.920253 2.0447185 2.169184 2.2936494 2.418115 2.5425804
2.6670458 0.548113 0.67257845 0.7970439 0.9215094 1.045975 1.1704404 1.2949059
1.4193714 1.5438368 1.6683023 1.7927678 1.9172332 2.0416987 2.1661642 2.2906296
-0.0051377825 0.119327694 0.24379317 0.36825866 0.49272412 0.6171896 0.74165505 0.8661205
0.99058604 1.1150515 1.239517 1.3639824 1.4884479 1.6129134 1.7373788 0.059218597
0.18368408 0.30814955 0.432615 0.5570805 0.681546 0.80601144 0.9304769 1.0549425
1.179408 1.3038734 1.4283389 1.5528044 1.6772698 1.8017353 0.32162455 0.44609004
0.5705555 0.695021 0.8194865 0.94395196 1.0684174 1.1928829 1.3173484 1.4418138
1.5662793 1.6907448 1.8152102 1.9396757 2.0641413 0.88278204 1.0072476 1.131713
1.2561785 1.380644 1.5051094 1.6295749 1.7540404 1.878506 2.0029714 2.1274369
2.2519023 2.3763678 2.5008333 2.6252987 0.48893267 0.61339813 0.73786366 0.8623291
0.9867946 1.11126 1.2357255 1.360191 1.4846566 1.609122 1.7335875 1.858053
1.9825184 2.106984 2.2314494 0.29792258 0.42238805 0.54685354 0.671319 0.7957845
0.92024994 1.0447154 1.1691809 1.2936465 1.4181119 1.5425774 1.6670429 1.7915083
1.9159738 2.0404391 0.14068776 0.26515323 0.38961872 0.5140842 0.6385497 0.76301515
0.8874806 1.0119461 1.1364117 1.2608771 1.3853426 1.5098081 1.6342735 1.758739
1.8832045 0.071287915 0.1957534 0.32021886 0.44468433 0.56914985 0.6936153 0.8180808
0.94254625 1.0670117 1.1914772 1.3159426 1.4404081 1.5648736 1.689339 1.8138045
-0.09003641 0.034429073 0.15889455 0.28336 0.40782553 0.532291 0.65675646 0.7812219
0.90568745 1.0301529 1.1546184 1.2790838 1.4035493 1.5280148 1.6524802 0.12521023

MultiThreshold_2_param0 f4 [64, 15]
00000000: 887c 6f3c ff4c a73d 3755 183e ed03 5d3e
00000010: 52d9 903e ae30 b33e 0a88 d53e 64df f73e
00000020: 601b 0d3f 0e47 1e3f bb72 2f3f 699e 403f
00000030: 17ca 513f c5f5 623f 7221 743f fe2a b33f
00000040: d5c0 bb3f ac56 c43f 83ec cc3f 5a82 d53f
00000050: 3118 de3f 08ae e63f de43 ef3f b6d9 f73f
00000060: c637 0040 b282 0440 9dcd 0840 8818 0d40
00000070: 7463 1140 5fae 1540 6014 973c 8622 af3d
00000080: fa3f 1c3e b0ee 603e b4ce 923e 0f26 b53e
00000090: 6b7d d73e c6d4 f93e 1116 0e3f bf41 1f3f
000000a0: 6c6d 303f 1a99 413f c8c4 523f 76f0 633f
000000b0: 231c 753f 4e62 0c3d 958e cf3d 0276 2c3e
000000c0: b824 713e b8e9 9a3e 1341 bd3e 6f98 df3e
000000d0: e5f7 003f 9323 123f 414f 233f ee7a 343f
000000e0: 9ca6 453f 4ad2 563f f8fd 673f a529 793f
000000f0: 33d7 9e3f 0a6d a73f e102 b03f b898 b83f
00000100: 8f2e c13f 66c4 c93f 3d5a d23f 14f0 da3f
00000110: ea85 e33f c21b ec3f 98b1 f43f 6f47 fd3f
00000120: a3ee 0240 8e39 0740 7a84 0b40 851a da3f
00000130: 5cb0 e23f 3346 eb3f 0adc f33f e171 fc3f
00000140: dc83 0240 c7ce 0640 b319 0b40 9e64 0f40
00000150: 8aaf 1340 75fa 1740 6045 1c40 4c90 2040
00000160: 38db 2440 2326 2940 baf5 393d 4b58 e63d
00000170: ddda 373e 9389 7c3e 269c a03e 80f3 c23e
00000180: dc4a e53e 1cd1 033f cafc 143f 7828 263f
00000190: 2554 373f d37f 483f 81ab 593f 2fd7 6a3f
000001a0: dc02 7c3f 757b 2d3d 281b e03d 4cbc 343e
000001b0: 026b 793e dd0c 9f3e 3864 c13e 94bb e33e
000001c0: 7709 033f 2535 143f d360 253f 808c 363f
000001d0: 2eb8 473f dce3 583f 8a0f 6a3f 373b 7b3f
000001e0: da56 653e c902 953e 245a b73e 80b1 d93e
000001f0: dc08 fc3e 1b30 0f3f c95b 203f 7787 313f
00000200: 25b3 423f d3de 533f 800a 653f 2e36 763f
00000210: eeb0 833f c546 8c3f 9bdc 943f d95c 193f
00000220: 8788 2a3f 34b4 3b3f e2df 4c3f 900b 5e3f
00000230: 3e37 6f3f 7631 803f 4cc7 883f 245d 913f
00000240: faf2 993f d188 a23f a81e ab3f 7fb4 b33f
00000250: 564a bc3f 2ce0 c43f 91ea 233f 3f16 353f
00000260: ec41 463f 9a6d 573f 4899 683f f6c4 793f
00000270: 5278 853f 280e 8e3f 00a4 963f d639 9f3f
00000280: adcf a73f 8465 b03f 5bfb b83f 3291 c13f
00000290: 0827 ca3f 00e1 cf3b 7e5b 963d 76dc 0f3e
000002a0: 2c8b 543e f29c 8c3e 4df4 ae3e a94b d13e
000002b0: 04a3 f33e 30fd 0a3f de28 1c3f 8b54 2d3f
000002c0: 3980 3e3f e7ab 4f3f 95d7 603f 4203 723f
000002d0: ec34 cabf 159f c1bf 3e09 b9bf 6773 b0bf
000002e0: 90dd a7bf b947 9fbf e2b1 96bf 0c1c 8ebf
000002f0: 3486 85bf bbe0 79bf 0eb5 68bf 6089 57bf
00000300: b25d 46bf 0432 35bf 5706 24bf a41a 65bf
00000310: f6ee 53bf 48c3 42bf 9b97 31bf ed6b 20bf
00000320: 4040 0fbf 2329 fcbe c8d1 d9be 6c7a b7be
00000330: 1023 95be 6c97 65be b4e8 20be f873 b8bd
00000340: 205a bcbc c08d 343d bfa6 9c3f 963c a53f
00000350: 6dd2 ad3f 4468 b63f 1bfe be3f f293 c73f
00000360: c929 d03f a0bf d83f 7655 e13f 4eeb e93f
00000370: 2481 f23f fb16 fb3f 69d6 0140 5421 0640
00000380: 406c 0a40 1a54 92bf 43be 89bf 6c28 81bf
00000390: 2a25 71bf 7cf9 5fbf cecd 4ebf 20a2 3dbf
000003a0: 7376 2cbf c54a 1bbf 171f 0abf d4e6 f1be
000003b0: 788f cfbe 1c38 adbe c0e0 8abe cc12 51be
000003c0: fe24 b43f d5ba bc3f ac50 c53f 83e6 cd3f
000003d0: 5a7c d63f 3112 df3f 08a8 e73f de3d f03f
000003e0: b6d3 f83f c6b4 0040 b2ff 0440 9d4a 0940
000003f0: 8895 0d40 74e0 1140 5f2b 1640 e990 b73e
0.014617093 0.08168983 0.14876257 0.21583529 0.28290802 0.34998077 0.41705352 0.4841262
0.55119896 0.6182717 0.6853444 0.75241715 0.8194899 0.88656265 0.95363533 1.3997495
1.4668223 1.533895 1.6009678 1.6680405 1.7351133 1.802186 1.8692586 1.9363315
2.0034041 2.070477 2.1375496 2.2046223 2.2716951 2.3387678 0.018442333 0.08551507
0.1525878 0.21966052 0.28673327 0.353806 0.42087874 0.48795146 0.5550242 0.62209696
0.68916965 0.7562424 0.82331514 0.8903879 0.9574606 0.03427344 0.10134617 0.16841891
0.23549163 0.30256438 0.3696371 0.43670985 0.5037826 0.5708553 0.63792807 0.70500076
0.7720735 0.83914626 0.906219 0.9732917 1.2409424 1.3080151 1.3750879 1.4421606
1.5092334 1.5763061 1.6433789 1.7104516 1.7775242 1.8445971 1.9116697 1.9787425
2.0458152 2.1128879 2.1799607 1.7039343 1.7710071 1.8380798 1.9051526 1.9722253
2.039298 2.1063707 2.1734436 2.2405162 2.307589 2.3746617 2.4417343 2.5088072
2.57588 2.6429527 0.04540036 0.11247309 0.17954583 0.24661855 0.31369132 0.380764
0.44783676 0.5149095 0.58198225 0.649055 0.7161277 0.78320044 0.8502732 0.91734594
0.98441863 0.042354066 0.1094268 0.17649955 0.24357226 0.310645 0.37771773 0.44479048
0.5118632 0.5789359 0.6460087 0.71308136 0.7801541 0.84722686 0.9142996 0.9813723
0.22396412 0.29103687 0.3581096 0.42518234 0.4922551 0.5593278 0.62640053 0.6934733
0.760546 0.8276188 0.89469147 0.9617642 1.028837 1.0959097 1.1629823 0.599073
0.66614574 0.73321843 0.8002912 0.8673639 0.9344367 1.0015094 1.068582 1.1356549
1.2027276 1.2698003 1.336873 1.4039458 1.4710186 1.5380912 0.64029795 0.7073707
0.7744434 0.84151614 0.9085889 0.97566164 1.0427344 1.109807 1.1768799 1.2439525
1.3110253 1.378098 1.4451708 1.5122435 1.5793161 0.0063439608 0.073416695 0.14048943
0.20756215 0.2746349 0.34170762 0.40878037 0.4758531 0.54292583 0.6099986 0.6770713
0.744144 0.8112168 0.8782895 0.9453622 -1.57974 -1.5126673 -1.4455945 -1.3785218
-1.311449 -1.2443763 -1.1773036 -1.1102309 -1.043158 -0.97608536 -0.9090127 -0.8419399
-0.7748672 -0.7077944 -0.64072174 -0.89493775 -0.827865 -0.76079226 -0.69371957 -0.6266468
-0.5595741 -0.49250135 -0.42542863 -0.35835588 -0.29128313 -0.22421044 -0.15713769 -0.09006494
-0.022992194 0.044080496 1.2238387 1.2909114 1.3579842 1.4250569 1.4921297 1.5592024
1.6262752 1.6933479 1.7604206 1.8274934 1.894566 1.9616388 2.0287116 2.0957842
2.162857 -1.1431916 -1.0761188 -1.0090461 -0.9419733 -0.8749006 -0.80782783 -0.7407551
-0.6736824 -0.60660964 -0.5395369 -0.4724642 -0.40539145 -0.3383187 -0.27124596 -0.20417327
1.4073789 1.4744517 1.5415244 1.6085972 1.6756699 1.7427427 1.8098154 1.876888
1.9439609 2.0110335 2.0781064 2.145179 2.2122517 2.2793245 2.3463972 0.35852745
